#loc = loc("/root/Profiler/examples/sdpa_attention/test_run/inductor_debug_opt/a3/ca3f5zu47tnhngq34v7kdbkqugdymbde47befinwbhgutafu2mfd.py":18:0)
#loc2 = loc(unknown)
#loc26 = loc("/root/Profiler/examples/sdpa_attention/test_run/inductor_debug_opt/a3/ca3f5zu47tnhngq34v7kdbkqugdymbde47befinwbhgutafu2mfd.py":42:24)
#loc32 = loc("/root/Profiler/examples/sdpa_attention/test_run/inductor_debug_opt/a3/ca3f5zu47tnhngq34v7kdbkqugdymbde47befinwbhgutafu2mfd.py":49:26)
#loc41 = loc("in_out_ptr0"(#loc))
#loc42 = loc("in_ptr0"(#loc))
#loc43 = loc("in_ptr1"(#loc))
#loc44 = loc("in_ptr2"(#loc))
#loc45 = loc("xnumel"(#loc))
#loc46 = loc("r0_numel"(#loc))
#loc70 = loc("tmp8"(#loc26))
#loc75 = loc("tmp16"(#loc32))
#loc83 = loc(callsite(#loc2 at #loc70))
#loc85 = loc(callsite(#loc2 at #loc75))
module {
  tt.func public @triton_per_fused__unsafe_view_add_native_layer_norm_3(%in_out_ptr0: !tt.ptr<bf16> {tt.divisibility = 16 : i32} loc("in_out_ptr0"(#loc)), %in_ptr0: !tt.ptr<bf16> {tt.divisibility = 16 : i32} loc("in_ptr0"(#loc)), %in_ptr1: !tt.ptr<bf16> {tt.divisibility = 16 : i32} loc("in_ptr1"(#loc)), %in_ptr2: !tt.ptr<bf16> {tt.divisibility = 16 : i32} loc("in_ptr2"(#loc)), %xnumel: i32 {tt.divisibility = 16 : i32} loc("xnumel"(#loc)), %r0_numel: i32 {tt.divisibility = 16 : i32} loc("r0_numel"(#loc))) attributes {noinline = false} {
    %tmp21 = arith.constant dense<9.99999974E-6> : tensor<8x1xf32> loc(#loc47)
    %cst = arith.constant dense<5.120000e+02> : tensor<8x1xf32> loc(#loc2)
    %cst_0 = arith.constant dense<512> : tensor<8x1xi32> loc(#loc2)
    %c8_i32 = arith.constant 8 : i32 loc(#loc2)
    %xoffset = tt.get_program_id x : i32 loc(#loc48)
    %xoffset_1 = arith.muli %xoffset, %c8_i32 : i32 loc(#loc49)
    %xindex = tt.make_range {end = 8 : i32, start = 0 : i32} : tensor<8xi32> loc(#loc50)
    %xindex_2 = tt.expand_dims %xindex {axis = 1 : i32} : tensor<8xi32> -> tensor<8x1xi32> loc(#loc51)
    %xindex_3 = tt.splat %xoffset_1 : i32 -> tensor<8x1xi32> loc(#loc52)
    %xindex_4 = arith.addi %xindex_3, %xindex_2 : tensor<8x1xi32> loc(#loc52)
    %r0_index = tt.make_range {end = 512 : i32, start = 0 : i32} : tensor<512xi32> loc(#loc53)
    %r0_index_5 = tt.expand_dims %r0_index {axis = 0 : i32} : tensor<512xi32> -> tensor<1x512xi32> loc(#loc54)
    %tmp0 = arith.muli %xindex_4, %cst_0 : tensor<8x1xi32> loc(#loc55)
    %tmp0_6 = tt.broadcast %r0_index_5 : tensor<1x512xi32> -> tensor<8x512xi32> loc(#loc56)
    %tmp0_7 = tt.broadcast %tmp0 : tensor<8x1xi32> -> tensor<8x512xi32> loc(#loc56)
    %tmp0_8 = arith.addi %tmp0_6, %tmp0_7 : tensor<8x512xi32> loc(#loc56)
    %tmp0_9 = tt.splat %in_out_ptr0 : !tt.ptr<bf16> -> tensor<8x512x!tt.ptr<bf16>> loc(#loc57)
    %tmp0_10 = tt.addptr %tmp0_9, %tmp0_8 : tensor<8x512x!tt.ptr<bf16>>, tensor<8x512xi32> loc(#loc57)
    %tmp0_11 = tt.load %tmp0_10 : tensor<8x512x!tt.ptr<bf16>> loc(#loc58)
    %tmp0_12 = arith.extf %tmp0_11 : tensor<8x512xbf16> to tensor<8x512xf32> loc(#loc59)
    %tmp1 = tt.splat %in_ptr0 : !tt.ptr<bf16> -> tensor<8x512x!tt.ptr<bf16>> loc(#loc60)
    %tmp1_13 = tt.addptr %tmp1, %tmp0_8 : tensor<8x512x!tt.ptr<bf16>>, tensor<8x512xi32> loc(#loc60)
    %tmp1_14 = tt.load %tmp1_13 : tensor<8x512x!tt.ptr<bf16>> loc(#loc61)
    %tmp1_15 = arith.extf %tmp1_14 : tensor<8x512xbf16> to tensor<8x512xf32> loc(#loc62)
    %tmp24 = tt.splat %in_ptr1 : !tt.ptr<bf16> -> tensor<1x512x!tt.ptr<bf16>> loc(#loc63)
    %tmp24_16 = tt.addptr %tmp24, %r0_index_5 : tensor<1x512x!tt.ptr<bf16>>, tensor<1x512xi32> loc(#loc63)
    %tmp24_17 = tt.load %tmp24_16 evictionPolicy = evict_last : tensor<1x512x!tt.ptr<bf16>> loc(#loc64)
    %tmp24_18 = arith.extf %tmp24_17 : tensor<1x512xbf16> to tensor<1x512xf32> loc(#loc65)
    %tmp27 = tt.splat %in_ptr2 : !tt.ptr<bf16> -> tensor<1x512x!tt.ptr<bf16>> loc(#loc66)
    %tmp27_19 = tt.addptr %tmp27, %r0_index_5 : tensor<1x512x!tt.ptr<bf16>>, tensor<1x512xi32> loc(#loc66)
    %tmp27_20 = tt.load %tmp27_19 evictionPolicy = evict_last : tensor<1x512x!tt.ptr<bf16>> loc(#loc67)
    %tmp27_21 = arith.extf %tmp27_20 : tensor<1x512xbf16> to tensor<1x512xf32> loc(#loc68)
    %tmp2 = arith.addf %tmp0_12, %tmp1_15 : tensor<8x512xf32> loc(#loc69)
    %tmp8 = "tt.reduce"(%tmp2) <{axis = 1 : i32}> ({
    ^bb0(%tmp8_29: f32 loc(callsite(#loc2 at #loc70)), %tmp8_30: f32 loc(callsite(#loc2 at #loc70))):
      %tmp8_31 = arith.addf %tmp8_29, %tmp8_30 : f32 loc(#loc86)
      tt.reduce.return %tmp8_31 : f32 loc(#loc82)
    }) : (tensor<8x512xf32>) -> tensor<8xf32> loc(#loc82)
    %tmp8_22 = tt.expand_dims %tmp8 {axis = 1 : i32} : tensor<8xf32> -> tensor<8x1xf32> loc(#loc71)
    %tmp11 = arith.divf %tmp8_22, %cst : tensor<8x1xf32> loc(#loc72)
    %tmp12 = tt.broadcast %tmp11 : tensor<8x1xf32> -> tensor<8x512xf32> loc(#loc73)
    %tmp12_23 = arith.subf %tmp2, %tmp12 : tensor<8x512xf32> loc(#loc73)
    %tmp13 = arith.mulf %tmp12_23, %tmp12_23 : tensor<8x512xf32> loc(#loc74)
    %tmp16 = "tt.reduce"(%tmp13) <{axis = 1 : i32}> ({
    ^bb0(%tmp16_29: f32 loc(callsite(#loc2 at #loc75)), %tmp16_30: f32 loc(callsite(#loc2 at #loc75))):
      %tmp16_31 = arith.addf %tmp16_29, %tmp16_30 : f32 loc(#loc87)
      tt.reduce.return %tmp16_31 : f32 loc(#loc84)
    }) : (tensor<8x512xf32>) -> tensor<8xf32> loc(#loc84)
    %tmp16_24 = tt.expand_dims %tmp16 {axis = 1 : i32} : tensor<8xf32> -> tensor<8x1xf32> loc(#loc76)
    %tmp19 = arith.divf %tmp16_24, %cst : tensor<8x1xf32> loc(#loc77)
    %tmp21_25 = arith.addf %tmp19, %tmp21 : tensor<8x1xf32> loc(#loc47)
    %tmp22 = tt.extern_elementwise %tmp21_25 {libname = "", libpath = "", pure = true, symbol = "__nv_rsqrtf"} : (tensor<8x1xf32>) -> tensor<8x1xf32> loc(#loc78)
    %tmp23 = tt.broadcast %tmp22 : tensor<8x1xf32> -> tensor<8x512xf32> loc(#loc79)
    %tmp23_26 = arith.mulf %tmp12_23, %tmp23 : tensor<8x512xf32> loc(#loc79)
    %tmp26 = tt.broadcast %tmp24_18 : tensor<1x512xf32> -> tensor<8x512xf32> loc(#loc80)
    %tmp26_27 = arith.mulf %tmp23_26, %tmp26 : tensor<8x512xf32> loc(#loc80)
    %tmp29 = tt.broadcast %tmp27_21 : tensor<1x512xf32> -> tensor<8x512xf32> loc(#loc81)
    %tmp29_28 = arith.addf %tmp26_27, %tmp29 : tensor<8x512xf32> loc(#loc81)
    %0 = arith.truncf %tmp29_28 : tensor<8x512xf32> to tensor<8x512xbf16> loc(#loc39)
    tt.store %tmp0_10, %0 : tensor<8x512x!tt.ptr<bf16>> loc(#loc39)
    tt.return loc(#loc40)
  } loc(#loc)
} loc(#loc)
#loc1 = loc("/root/Profiler/examples/sdpa_attention/test_run/inductor_debug_opt/a3/ca3f5zu47tnhngq34v7kdbkqugdymbde47befinwbhgutafu2mfd.py":54:20)
#loc3 = loc("/root/Profiler/examples/sdpa_attention/test_run/inductor_debug_opt/a3/ca3f5zu47tnhngq34v7kdbkqugdymbde47befinwbhgutafu2mfd.py":24:28)
#loc4 = loc("/root/Profiler/examples/sdpa_attention/test_run/inductor_debug_opt/a3/ca3f5zu47tnhngq34v7kdbkqugdymbde47befinwbhgutafu2mfd.py":24:33)
#loc5 = loc("/root/Profiler/examples/sdpa_attention/test_run/inductor_debug_opt/a3/ca3f5zu47tnhngq34v7kdbkqugdymbde47befinwbhgutafu2mfd.py":25:36)
#loc6 = loc("/root/Profiler/examples/sdpa_attention/test_run/inductor_debug_opt/a3/ca3f5zu47tnhngq34v7kdbkqugdymbde47befinwbhgutafu2mfd.py":25:44)
#loc7 = loc("/root/Profiler/examples/sdpa_attention/test_run/inductor_debug_opt/a3/ca3f5zu47tnhngq34v7kdbkqugdymbde47befinwbhgutafu2mfd.py":25:23)
#loc8 = loc("/root/Profiler/examples/sdpa_attention/test_run/inductor_debug_opt/a3/ca3f5zu47tnhngq34v7kdbkqugdymbde47befinwbhgutafu2mfd.py":27:28)
#loc9 = loc("/root/Profiler/examples/sdpa_attention/test_run/inductor_debug_opt/a3/ca3f5zu47tnhngq34v7kdbkqugdymbde47befinwbhgutafu2mfd.py":27:38)
#loc10 = loc("/root/Profiler/examples/sdpa_attention/test_run/inductor_debug_opt/a3/ca3f5zu47tnhngq34v7kdbkqugdymbde47befinwbhgutafu2mfd.py":34:45)
#loc11 = loc("/root/Profiler/examples/sdpa_attention/test_run/inductor_debug_opt/a3/ca3f5zu47tnhngq34v7kdbkqugdymbde47befinwbhgutafu2mfd.py":34:41)
#loc12 = loc("/root/Profiler/examples/sdpa_attention/test_run/inductor_debug_opt/a3/ca3f5zu47tnhngq34v7kdbkqugdymbde47befinwbhgutafu2mfd.py":34:34)
#loc13 = loc("/root/Profiler/examples/sdpa_attention/test_run/inductor_debug_opt/a3/ca3f5zu47tnhngq34v7kdbkqugdymbde47befinwbhgutafu2mfd.py":34:50)
#loc14 = loc("/root/Profiler/examples/sdpa_attention/test_run/inductor_debug_opt/a3/ca3f5zu47tnhngq34v7kdbkqugdymbde47befinwbhgutafu2mfd.py":34:59)
#loc15 = loc("/root/Profiler/examples/sdpa_attention/test_run/inductor_debug_opt/a3/ca3f5zu47tnhngq34v7kdbkqugdymbde47befinwbhgutafu2mfd.py":35:30)
#loc16 = loc("/root/Profiler/examples/sdpa_attention/test_run/inductor_debug_opt/a3/ca3f5zu47tnhngq34v7kdbkqugdymbde47befinwbhgutafu2mfd.py":35:46)
#loc17 = loc("/root/Profiler/examples/sdpa_attention/test_run/inductor_debug_opt/a3/ca3f5zu47tnhngq34v7kdbkqugdymbde47befinwbhgutafu2mfd.py":35:55)
#loc18 = loc("/root/Profiler/examples/sdpa_attention/test_run/inductor_debug_opt/a3/ca3f5zu47tnhngq34v7kdbkqugdymbde47befinwbhgutafu2mfd.py":36:31)
#loc19 = loc("/root/Profiler/examples/sdpa_attention/test_run/inductor_debug_opt/a3/ca3f5zu47tnhngq34v7kdbkqugdymbde47befinwbhgutafu2mfd.py":36:38)
#loc20 = loc("/root/Profiler/examples/sdpa_attention/test_run/inductor_debug_opt/a3/ca3f5zu47tnhngq34v7kdbkqugdymbde47befinwbhgutafu2mfd.py":36:77)
#loc21 = loc("/root/Profiler/examples/sdpa_attention/test_run/inductor_debug_opt/a3/ca3f5zu47tnhngq34v7kdbkqugdymbde47befinwbhgutafu2mfd.py":37:31)
#loc22 = loc("/root/Profiler/examples/sdpa_attention/test_run/inductor_debug_opt/a3/ca3f5zu47tnhngq34v7kdbkqugdymbde47befinwbhgutafu2mfd.py":37:38)
#loc23 = loc("/root/Profiler/examples/sdpa_attention/test_run/inductor_debug_opt/a3/ca3f5zu47tnhngq34v7kdbkqugdymbde47befinwbhgutafu2mfd.py":37:77)
#loc24 = loc("/root/Profiler/examples/sdpa_attention/test_run/inductor_debug_opt/a3/ca3f5zu47tnhngq34v7kdbkqugdymbde47befinwbhgutafu2mfd.py":38:18)
#loc25 = loc("/usr/local/lib/python3.10/dist-packages/triton/language/standard.py":293:36)
#loc27 = loc("/usr/local/lib/python3.10/dist-packages/triton/language/standard.py":263:15)
#loc28 = loc("/root/Profiler/examples/sdpa_attention/test_run/inductor_debug_opt/a3/ca3f5zu47tnhngq34v7kdbkqugdymbde47befinwbhgutafu2mfd.py":42:27)
#loc29 = loc("/root/Profiler/examples/sdpa_attention/test_run/inductor_debug_opt/a3/ca3f5zu47tnhngq34v7kdbkqugdymbde47befinwbhgutafu2mfd.py":45:20)
#loc30 = loc("/root/Profiler/examples/sdpa_attention/test_run/inductor_debug_opt/a3/ca3f5zu47tnhngq34v7kdbkqugdymbde47befinwbhgutafu2mfd.py":46:19)
#loc31 = loc("/root/Profiler/examples/sdpa_attention/test_run/inductor_debug_opt/a3/ca3f5zu47tnhngq34v7kdbkqugdymbde47befinwbhgutafu2mfd.py":47:20)
#loc33 = loc("/root/Profiler/examples/sdpa_attention/test_run/inductor_debug_opt/a3/ca3f5zu47tnhngq34v7kdbkqugdymbde47befinwbhgutafu2mfd.py":49:29)
#loc34 = loc("/root/Profiler/examples/sdpa_attention/test_run/inductor_debug_opt/a3/ca3f5zu47tnhngq34v7kdbkqugdymbde47befinwbhgutafu2mfd.py":52:21)
#loc35 = loc("/root/Profiler/examples/sdpa_attention/test_run/inductor_debug_opt/a3/ca3f5zu47tnhngq34v7kdbkqugdymbde47befinwbhgutafu2mfd.py":55:28)
#loc36 = loc("/root/Profiler/examples/sdpa_attention/test_run/inductor_debug_opt/a3/ca3f5zu47tnhngq34v7kdbkqugdymbde47befinwbhgutafu2mfd.py":56:20)
#loc37 = loc("/root/Profiler/examples/sdpa_attention/test_run/inductor_debug_opt/a3/ca3f5zu47tnhngq34v7kdbkqugdymbde47befinwbhgutafu2mfd.py":58:20)
#loc38 = loc("/root/Profiler/examples/sdpa_attention/test_run/inductor_debug_opt/a3/ca3f5zu47tnhngq34v7kdbkqugdymbde47befinwbhgutafu2mfd.py":60:20)
#loc39 = loc("/root/Profiler/examples/sdpa_attention/test_run/inductor_debug_opt/a3/ca3f5zu47tnhngq34v7kdbkqugdymbde47befinwbhgutafu2mfd.py":62:51)
#loc40 = loc("/root/Profiler/examples/sdpa_attention/test_run/inductor_debug_opt/a3/ca3f5zu47tnhngq34v7kdbkqugdymbde47befinwbhgutafu2mfd.py":62:4)
#loc47 = loc("tmp21"(#loc1))
#loc48 = loc("xoffset"(#loc3))
#loc49 = loc("xoffset"(#loc4))
#loc50 = loc("xindex"(#loc5))
#loc51 = loc("xindex"(#loc6))
#loc52 = loc("xindex"(#loc7))
#loc53 = loc("r0_index"(#loc8))
#loc54 = loc("r0_index"(#loc9))
#loc55 = loc("tmp0"(#loc10))
#loc56 = loc("tmp0"(#loc11))
#loc57 = loc("tmp0"(#loc12))
#loc58 = loc("tmp0"(#loc13))
#loc59 = loc("tmp0"(#loc14))
#loc60 = loc("tmp1"(#loc15))
#loc61 = loc("tmp1"(#loc16))
#loc62 = loc("tmp1"(#loc17))
#loc63 = loc("tmp24"(#loc18))
#loc64 = loc("tmp24"(#loc19))
#loc65 = loc("tmp24"(#loc20))
#loc66 = loc("tmp27"(#loc21))
#loc67 = loc("tmp27"(#loc22))
#loc68 = loc("tmp27"(#loc23))
#loc69 = loc("tmp2"(#loc24))
#loc71 = loc("tmp8"(#loc28))
#loc72 = loc("tmp11"(#loc29))
#loc73 = loc("tmp12"(#loc30))
#loc74 = loc("tmp13"(#loc31))
#loc76 = loc("tmp16"(#loc33))
#loc77 = loc("tmp19"(#loc34))
#loc78 = loc("tmp22"(#loc35))
#loc79 = loc("tmp23"(#loc36))
#loc80 = loc("tmp26"(#loc37))
#loc81 = loc("tmp29"(#loc38))
#loc82 = loc(callsite(#loc25 at #loc70))
#loc84 = loc(callsite(#loc25 at #loc75))
#loc86 = loc(callsite(#loc27 at #loc82))
#loc87 = loc(callsite(#loc27 at #loc84))
