#loc = loc("/root/Profiler/examples/sdpa_attention/test_run/inductor_debug_opt/gh/cghiaxpkyapyectmmmosbn24ylcnd3qcdx3wi2olybiupbs53gla.py":18:0)
#loc1 = loc(unknown)
#loc18 = loc("/root/Profiler/examples/sdpa_attention/test_run/inductor_debug_opt/gh/cghiaxpkyapyectmmmosbn24ylcnd3qcdx3wi2olybiupbs53gla.py":40:24)
#loc24 = loc("/root/Profiler/examples/sdpa_attention/test_run/inductor_debug_opt/gh/cghiaxpkyapyectmmmosbn24ylcnd3qcdx3wi2olybiupbs53gla.py":47:26)
#loc35 = loc("in_ptr0"(#loc))
#loc36 = loc("in_ptr1"(#loc))
#loc37 = loc("in_ptr2"(#loc))
#loc38 = loc("out_ptr2"(#loc))
#loc39 = loc("xnumel"(#loc))
#loc40 = loc("r0_numel"(#loc))
#loc56 = loc("tmp6"(#loc18))
#loc61 = loc("tmp14"(#loc24))
#loc71 = loc(callsite(#loc1 at #loc56))
#loc73 = loc(callsite(#loc1 at #loc61))
module {
  tt.func public @triton_per_fused_native_layer_norm_0(%in_ptr0: !tt.ptr<bf16> {tt.divisibility = 16 : i32} loc("in_ptr0"(#loc)), %in_ptr1: !tt.ptr<bf16> {tt.divisibility = 16 : i32} loc("in_ptr1"(#loc)), %in_ptr2: !tt.ptr<bf16> {tt.divisibility = 16 : i32} loc("in_ptr2"(#loc)), %out_ptr2: !tt.ptr<bf16> {tt.divisibility = 16 : i32} loc("out_ptr2"(#loc)), %xnumel: i32 {tt.divisibility = 16 : i32} loc("xnumel"(#loc)), %r0_numel: i32 {tt.divisibility = 16 : i32} loc("r0_numel"(#loc))) attributes {noinline = false} {
    %c512_i32 = arith.constant 512 : i32 loc(#loc1)
    %tmp18 = arith.constant dense<9.99999974E-6> : tensor<1x1xf32> loc(#loc41)
    %cst = arith.constant dense<5.120000e+02> : tensor<1x1xf32> loc(#loc1)
    %xoffset = tt.get_program_id x : i32 loc(#loc42)
    %r0_index = tt.make_range {end = 512 : i32, start = 0 : i32} : tensor<512xi32> loc(#loc43)
    %r0_index_0 = tt.expand_dims %r0_index {axis = 0 : i32} : tensor<512xi32> -> tensor<1x512xi32> loc(#loc44)
    %tmp0 = arith.muli %xoffset, %c512_i32 : i32 loc(#loc45)
    %tmp0_1 = tt.splat %tmp0 : i32 -> tensor<1x512xi32> loc(#loc69)
    %tmp0_2 = arith.addi %r0_index_0, %tmp0_1 : tensor<1x512xi32> loc(#loc46)
    %tmp0_3 = tt.splat %in_ptr0 : !tt.ptr<bf16> -> tensor<1x512x!tt.ptr<bf16>> loc(#loc47)
    %tmp0_4 = tt.addptr %tmp0_3, %tmp0_2 : tensor<1x512x!tt.ptr<bf16>>, tensor<1x512xi32> loc(#loc47)
    %tmp0_5 = tt.load %tmp0_4 : tensor<1x512x!tt.ptr<bf16>> loc(#loc48)
    %tmp0_6 = arith.extf %tmp0_5 : tensor<1x512xbf16> to tensor<1x512xf32> loc(#loc49)
    %tmp22 = tt.splat %in_ptr1 : !tt.ptr<bf16> -> tensor<1x512x!tt.ptr<bf16>> loc(#loc50)
    %tmp22_7 = tt.addptr %tmp22, %r0_index_0 : tensor<1x512x!tt.ptr<bf16>>, tensor<1x512xi32> loc(#loc50)
    %tmp22_8 = tt.load %tmp22_7 evictionPolicy = evict_last : tensor<1x512x!tt.ptr<bf16>> loc(#loc51)
    %tmp22_9 = arith.extf %tmp22_8 : tensor<1x512xbf16> to tensor<1x512xf32> loc(#loc52)
    %tmp25 = tt.splat %in_ptr2 : !tt.ptr<bf16> -> tensor<1x512x!tt.ptr<bf16>> loc(#loc53)
    %tmp25_10 = tt.addptr %tmp25, %r0_index_0 : tensor<1x512x!tt.ptr<bf16>>, tensor<1x512xi32> loc(#loc53)
    %tmp25_11 = tt.load %tmp25_10 evictionPolicy = evict_last : tensor<1x512x!tt.ptr<bf16>> loc(#loc54)
    %tmp25_12 = arith.extf %tmp25_11 : tensor<1x512xbf16> to tensor<1x512xf32> loc(#loc55)
    %tmp6 = "tt.reduce"(%tmp0_6) <{axis = 1 : i32}> ({
    ^bb0(%tmp6_17: f32 loc(callsite(#loc1 at #loc56)), %tmp6_18: f32 loc(callsite(#loc1 at #loc56))):
      %tmp6_19 = arith.addf %tmp6_17, %tmp6_18 : f32 loc(#loc74)
      tt.reduce.return %tmp6_19 : f32 loc(#loc70)
    }) : (tensor<1x512xf32>) -> tensor<1xf32> loc(#loc70)
    %tmp6_13 = tt.expand_dims %tmp6 {axis = 1 : i32} : tensor<1xf32> -> tensor<1x1xf32> loc(#loc57)
    %tmp9 = arith.divf %tmp6_13, %cst : tensor<1x1xf32> loc(#loc58)
    %tmp10 = tt.broadcast %tmp9 : tensor<1x1xf32> -> tensor<1x512xf32> loc(#loc59)
    %tmp10_14 = arith.subf %tmp0_6, %tmp10 : tensor<1x512xf32> loc(#loc59)
    %tmp11 = arith.mulf %tmp10_14, %tmp10_14 : tensor<1x512xf32> loc(#loc60)
    %tmp14 = "tt.reduce"(%tmp11) <{axis = 1 : i32}> ({
    ^bb0(%tmp14_17: f32 loc(callsite(#loc1 at #loc61)), %tmp14_18: f32 loc(callsite(#loc1 at #loc61))):
      %tmp14_19 = arith.addf %tmp14_17, %tmp14_18 : f32 loc(#loc75)
      tt.reduce.return %tmp14_19 : f32 loc(#loc72)
    }) : (tensor<1x512xf32>) -> tensor<1xf32> loc(#loc72)
    %tmp14_15 = tt.expand_dims %tmp14 {axis = 1 : i32} : tensor<1xf32> -> tensor<1x1xf32> loc(#loc62)
    %tmp17 = arith.divf %tmp14_15, %cst : tensor<1x1xf32> loc(#loc63)
    %tmp19 = arith.addf %tmp17, %tmp18 : tensor<1x1xf32> loc(#loc64)
    %tmp20 = tt.extern_elementwise %tmp19 {libname = "", libpath = "", pure = true, symbol = "__nv_rsqrtf"} : (tensor<1x1xf32>) -> tensor<1x1xf32> loc(#loc65)
    %tmp21 = tt.broadcast %tmp20 : tensor<1x1xf32> -> tensor<1x512xf32> loc(#loc66)
    %tmp21_16 = arith.mulf %tmp10_14, %tmp21 : tensor<1x512xf32> loc(#loc66)
    %tmp24 = arith.mulf %tmp21_16, %tmp22_9 : tensor<1x512xf32> loc(#loc67)
    %tmp27 = arith.addf %tmp24, %tmp25_12 : tensor<1x512xf32> loc(#loc68)
    %0 = tt.splat %out_ptr2 : !tt.ptr<bf16> -> tensor<1x512x!tt.ptr<bf16>> loc(#loc32)
    %1 = tt.addptr %0, %tmp0_2 : tensor<1x512x!tt.ptr<bf16>>, tensor<1x512xi32> loc(#loc32)
    %2 = arith.truncf %tmp27 : tensor<1x512xf32> to tensor<1x512xbf16> loc(#loc33)
    tt.store %1, %2 : tensor<1x512x!tt.ptr<bf16>> loc(#loc33)
    tt.return loc(#loc34)
  } loc(#loc)
} loc(#loc)
#loc2 = loc("/root/Profiler/examples/sdpa_attention/test_run/inductor_debug_opt/gh/cghiaxpkyapyectmmmosbn24ylcnd3qcdx3wi2olybiupbs53gla.py":51:35)
#loc3 = loc("/root/Profiler/examples/sdpa_attention/test_run/inductor_debug_opt/gh/cghiaxpkyapyectmmmosbn24ylcnd3qcdx3wi2olybiupbs53gla.py":24:28)
#loc4 = loc("/root/Profiler/examples/sdpa_attention/test_run/inductor_debug_opt/gh/cghiaxpkyapyectmmmosbn24ylcnd3qcdx3wi2olybiupbs53gla.py":27:28)
#loc5 = loc("/root/Profiler/examples/sdpa_attention/test_run/inductor_debug_opt/gh/cghiaxpkyapyectmmmosbn24ylcnd3qcdx3wi2olybiupbs53gla.py":27:38)
#loc6 = loc("/root/Profiler/examples/sdpa_attention/test_run/inductor_debug_opt/gh/cghiaxpkyapyectmmmosbn24ylcnd3qcdx3wi2olybiupbs53gla.py":34:41)
#loc7 = loc("/root/Profiler/examples/sdpa_attention/test_run/inductor_debug_opt/gh/cghiaxpkyapyectmmmosbn24ylcnd3qcdx3wi2olybiupbs53gla.py":34:37)
#loc8 = loc("/root/Profiler/examples/sdpa_attention/test_run/inductor_debug_opt/gh/cghiaxpkyapyectmmmosbn24ylcnd3qcdx3wi2olybiupbs53gla.py":34:30)
#loc9 = loc("/root/Profiler/examples/sdpa_attention/test_run/inductor_debug_opt/gh/cghiaxpkyapyectmmmosbn24ylcnd3qcdx3wi2olybiupbs53gla.py":34:46)
#loc10 = loc("/root/Profiler/examples/sdpa_attention/test_run/inductor_debug_opt/gh/cghiaxpkyapyectmmmosbn24ylcnd3qcdx3wi2olybiupbs53gla.py":34:55)
#loc11 = loc("/root/Profiler/examples/sdpa_attention/test_run/inductor_debug_opt/gh/cghiaxpkyapyectmmmosbn24ylcnd3qcdx3wi2olybiupbs53gla.py":35:31)
#loc12 = loc("/root/Profiler/examples/sdpa_attention/test_run/inductor_debug_opt/gh/cghiaxpkyapyectmmmosbn24ylcnd3qcdx3wi2olybiupbs53gla.py":35:38)
#loc13 = loc("/root/Profiler/examples/sdpa_attention/test_run/inductor_debug_opt/gh/cghiaxpkyapyectmmmosbn24ylcnd3qcdx3wi2olybiupbs53gla.py":35:77)
#loc14 = loc("/root/Profiler/examples/sdpa_attention/test_run/inductor_debug_opt/gh/cghiaxpkyapyectmmmosbn24ylcnd3qcdx3wi2olybiupbs53gla.py":36:31)
#loc15 = loc("/root/Profiler/examples/sdpa_attention/test_run/inductor_debug_opt/gh/cghiaxpkyapyectmmmosbn24ylcnd3qcdx3wi2olybiupbs53gla.py":36:38)
#loc16 = loc("/root/Profiler/examples/sdpa_attention/test_run/inductor_debug_opt/gh/cghiaxpkyapyectmmmosbn24ylcnd3qcdx3wi2olybiupbs53gla.py":36:77)
#loc17 = loc("/usr/local/lib/python3.10/dist-packages/triton/language/standard.py":293:36)
#loc19 = loc("/usr/local/lib/python3.10/dist-packages/triton/language/standard.py":263:15)
#loc20 = loc("/root/Profiler/examples/sdpa_attention/test_run/inductor_debug_opt/gh/cghiaxpkyapyectmmmosbn24ylcnd3qcdx3wi2olybiupbs53gla.py":40:27)
#loc21 = loc("/root/Profiler/examples/sdpa_attention/test_run/inductor_debug_opt/gh/cghiaxpkyapyectmmmosbn24ylcnd3qcdx3wi2olybiupbs53gla.py":43:19)
#loc22 = loc("/root/Profiler/examples/sdpa_attention/test_run/inductor_debug_opt/gh/cghiaxpkyapyectmmmosbn24ylcnd3qcdx3wi2olybiupbs53gla.py":44:19)
#loc23 = loc("/root/Profiler/examples/sdpa_attention/test_run/inductor_debug_opt/gh/cghiaxpkyapyectmmmosbn24ylcnd3qcdx3wi2olybiupbs53gla.py":45:20)
#loc25 = loc("/root/Profiler/examples/sdpa_attention/test_run/inductor_debug_opt/gh/cghiaxpkyapyectmmmosbn24ylcnd3qcdx3wi2olybiupbs53gla.py":47:29)
#loc26 = loc("/root/Profiler/examples/sdpa_attention/test_run/inductor_debug_opt/gh/cghiaxpkyapyectmmmosbn24ylcnd3qcdx3wi2olybiupbs53gla.py":50:21)
#loc27 = loc("/root/Profiler/examples/sdpa_attention/test_run/inductor_debug_opt/gh/cghiaxpkyapyectmmmosbn24ylcnd3qcdx3wi2olybiupbs53gla.py":52:20)
#loc28 = loc("/root/Profiler/examples/sdpa_attention/test_run/inductor_debug_opt/gh/cghiaxpkyapyectmmmosbn24ylcnd3qcdx3wi2olybiupbs53gla.py":53:28)
#loc29 = loc("/root/Profiler/examples/sdpa_attention/test_run/inductor_debug_opt/gh/cghiaxpkyapyectmmmosbn24ylcnd3qcdx3wi2olybiupbs53gla.py":54:20)
#loc30 = loc("/root/Profiler/examples/sdpa_attention/test_run/inductor_debug_opt/gh/cghiaxpkyapyectmmmosbn24ylcnd3qcdx3wi2olybiupbs53gla.py":56:20)
#loc31 = loc("/root/Profiler/examples/sdpa_attention/test_run/inductor_debug_opt/gh/cghiaxpkyapyectmmmosbn24ylcnd3qcdx3wi2olybiupbs53gla.py":58:20)
#loc32 = loc("/root/Profiler/examples/sdpa_attention/test_run/inductor_debug_opt/gh/cghiaxpkyapyectmmmosbn24ylcnd3qcdx3wi2olybiupbs53gla.py":60:25)
#loc33 = loc("/root/Profiler/examples/sdpa_attention/test_run/inductor_debug_opt/gh/cghiaxpkyapyectmmmosbn24ylcnd3qcdx3wi2olybiupbs53gla.py":60:48)
#loc34 = loc("/root/Profiler/examples/sdpa_attention/test_run/inductor_debug_opt/gh/cghiaxpkyapyectmmmosbn24ylcnd3qcdx3wi2olybiupbs53gla.py":60:4)
#loc41 = loc("tmp18"(#loc2))
#loc42 = loc("xoffset"(#loc3))
#loc43 = loc("r0_index"(#loc4))
#loc44 = loc("r0_index"(#loc5))
#loc45 = loc("tmp0"(#loc6))
#loc46 = loc("tmp0"(#loc7))
#loc47 = loc("tmp0"(#loc8))
#loc48 = loc("tmp0"(#loc9))
#loc49 = loc("tmp0"(#loc10))
#loc50 = loc("tmp22"(#loc11))
#loc51 = loc("tmp22"(#loc12))
#loc52 = loc("tmp22"(#loc13))
#loc53 = loc("tmp25"(#loc14))
#loc54 = loc("tmp25"(#loc15))
#loc55 = loc("tmp25"(#loc16))
#loc57 = loc("tmp6"(#loc20))
#loc58 = loc("tmp9"(#loc21))
#loc59 = loc("tmp10"(#loc22))
#loc60 = loc("tmp11"(#loc23))
#loc62 = loc("tmp14"(#loc25))
#loc63 = loc("tmp17"(#loc26))
#loc64 = loc("tmp19"(#loc27))
#loc65 = loc("tmp20"(#loc28))
#loc66 = loc("tmp21"(#loc29))
#loc67 = loc("tmp24"(#loc30))
#loc68 = loc("tmp27"(#loc31))
#loc69 = loc(fused[#loc46, #loc45])
#loc70 = loc(callsite(#loc17 at #loc56))
#loc72 = loc(callsite(#loc17 at #loc61))
#loc74 = loc(callsite(#loc19 at #loc70))
#loc75 = loc(callsite(#loc19 at #loc72))
