#loc = loc("/root/Profiler/examples/transformer_stack/test_run/inductor_debug/cg/ccgvqpdd6abvx5cc462c54n7qqp5jnxeihogz7t47mfbmectffb5.py":18:0)
#loc1 = loc(unknown)
#loc17 = loc("/root/Profiler/examples/transformer_stack/test_run/inductor_debug/cg/ccgvqpdd6abvx5cc462c54n7qqp5jnxeihogz7t47mfbmectffb5.py":41:24)
#loc24 = loc("/root/Profiler/examples/transformer_stack/test_run/inductor_debug/cg/ccgvqpdd6abvx5cc462c54n7qqp5jnxeihogz7t47mfbmectffb5.py":49:26)
#loc35 = loc("in_ptr0"(#loc))
#loc36 = loc("in_ptr1"(#loc))
#loc37 = loc("in_ptr2"(#loc))
#loc38 = loc("out_ptr2"(#loc))
#loc39 = loc("xnumel"(#loc))
#loc40 = loc("r0_numel"(#loc))
#loc55 = loc("tmp7"(#loc17))
#loc61 = loc("tmp16"(#loc24))
#loc72 = loc(callsite(#loc1 at #loc55))
#loc74 = loc(callsite(#loc1 at #loc61))
module {
  tt.func public @triton_per_fused_native_layer_norm_0(%in_ptr0: !tt.ptr<f32> {tt.divisibility = 16 : i32} loc("in_ptr0"(#loc)), %in_ptr1: !tt.ptr<f32> {tt.divisibility = 16 : i32} loc("in_ptr1"(#loc)), %in_ptr2: !tt.ptr<f32> {tt.divisibility = 16 : i32} loc("in_ptr2"(#loc)), %out_ptr2: !tt.ptr<f32> {tt.divisibility = 16 : i32} loc("out_ptr2"(#loc)), %xnumel: i32 {tt.divisibility = 16 : i32} loc("xnumel"(#loc)), %r0_numel: i32 {tt.divisibility = 16 : i32} loc("r0_numel"(#loc))) attributes {noinline = false} {
    %c512_i32 = arith.constant 512 : i32 loc(#loc1)
    %tmp20 = arith.constant dense<9.99999974E-6> : tensor<1x1xf32> loc(#loc41)
    %cst = arith.constant dense<5.120000e+02> : tensor<1x1xf32> loc(#loc1)
    %cst_0 = arith.constant dense<0.000000e+00> : tensor<1x512xf32> loc(#loc1)
    %xoffset = tt.get_program_id x : i32 loc(#loc42)
    %xmask = arith.cmpi slt, %xoffset, %c512_i32 : i32 loc(#loc43)
    %r0_index = tt.make_range {end = 512 : i32, start = 0 : i32} : tensor<512xi32> loc(#loc44)
    %r0_index_1 = tt.expand_dims %r0_index {axis = 0 : i32} : tensor<512xi32> -> tensor<1x512xi32> loc(#loc45)
    %tmp0 = arith.muli %xoffset, %c512_i32 : i32 loc(#loc46)
    %tmp0_2 = tt.splat %tmp0 : i32 -> tensor<1x512xi32> loc(#loc69)
    %tmp0_3 = arith.addi %r0_index_1, %tmp0_2 : tensor<1x512xi32> loc(#loc47)
    %tmp0_4 = tt.splat %in_ptr0 : !tt.ptr<f32> -> tensor<1x512x!tt.ptr<f32>> loc(#loc48)
    %tmp0_5 = tt.addptr %tmp0_4, %tmp0_3 : tensor<1x512x!tt.ptr<f32>>, tensor<1x512xi32> loc(#loc48)
    %tmp0_6 = tt.splat %xmask : i1 -> tensor<1x512xi1> loc(#loc70)
    %tmp0_7 = tt.load %tmp0_5, %tmp0_6, %cst_0 : tensor<1x512x!tt.ptr<f32>> loc(#loc49)
    %tmp24 = tt.splat %in_ptr1 : !tt.ptr<f32> -> tensor<1x512x!tt.ptr<f32>> loc(#loc50)
    %tmp24_8 = tt.addptr %tmp24, %r0_index_1 : tensor<1x512x!tt.ptr<f32>>, tensor<1x512xi32> loc(#loc50)
    %tmp24_9 = tt.load %tmp24_8 evictionPolicy = evict_last : tensor<1x512x!tt.ptr<f32>> loc(#loc51)
    %tmp26 = tt.splat %in_ptr2 : !tt.ptr<f32> -> tensor<1x512x!tt.ptr<f32>> loc(#loc52)
    %tmp26_10 = tt.addptr %tmp26, %r0_index_1 : tensor<1x512x!tt.ptr<f32>>, tensor<1x512xi32> loc(#loc52)
    %tmp26_11 = tt.load %tmp26_10 evictionPolicy = evict_last : tensor<1x512x!tt.ptr<f32>> loc(#loc53)
    %tmp6 = arith.select %tmp0_6, %tmp0_7, %cst_0 : tensor<1x512xi1>, tensor<1x512xf32> loc(#loc54)
    %tmp7 = "tt.reduce"(%tmp6) <{axis = 1 : i32}> ({
    ^bb0(%tmp7_16: f32 loc(callsite(#loc1 at #loc55)), %tmp7_17: f32 loc(callsite(#loc1 at #loc55))):
      %tmp7_18 = arith.addf %tmp7_16, %tmp7_17 : f32 loc(#loc75)
      tt.reduce.return %tmp7_18 : f32 loc(#loc71)
    }) : (tensor<1x512xf32>) -> tensor<1xf32> loc(#loc71)
    %tmp7_12 = tt.expand_dims %tmp7 {axis = 1 : i32} : tensor<1xf32> -> tensor<1x1xf32> loc(#loc56)
    %tmp10 = arith.divf %tmp7_12, %cst : tensor<1x1xf32> loc(#loc57)
    %tmp11 = tt.broadcast %tmp10 : tensor<1x1xf32> -> tensor<1x512xf32> loc(#loc58)
    %tmp11_13 = arith.subf %tmp0_7, %tmp11 : tensor<1x512xf32> loc(#loc58)
    %tmp12 = arith.mulf %tmp11_13, %tmp11_13 : tensor<1x512xf32> loc(#loc59)
    %tmp15 = arith.select %tmp0_6, %tmp12, %cst_0 : tensor<1x512xi1>, tensor<1x512xf32> loc(#loc60)
    %tmp16 = "tt.reduce"(%tmp15) <{axis = 1 : i32}> ({
    ^bb0(%tmp16_16: f32 loc(callsite(#loc1 at #loc61)), %tmp16_17: f32 loc(callsite(#loc1 at #loc61))):
      %tmp16_18 = arith.addf %tmp16_16, %tmp16_17 : f32 loc(#loc76)
      tt.reduce.return %tmp16_18 : f32 loc(#loc73)
    }) : (tensor<1x512xf32>) -> tensor<1xf32> loc(#loc73)
    %tmp16_14 = tt.expand_dims %tmp16 {axis = 1 : i32} : tensor<1xf32> -> tensor<1x1xf32> loc(#loc62)
    %tmp19 = arith.divf %tmp16_14, %cst : tensor<1x1xf32> loc(#loc63)
    %tmp21 = arith.addf %tmp19, %tmp20 : tensor<1x1xf32> loc(#loc64)
    %tmp22 = tt.extern_elementwise %tmp21 {libname = "", libpath = "", pure = true, symbol = "__nv_rsqrtf"} : (tensor<1x1xf32>) -> tensor<1x1xf32> loc(#loc65)
    %tmp23 = tt.broadcast %tmp22 : tensor<1x1xf32> -> tensor<1x512xf32> loc(#loc66)
    %tmp23_15 = arith.mulf %tmp11_13, %tmp23 : tensor<1x512xf32> loc(#loc66)
    %tmp25 = arith.mulf %tmp23_15, %tmp24_9 : tensor<1x512xf32> loc(#loc67)
    %tmp27 = arith.addf %tmp25, %tmp26_11 : tensor<1x512xf32> loc(#loc68)
    %0 = tt.splat %out_ptr2 : !tt.ptr<f32> -> tensor<1x512x!tt.ptr<f32>> loc(#loc32)
    %1 = tt.addptr %0, %tmp0_3 : tensor<1x512x!tt.ptr<f32>>, tensor<1x512xi32> loc(#loc32)
    tt.store %1, %tmp27, %tmp0_6 : tensor<1x512x!tt.ptr<f32>> loc(#loc33)
    tt.return loc(#loc34)
  } loc(#loc)
} loc(#loc)
#loc2 = loc("/root/Profiler/examples/transformer_stack/test_run/inductor_debug/cg/ccgvqpdd6abvx5cc462c54n7qqp5jnxeihogz7t47mfbmectffb5.py":53:35)
#loc3 = loc("/root/Profiler/examples/transformer_stack/test_run/inductor_debug/cg/ccgvqpdd6abvx5cc462c54n7qqp5jnxeihogz7t47mfbmectffb5.py":24:28)
#loc4 = loc("/root/Profiler/examples/transformer_stack/test_run/inductor_debug/cg/ccgvqpdd6abvx5cc462c54n7qqp5jnxeihogz7t47mfbmectffb5.py":26:21)
#loc5 = loc("/root/Profiler/examples/transformer_stack/test_run/inductor_debug/cg/ccgvqpdd6abvx5cc462c54n7qqp5jnxeihogz7t47mfbmectffb5.py":27:28)
#loc6 = loc("/root/Profiler/examples/transformer_stack/test_run/inductor_debug/cg/ccgvqpdd6abvx5cc462c54n7qqp5jnxeihogz7t47mfbmectffb5.py":27:38)
#loc7 = loc("/root/Profiler/examples/transformer_stack/test_run/inductor_debug/cg/ccgvqpdd6abvx5cc462c54n7qqp5jnxeihogz7t47mfbmectffb5.py":34:41)
#loc8 = loc("/root/Profiler/examples/transformer_stack/test_run/inductor_debug/cg/ccgvqpdd6abvx5cc462c54n7qqp5jnxeihogz7t47mfbmectffb5.py":34:37)
#loc9 = loc("/root/Profiler/examples/transformer_stack/test_run/inductor_debug/cg/ccgvqpdd6abvx5cc462c54n7qqp5jnxeihogz7t47mfbmectffb5.py":34:30)
#loc10 = loc("/root/Profiler/examples/transformer_stack/test_run/inductor_debug/cg/ccgvqpdd6abvx5cc462c54n7qqp5jnxeihogz7t47mfbmectffb5.py":34:46)
#loc11 = loc("/root/Profiler/examples/transformer_stack/test_run/inductor_debug/cg/ccgvqpdd6abvx5cc462c54n7qqp5jnxeihogz7t47mfbmectffb5.py":35:31)
#loc12 = loc("/root/Profiler/examples/transformer_stack/test_run/inductor_debug/cg/ccgvqpdd6abvx5cc462c54n7qqp5jnxeihogz7t47mfbmectffb5.py":35:38)
#loc13 = loc("/root/Profiler/examples/transformer_stack/test_run/inductor_debug/cg/ccgvqpdd6abvx5cc462c54n7qqp5jnxeihogz7t47mfbmectffb5.py":36:31)
#loc14 = loc("/root/Profiler/examples/transformer_stack/test_run/inductor_debug/cg/ccgvqpdd6abvx5cc462c54n7qqp5jnxeihogz7t47mfbmectffb5.py":36:38)
#loc15 = loc("/root/Profiler/examples/transformer_stack/test_run/inductor_debug/cg/ccgvqpdd6abvx5cc462c54n7qqp5jnxeihogz7t47mfbmectffb5.py":40:33)
#loc16 = loc("/usr/local/lib/python3.10/dist-packages/triton/language/standard.py":293:36)
#loc18 = loc("/usr/local/lib/python3.10/dist-packages/triton/language/standard.py":263:15)
#loc19 = loc("/root/Profiler/examples/transformer_stack/test_run/inductor_debug/cg/ccgvqpdd6abvx5cc462c54n7qqp5jnxeihogz7t47mfbmectffb5.py":41:27)
#loc20 = loc("/root/Profiler/examples/transformer_stack/test_run/inductor_debug/cg/ccgvqpdd6abvx5cc462c54n7qqp5jnxeihogz7t47mfbmectffb5.py":44:20)
#loc21 = loc("/root/Profiler/examples/transformer_stack/test_run/inductor_debug/cg/ccgvqpdd6abvx5cc462c54n7qqp5jnxeihogz7t47mfbmectffb5.py":45:19)
#loc22 = loc("/root/Profiler/examples/transformer_stack/test_run/inductor_debug/cg/ccgvqpdd6abvx5cc462c54n7qqp5jnxeihogz7t47mfbmectffb5.py":46:20)
#loc23 = loc("/root/Profiler/examples/transformer_stack/test_run/inductor_debug/cg/ccgvqpdd6abvx5cc462c54n7qqp5jnxeihogz7t47mfbmectffb5.py":48:35)
#loc25 = loc("/root/Profiler/examples/transformer_stack/test_run/inductor_debug/cg/ccgvqpdd6abvx5cc462c54n7qqp5jnxeihogz7t47mfbmectffb5.py":49:29)
#loc26 = loc("/root/Profiler/examples/transformer_stack/test_run/inductor_debug/cg/ccgvqpdd6abvx5cc462c54n7qqp5jnxeihogz7t47mfbmectffb5.py":52:21)
#loc27 = loc("/root/Profiler/examples/transformer_stack/test_run/inductor_debug/cg/ccgvqpdd6abvx5cc462c54n7qqp5jnxeihogz7t47mfbmectffb5.py":54:20)
#loc28 = loc("/root/Profiler/examples/transformer_stack/test_run/inductor_debug/cg/ccgvqpdd6abvx5cc462c54n7qqp5jnxeihogz7t47mfbmectffb5.py":55:28)
#loc29 = loc("/root/Profiler/examples/transformer_stack/test_run/inductor_debug/cg/ccgvqpdd6abvx5cc462c54n7qqp5jnxeihogz7t47mfbmectffb5.py":56:20)
#loc30 = loc("/root/Profiler/examples/transformer_stack/test_run/inductor_debug/cg/ccgvqpdd6abvx5cc462c54n7qqp5jnxeihogz7t47mfbmectffb5.py":57:20)
#loc31 = loc("/root/Profiler/examples/transformer_stack/test_run/inductor_debug/cg/ccgvqpdd6abvx5cc462c54n7qqp5jnxeihogz7t47mfbmectffb5.py":58:20)
#loc32 = loc("/root/Profiler/examples/transformer_stack/test_run/inductor_debug/cg/ccgvqpdd6abvx5cc462c54n7qqp5jnxeihogz7t47mfbmectffb5.py":59:25)
#loc33 = loc("/root/Profiler/examples/transformer_stack/test_run/inductor_debug/cg/ccgvqpdd6abvx5cc462c54n7qqp5jnxeihogz7t47mfbmectffb5.py":59:48)
#loc34 = loc("/root/Profiler/examples/transformer_stack/test_run/inductor_debug/cg/ccgvqpdd6abvx5cc462c54n7qqp5jnxeihogz7t47mfbmectffb5.py":59:4)
#loc41 = loc("tmp20"(#loc2))
#loc42 = loc("xoffset"(#loc3))
#loc43 = loc("xmask"(#loc4))
#loc44 = loc("r0_index"(#loc5))
#loc45 = loc("r0_index"(#loc6))
#loc46 = loc("tmp0"(#loc7))
#loc47 = loc("tmp0"(#loc8))
#loc48 = loc("tmp0"(#loc9))
#loc49 = loc("tmp0"(#loc10))
#loc50 = loc("tmp24"(#loc11))
#loc51 = loc("tmp24"(#loc12))
#loc52 = loc("tmp26"(#loc13))
#loc53 = loc("tmp26"(#loc14))
#loc54 = loc("tmp6"(#loc15))
#loc56 = loc("tmp7"(#loc19))
#loc57 = loc("tmp10"(#loc20))
#loc58 = loc("tmp11"(#loc21))
#loc59 = loc("tmp12"(#loc22))
#loc60 = loc("tmp15"(#loc23))
#loc62 = loc("tmp16"(#loc25))
#loc63 = loc("tmp19"(#loc26))
#loc64 = loc("tmp21"(#loc27))
#loc65 = loc("tmp22"(#loc28))
#loc66 = loc("tmp23"(#loc29))
#loc67 = loc("tmp25"(#loc30))
#loc68 = loc("tmp27"(#loc31))
#loc69 = loc(fused[#loc47, #loc46])
#loc70 = loc(fused[#loc49, #loc43])
#loc71 = loc(callsite(#loc16 at #loc55))
#loc73 = loc(callsite(#loc16 at #loc61))
#loc75 = loc(callsite(#loc18 at #loc71))
#loc76 = loc(callsite(#loc18 at #loc73))
