#loc = loc("/root/Profiler/gpt2_optimized_inductor_debug/u6/cu6m6x2cfvfbnvjtsovankrf6vwbnuhol7hcim7uhr2idnvhgmtp.py":18:0)
#loc26 = loc("in_ptr0"(#loc))
#loc27 = loc("out_ptr0"(#loc))
#loc28 = loc("ks0"(#loc))
#loc29 = loc("ks1"(#loc))
#loc30 = loc("xnumel"(#loc))
module {
  tt.func public @triton_poi_fused__scaled_dot_product_efficient_attention_cat_constant_pad_nd_expand_scalar_tensor_slice_split_transpose_view_where_3(%in_ptr0: !tt.ptr<i1> {tt.divisibility = 16 : i32} loc("in_ptr0"(#loc)), %out_ptr0: !tt.ptr<bf16> {tt.divisibility = 16 : i32} loc("out_ptr0"(#loc)), %ks0: i64 loc("ks0"(#loc)), %ks1: i64 loc("ks1"(#loc)), %xnumel: i32 loc("xnumel"(#loc))) attributes {noinline = false} {
    %xoffset = tt.get_program_id x : i32 loc(#loc31)
    %xoffset_0 = arith.constant 512 : i32 loc(#loc32)
    %xoffset_1 = arith.constant 512 : i32 loc(#loc32)
    %xoffset_2 = arith.muli %xoffset, %xoffset_1 : i32 loc(#loc32)
    %xindex = tt.make_range {end = 512 : i32, start = 0 : i32} : tensor<512xi32> loc(#loc33)
    %xindex_3 = tt.splat %xoffset_2 : i32 -> tensor<512xi32> loc(#loc34)
    %xindex_4 = arith.addi %xindex_3, %xindex : tensor<512xi32> loc(#loc34)
    %xmask = tt.splat %xnumel : i32 -> tensor<512xi32> loc(#loc35)
    %xmask_5 = arith.cmpi slt, %xindex_4, %xmask : tensor<512xi32> loc(#loc35)
    %x0 = arith.extsi %xindex_4 : tensor<512xi32> to tensor<512xi64> loc(#loc36)
    %x0_6 = tt.splat %ks0 : i64 -> tensor<512xi64> loc(#loc36)
    %x0_7 = arith.remsi %x0, %x0_6 : tensor<512xi64> loc(#loc36)
    %x3 = arith.extsi %xindex_4 : tensor<512xi32> to tensor<512xi64> loc(#loc37)
    %x3_8 = tt.splat %ks1 : i64 -> tensor<512xi64> loc(#loc37)
    %x3_9 = arith.remsi %x3, %x3_8 : tensor<512xi64> loc(#loc37)
    %x4 = arith.extsi %xindex_4 : tensor<512xi32> to tensor<512xi64> loc(#loc38)
    %x4_10 = tt.splat %ks0 : i64 -> tensor<512xi64> loc(#loc38)
    %x4_11 = arith.divsi %x4, %x4_10 : tensor<512xi64> loc(#loc38)
    %tmp2 = tt.splat %ks0 : i64 -> tensor<512xi64> loc(#loc39)
    %tmp2_12 = arith.cmpi slt, %x0_7, %tmp2 : tensor<512xi64> loc(#loc39)
    %tmp3 = tt.splat %in_ptr0 : !tt.ptr<i1> -> tensor<512x!tt.ptr<i1>> loc(#loc40)
    %tmp3_13 = tt.addptr %tmp3, %x3_9 : tensor<512x!tt.ptr<i1>>, tensor<512xi64> loc(#loc40)
    %tmp3_14 = arith.andi %tmp2_12, %xmask_5 : tensor<512xi1> loc(#loc41)
    %tmp3_15 = arith.constant 0.000000e+00 : f32 loc(#loc42)
    %tmp3_16 = arith.constant dense<0.000000e+00> : tensor<512xf32> loc(#loc42)
    %tmp3_17 = tt.bitcast %tmp3_13 : tensor<512x!tt.ptr<i1>> -> tensor<512x!tt.ptr<i8>> loc(#loc42)
    %tmp3_18 = arith.fptosi %tmp3_16 : tensor<512xf32> to tensor<512xi8> loc(#loc42)
    %tmp3_19 = tt.load %tmp3_17, %tmp3_14, %tmp3_18 evictionPolicy = evict_last : tensor<512x!tt.ptr<i8>> loc(#loc42)
    %tmp3_20 = arith.constant 0 : i8 loc(#loc42)
    %tmp3_21 = arith.constant dense<0> : tensor<512xi8> loc(#loc42)
    %tmp3_22 = arith.cmpi ne, %tmp3_19, %tmp3_21 : tensor<512xi8> loc(#loc42)
    %tmp4 = arith.constant 0.000000e+00 : f32 loc(#loc43)
    %tmp4_23 = arith.constant dense<0.000000e+00> : tensor<1xf32> loc(#loc43)
    %tmp5 = arith.constant 0xFF800000 : f32 loc(#loc44)
    %tmp5_24 = arith.constant dense<0xFF800000> : tensor<1xf32> loc(#loc44)
    %tmp6 = arith.constant dense<0.000000e+00> : tensor<512xf32> loc(#loc45)
    %tmp6_25 = arith.constant dense<0xFF800000> : tensor<512xf32> loc(#loc45)
    %tmp6_26 = arith.select %tmp3_22, %tmp6, %tmp6_25 : tensor<512xi1>, tensor<512xf32> loc(#loc45)
    %tmp7 = arith.constant 0.000000e+00 : f32 loc(#loc46)
    %tmp7_27 = arith.constant dense<0.000000e+00> : tensor<512xf32> loc(#loc46)
    %tmp8 = arith.select %tmp2_12, %tmp6_26, %tmp7_27 : tensor<512xi1>, tensor<512xf32> loc(#loc47)
    %c8_i32 = arith.constant 8 : i32 loc(#loc18)
    %c8_i64 = arith.constant 8 : i64 loc(#loc18)
    %cst = arith.constant dense<8> : tensor<512xi64> loc(#loc18)
    %0 = arith.muli %cst, %x4_11 : tensor<512xi64> loc(#loc18)
    %c7_i32 = arith.constant 7 : i32 loc(#loc19)
    %c7_i64 = arith.constant 7 : i64 loc(#loc19)
    %1 = arith.addi %c7_i64, %ks0 : i64 loc(#loc19)
    %c8_i32_28 = arith.constant 8 : i32 loc(#loc20)
    %c8_i64_29 = arith.constant 8 : i64 loc(#loc20)
    %2 = arith.divsi %1, %c8_i64_29 : i64 loc(#loc20)
    %3 = tt.splat %2 : i64 -> tensor<512xi64> loc(#loc21)
    %4 = arith.muli %0, %3 : tensor<512xi64> loc(#loc21)
    %5 = arith.addi %x0_7, %4 : tensor<512xi64> loc(#loc22)
    %6 = tt.splat %out_ptr0 : !tt.ptr<bf16> -> tensor<512x!tt.ptr<bf16>> loc(#loc23)
    %7 = tt.addptr %6, %5 : tensor<512x!tt.ptr<bf16>>, tensor<512xi64> loc(#loc23)
    %8 = arith.truncf %tmp8 : tensor<512xf32> to tensor<512xbf16> loc(#loc24)
    tt.store %7, %8, %xmask_5 : tensor<512x!tt.ptr<bf16>> loc(#loc24)
    tt.return loc(#loc25)
  } loc(#loc)
} loc(#loc)
#loc1 = loc("/root/Profiler/gpt2_optimized_inductor_debug/u6/cu6m6x2cfvfbnvjtsovankrf6vwbnuhol7hcim7uhr2idnvhgmtp.py":19:28)
#loc2 = loc("/root/Profiler/gpt2_optimized_inductor_debug/u6/cu6m6x2cfvfbnvjtsovankrf6vwbnuhol7hcim7uhr2idnvhgmtp.py":19:33)
#loc3 = loc("/root/Profiler/gpt2_optimized_inductor_debug/u6/cu6m6x2cfvfbnvjtsovankrf6vwbnuhol7hcim7uhr2idnvhgmtp.py":20:36)
#loc4 = loc("/root/Profiler/gpt2_optimized_inductor_debug/u6/cu6m6x2cfvfbnvjtsovankrf6vwbnuhol7hcim7uhr2idnvhgmtp.py":20:23)
#loc5 = loc("/root/Profiler/gpt2_optimized_inductor_debug/u6/cu6m6x2cfvfbnvjtsovankrf6vwbnuhol7hcim7uhr2idnvhgmtp.py":21:21)
#loc6 = loc("/root/Profiler/gpt2_optimized_inductor_debug/u6/cu6m6x2cfvfbnvjtsovankrf6vwbnuhol7hcim7uhr2idnvhgmtp.py":22:19)
#loc7 = loc("/root/Profiler/gpt2_optimized_inductor_debug/u6/cu6m6x2cfvfbnvjtsovankrf6vwbnuhol7hcim7uhr2idnvhgmtp.py":23:19)
#loc8 = loc("/root/Profiler/gpt2_optimized_inductor_debug/u6/cu6m6x2cfvfbnvjtsovankrf6vwbnuhol7hcim7uhr2idnvhgmtp.py":24:19)
#loc9 = loc("/root/Profiler/gpt2_optimized_inductor_debug/u6/cu6m6x2cfvfbnvjtsovankrf6vwbnuhol7hcim7uhr2idnvhgmtp.py":27:18)
#loc10 = loc("/root/Profiler/gpt2_optimized_inductor_debug/u6/cu6m6x2cfvfbnvjtsovankrf6vwbnuhol7hcim7uhr2idnvhgmtp.py":28:30)
#loc11 = loc("/root/Profiler/gpt2_optimized_inductor_debug/u6/cu6m6x2cfvfbnvjtsovankrf6vwbnuhol7hcim7uhr2idnvhgmtp.py":28:42)
#loc12 = loc("/root/Profiler/gpt2_optimized_inductor_debug/u6/cu6m6x2cfvfbnvjtsovankrf6vwbnuhol7hcim7uhr2idnvhgmtp.py":28:35)
#loc13 = loc("/root/Profiler/gpt2_optimized_inductor_debug/u6/cu6m6x2cfvfbnvjtsovankrf6vwbnuhol7hcim7uhr2idnvhgmtp.py":29:29)
#loc14 = loc("/root/Profiler/gpt2_optimized_inductor_debug/u6/cu6m6x2cfvfbnvjtsovankrf6vwbnuhol7hcim7uhr2idnvhgmtp.py":30:39)
#loc15 = loc("/root/Profiler/gpt2_optimized_inductor_debug/u6/cu6m6x2cfvfbnvjtsovankrf6vwbnuhol7hcim7uhr2idnvhgmtp.py":31:32)
#loc16 = loc("/root/Profiler/gpt2_optimized_inductor_debug/u6/cu6m6x2cfvfbnvjtsovankrf6vwbnuhol7hcim7uhr2idnvhgmtp.py":32:36)
#loc17 = loc("/root/Profiler/gpt2_optimized_inductor_debug/u6/cu6m6x2cfvfbnvjtsovankrf6vwbnuhol7hcim7uhr2idnvhgmtp.py":33:32)
#loc18 = loc("/root/Profiler/gpt2_optimized_inductor_debug/u6/cu6m6x2cfvfbnvjtsovankrf6vwbnuhol7hcim7uhr2idnvhgmtp.py":34:32)
#loc19 = loc("/root/Profiler/gpt2_optimized_inductor_debug/u6/cu6m6x2cfvfbnvjtsovankrf6vwbnuhol7hcim7uhr2idnvhgmtp.py":34:41)
#loc20 = loc("/root/Profiler/gpt2_optimized_inductor_debug/u6/cu6m6x2cfvfbnvjtsovankrf6vwbnuhol7hcim7uhr2idnvhgmtp.py":34:49)
#loc21 = loc("/root/Profiler/gpt2_optimized_inductor_debug/u6/cu6m6x2cfvfbnvjtsovankrf6vwbnuhol7hcim7uhr2idnvhgmtp.py":34:36)
#loc22 = loc("/root/Profiler/gpt2_optimized_inductor_debug/u6/cu6m6x2cfvfbnvjtsovankrf6vwbnuhol7hcim7uhr2idnvhgmtp.py":34:30)
#loc23 = loc("/root/Profiler/gpt2_optimized_inductor_debug/u6/cu6m6x2cfvfbnvjtsovankrf6vwbnuhol7hcim7uhr2idnvhgmtp.py":34:25)
#loc24 = loc("/root/Profiler/gpt2_optimized_inductor_debug/u6/cu6m6x2cfvfbnvjtsovankrf6vwbnuhol7hcim7uhr2idnvhgmtp.py":34:60)
#loc25 = loc("/root/Profiler/gpt2_optimized_inductor_debug/u6/cu6m6x2cfvfbnvjtsovankrf6vwbnuhol7hcim7uhr2idnvhgmtp.py":34:4)
#loc31 = loc("xoffset"(#loc1))
#loc32 = loc("xoffset"(#loc2))
#loc33 = loc("xindex"(#loc3))
#loc34 = loc("xindex"(#loc4))
#loc35 = loc("xmask"(#loc5))
#loc36 = loc("x0"(#loc6))
#loc37 = loc("x3"(#loc7))
#loc38 = loc("x4"(#loc8))
#loc39 = loc("tmp2"(#loc9))
#loc40 = loc("tmp3"(#loc10))
#loc41 = loc("tmp3"(#loc11))
#loc42 = loc("tmp3"(#loc12))
#loc43 = loc("tmp4"(#loc13))
#loc44 = loc("tmp5"(#loc14))
#loc45 = loc("tmp6"(#loc15))
#loc46 = loc("tmp7"(#loc16))
#loc47 = loc("tmp8"(#loc17))
