#loc = loc("/root/Profiler/gpt2_optimized_inductor_debug/u6/cu6m6x2cfvfbnvjtsovankrf6vwbnuhol7hcim7uhr2idnvhgmtp.py":18:0)
#loc24 = loc("in_ptr0"(#loc))
#loc25 = loc("out_ptr0"(#loc))
#loc26 = loc("ks0"(#loc))
#loc27 = loc("ks1"(#loc))
#loc28 = loc("xnumel"(#loc))
module {
  tt.func public @triton_poi_fused__scaled_dot_product_efficient_attention_cat_constant_pad_nd_expand_scalar_tensor_slice_split_transpose_view_where_3(%in_ptr0: !tt.ptr<i1> {tt.divisibility = 16 : i32} loc("in_ptr0"(#loc)), %out_ptr0: !tt.ptr<bf16> {tt.divisibility = 16 : i32} loc("out_ptr0"(#loc)), %ks0: i64 loc("ks0"(#loc)), %ks1: i64 loc("ks1"(#loc)), %xnumel: i32 loc("xnumel"(#loc))) attributes {noinline = false} {
    %c7_i64 = arith.constant 7 : i64 loc(#loc1)
    %cst = arith.constant dense<8> : tensor<512xi64> loc(#loc2)
    %c8_i64 = arith.constant 8 : i64 loc(#loc3)
    %tmp6 = arith.constant dense<0xFF800000> : tensor<512xf32> loc(#loc29)
    %cst_0 = arith.constant dense<0> : tensor<512xi8> loc(#loc3)
    %cst_1 = arith.constant dense<0.000000e+00> : tensor<512xf32> loc(#loc3)
    %c512_i32 = arith.constant 512 : i32 loc(#loc3)
    %xoffset = tt.get_program_id x : i32 loc(#loc30)
    %xoffset_2 = arith.muli %xoffset, %c512_i32 : i32 loc(#loc31)
    %xindex = tt.make_range {end = 512 : i32, start = 0 : i32} : tensor<512xi32> loc(#loc32)
    %xindex_3 = tt.splat %xoffset_2 : i32 -> tensor<512xi32> loc(#loc33)
    %xindex_4 = arith.addi %xindex_3, %xindex : tensor<512xi32> loc(#loc33)
    %xmask = tt.splat %xnumel : i32 -> tensor<512xi32> loc(#loc34)
    %xmask_5 = arith.cmpi slt, %xindex_4, %xmask : tensor<512xi32> loc(#loc34)
    %x0 = arith.extsi %xindex_4 : tensor<512xi32> to tensor<512xi64> loc(#loc35)
    %x0_6 = tt.splat %ks0 : i64 -> tensor<512xi64> loc(#loc35)
    %x0_7 = arith.remsi %x0, %x0_6 : tensor<512xi64> loc(#loc35)
    %x3 = tt.splat %ks1 : i64 -> tensor<512xi64> loc(#loc36)
    %x3_8 = arith.remsi %x0, %x3 : tensor<512xi64> loc(#loc36)
    %x4 = arith.divsi %x0, %x0_6 : tensor<512xi64> loc(#loc37)
    %tmp2 = arith.cmpi slt, %x0_7, %x0_6 : tensor<512xi64> loc(#loc38)
    %tmp3 = tt.splat %in_ptr0 : !tt.ptr<i1> -> tensor<512x!tt.ptr<i1>> loc(#loc39)
    %tmp3_9 = tt.addptr %tmp3, %x3_8 : tensor<512x!tt.ptr<i1>>, tensor<512xi64> loc(#loc39)
    %tmp3_10 = arith.andi %tmp2, %xmask_5 : tensor<512xi1> loc(#loc40)
    %tmp3_11 = tt.bitcast %tmp3_9 : tensor<512x!tt.ptr<i1>> -> tensor<512x!tt.ptr<i8>> loc(#loc41)
    %tmp3_12 = tt.load %tmp3_11, %tmp3_10, %cst_0 evictionPolicy = evict_last : tensor<512x!tt.ptr<i8>> loc(#loc41)
    %tmp3_13 = arith.cmpi ne, %tmp3_12, %cst_0 : tensor<512xi8> loc(#loc41)
    %tmp6_14 = arith.select %tmp3_13, %cst_1, %tmp6 : tensor<512xi1>, tensor<512xf32> loc(#loc29)
    %tmp8 = arith.select %tmp2, %tmp6_14, %cst_1 : tensor<512xi1>, tensor<512xf32> loc(#loc42)
    %0 = arith.muli %x4, %cst : tensor<512xi64> loc(#loc2)
    %1 = arith.addi %ks0, %c7_i64 : i64 loc(#loc1)
    %2 = arith.divsi %1, %c8_i64 : i64 loc(#loc18)
    %3 = tt.splat %2 : i64 -> tensor<512xi64> loc(#loc19)
    %4 = arith.muli %0, %3 : tensor<512xi64> loc(#loc19)
    %5 = arith.addi %x0_7, %4 : tensor<512xi64> loc(#loc20)
    %6 = tt.splat %out_ptr0 : !tt.ptr<bf16> -> tensor<512x!tt.ptr<bf16>> loc(#loc21)
    %7 = tt.addptr %6, %5 : tensor<512x!tt.ptr<bf16>>, tensor<512xi64> loc(#loc21)
    %8 = arith.truncf %tmp8 : tensor<512xf32> to tensor<512xbf16> loc(#loc22)
    tt.store %7, %8, %xmask_5 : tensor<512x!tt.ptr<bf16>> loc(#loc22)
    tt.return loc(#loc23)
  } loc(#loc)
} loc(#loc)
#loc1 = loc("/root/Profiler/gpt2_optimized_inductor_debug/u6/cu6m6x2cfvfbnvjtsovankrf6vwbnuhol7hcim7uhr2idnvhgmtp.py":34:41)
#loc2 = loc("/root/Profiler/gpt2_optimized_inductor_debug/u6/cu6m6x2cfvfbnvjtsovankrf6vwbnuhol7hcim7uhr2idnvhgmtp.py":34:32)
#loc3 = loc(unknown)
#loc4 = loc("/root/Profiler/gpt2_optimized_inductor_debug/u6/cu6m6x2cfvfbnvjtsovankrf6vwbnuhol7hcim7uhr2idnvhgmtp.py":31:32)
#loc5 = loc("/root/Profiler/gpt2_optimized_inductor_debug/u6/cu6m6x2cfvfbnvjtsovankrf6vwbnuhol7hcim7uhr2idnvhgmtp.py":19:28)
#loc6 = loc("/root/Profiler/gpt2_optimized_inductor_debug/u6/cu6m6x2cfvfbnvjtsovankrf6vwbnuhol7hcim7uhr2idnvhgmtp.py":19:33)
#loc7 = loc("/root/Profiler/gpt2_optimized_inductor_debug/u6/cu6m6x2cfvfbnvjtsovankrf6vwbnuhol7hcim7uhr2idnvhgmtp.py":20:36)
#loc8 = loc("/root/Profiler/gpt2_optimized_inductor_debug/u6/cu6m6x2cfvfbnvjtsovankrf6vwbnuhol7hcim7uhr2idnvhgmtp.py":20:23)
#loc9 = loc("/root/Profiler/gpt2_optimized_inductor_debug/u6/cu6m6x2cfvfbnvjtsovankrf6vwbnuhol7hcim7uhr2idnvhgmtp.py":21:21)
#loc10 = loc("/root/Profiler/gpt2_optimized_inductor_debug/u6/cu6m6x2cfvfbnvjtsovankrf6vwbnuhol7hcim7uhr2idnvhgmtp.py":22:19)
#loc11 = loc("/root/Profiler/gpt2_optimized_inductor_debug/u6/cu6m6x2cfvfbnvjtsovankrf6vwbnuhol7hcim7uhr2idnvhgmtp.py":23:19)
#loc12 = loc("/root/Profiler/gpt2_optimized_inductor_debug/u6/cu6m6x2cfvfbnvjtsovankrf6vwbnuhol7hcim7uhr2idnvhgmtp.py":24:19)
#loc13 = loc("/root/Profiler/gpt2_optimized_inductor_debug/u6/cu6m6x2cfvfbnvjtsovankrf6vwbnuhol7hcim7uhr2idnvhgmtp.py":27:18)
#loc14 = loc("/root/Profiler/gpt2_optimized_inductor_debug/u6/cu6m6x2cfvfbnvjtsovankrf6vwbnuhol7hcim7uhr2idnvhgmtp.py":28:30)
#loc15 = loc("/root/Profiler/gpt2_optimized_inductor_debug/u6/cu6m6x2cfvfbnvjtsovankrf6vwbnuhol7hcim7uhr2idnvhgmtp.py":28:42)
#loc16 = loc("/root/Profiler/gpt2_optimized_inductor_debug/u6/cu6m6x2cfvfbnvjtsovankrf6vwbnuhol7hcim7uhr2idnvhgmtp.py":28:35)
#loc17 = loc("/root/Profiler/gpt2_optimized_inductor_debug/u6/cu6m6x2cfvfbnvjtsovankrf6vwbnuhol7hcim7uhr2idnvhgmtp.py":33:32)
#loc18 = loc("/root/Profiler/gpt2_optimized_inductor_debug/u6/cu6m6x2cfvfbnvjtsovankrf6vwbnuhol7hcim7uhr2idnvhgmtp.py":34:49)
#loc19 = loc("/root/Profiler/gpt2_optimized_inductor_debug/u6/cu6m6x2cfvfbnvjtsovankrf6vwbnuhol7hcim7uhr2idnvhgmtp.py":34:36)
#loc20 = loc("/root/Profiler/gpt2_optimized_inductor_debug/u6/cu6m6x2cfvfbnvjtsovankrf6vwbnuhol7hcim7uhr2idnvhgmtp.py":34:30)
#loc21 = loc("/root/Profiler/gpt2_optimized_inductor_debug/u6/cu6m6x2cfvfbnvjtsovankrf6vwbnuhol7hcim7uhr2idnvhgmtp.py":34:25)
#loc22 = loc("/root/Profiler/gpt2_optimized_inductor_debug/u6/cu6m6x2cfvfbnvjtsovankrf6vwbnuhol7hcim7uhr2idnvhgmtp.py":34:60)
#loc23 = loc("/root/Profiler/gpt2_optimized_inductor_debug/u6/cu6m6x2cfvfbnvjtsovankrf6vwbnuhol7hcim7uhr2idnvhgmtp.py":34:4)
#loc29 = loc("tmp6"(#loc4))
#loc30 = loc("xoffset"(#loc5))
#loc31 = loc("xoffset"(#loc6))
#loc32 = loc("xindex"(#loc7))
#loc33 = loc("xindex"(#loc8))
#loc34 = loc("xmask"(#loc9))
#loc35 = loc("x0"(#loc10))
#loc36 = loc("x3"(#loc11))
#loc37 = loc("x4"(#loc12))
#loc38 = loc("tmp2"(#loc13))
#loc39 = loc("tmp3"(#loc14))
#loc40 = loc("tmp3"(#loc15))
#loc41 = loc("tmp3"(#loc16))
#loc42 = loc("tmp8"(#loc17))
