#loc = loc("/root/Profiler/examples/transformer_stack/test_run/inductor_debug/5n/c5n45p7d7ontdtwyxundqe7t7qwnl7trwsu3cs5voudd2lzgedus.py":18:0)
#loc22 = loc("in_out_ptr0"(#loc))
#loc23 = loc("in_ptr0"(#loc))
#loc24 = loc("in_ptr1"(#loc))
#loc25 = loc("in_ptr2"(#loc))
#loc26 = loc("xnumel"(#loc))
module {
  tt.func public @triton_poi_fused__unsafe_view_add_addmm_view_7(%in_out_ptr0: !tt.ptr<f32> {tt.divisibility = 16 : i32} loc("in_out_ptr0"(#loc)), %in_ptr0: !tt.ptr<f32> {tt.divisibility = 16 : i32} loc("in_ptr0"(#loc)), %in_ptr1: !tt.ptr<f32> {tt.divisibility = 16 : i32} loc("in_ptr1"(#loc)), %in_ptr2: !tt.ptr<f32> {tt.divisibility = 16 : i32} loc("in_ptr2"(#loc)), %xnumel: i32 {tt.divisibility = 16 : i32} loc("xnumel"(#loc))) attributes {noinline = false} {
    %xnumel_0 = arith.constant 262144 : i32 loc(#loc27)
    %xoffset = tt.get_program_id x : i32 loc(#loc28)
    %xoffset_1 = arith.constant 512 : i32 loc(#loc29)
    %xoffset_2 = arith.constant 512 : i32 loc(#loc29)
    %xoffset_3 = arith.muli %xoffset, %xoffset_2 : i32 loc(#loc29)
    %xindex = tt.make_range {end = 512 : i32, start = 0 : i32} : tensor<512xi32> loc(#loc30)
    %xindex_4 = tt.splat %xoffset_3 : i32 -> tensor<512xi32> loc(#loc31)
    %xindex_5 = arith.addi %xindex_4, %xindex : tensor<512xi32> loc(#loc31)
    %xmask = arith.constant true loc(#loc32)
    %xmask_6 = arith.constant dense<true> : tensor<512xi1> loc(#loc32)
    %x0 = arith.constant 512 : i32 loc(#loc33)
    %x0_7 = arith.constant 512 : i32 loc(#loc33)
    %x0_8 = arith.constant dense<512> : tensor<512xi32> loc(#loc33)
    %x0_9 = arith.remsi %xindex_5, %x0_8 : tensor<512xi32> loc(#loc33)
    %tmp0 = tt.splat %in_ptr0 : !tt.ptr<f32> -> tensor<512x!tt.ptr<f32>> loc(#loc34)
    %tmp0_10 = tt.addptr %tmp0, %xindex_5 : tensor<512x!tt.ptr<f32>>, tensor<512xi32> loc(#loc34)
    %tmp0_11 = tt.load %tmp0_10 : tensor<512x!tt.ptr<f32>> loc(#loc35)
    %tmp1 = tt.splat %in_out_ptr0 : !tt.ptr<f32> -> tensor<512x!tt.ptr<f32>> loc(#loc36)
    %tmp1_12 = tt.addptr %tmp1, %xindex_5 : tensor<512x!tt.ptr<f32>>, tensor<512xi32> loc(#loc36)
    %tmp1_13 = tt.load %tmp1_12 : tensor<512x!tt.ptr<f32>> loc(#loc37)
    %tmp3 = tt.splat %in_ptr1 : !tt.ptr<f32> -> tensor<512x!tt.ptr<f32>> loc(#loc38)
    %tmp3_14 = tt.addptr %tmp3, %x0_9 : tensor<512x!tt.ptr<f32>>, tensor<512xi32> loc(#loc38)
    %tmp3_15 = tt.load %tmp3_14 evictionPolicy = evict_last : tensor<512x!tt.ptr<f32>> loc(#loc39)
    %tmp4 = tt.splat %in_ptr2 : !tt.ptr<f32> -> tensor<512x!tt.ptr<f32>> loc(#loc40)
    %tmp4_16 = tt.addptr %tmp4, %xindex_5 : tensor<512x!tt.ptr<f32>>, tensor<512xi32> loc(#loc40)
    %tmp4_17 = tt.load %tmp4_16 : tensor<512x!tt.ptr<f32>> loc(#loc41)
    %tmp2 = arith.addf %tmp0_11, %tmp1_13 : tensor<512xf32> loc(#loc42)
    %tmp5 = arith.addf %tmp3_15, %tmp4_17 : tensor<512xf32> loc(#loc43)
    %tmp6 = arith.addf %tmp2, %tmp5 : tensor<512xf32> loc(#loc44)
    %0 = tt.splat %in_out_ptr0 : !tt.ptr<f32> -> tensor<512x!tt.ptr<f32>> loc(#loc19)
    %1 = tt.addptr %0, %xindex_5 : tensor<512x!tt.ptr<f32>>, tensor<512xi32> loc(#loc19)
    tt.store %1, %tmp6 : tensor<512x!tt.ptr<f32>> loc(#loc20)
    tt.return loc(#loc21)
  } loc(#loc)
} loc(#loc)
#loc1 = loc("/root/Profiler/examples/transformer_stack/test_run/inductor_debug/5n/c5n45p7d7ontdtwyxundqe7t7qwnl7trwsu3cs5voudd2lzgedus.py":19:13)
#loc2 = loc("/root/Profiler/examples/transformer_stack/test_run/inductor_debug/5n/c5n45p7d7ontdtwyxundqe7t7qwnl7trwsu3cs5voudd2lzgedus.py":20:28)
#loc3 = loc("/root/Profiler/examples/transformer_stack/test_run/inductor_debug/5n/c5n45p7d7ontdtwyxundqe7t7qwnl7trwsu3cs5voudd2lzgedus.py":20:33)
#loc4 = loc("/root/Profiler/examples/transformer_stack/test_run/inductor_debug/5n/c5n45p7d7ontdtwyxundqe7t7qwnl7trwsu3cs5voudd2lzgedus.py":21:36)
#loc5 = loc("/root/Profiler/examples/transformer_stack/test_run/inductor_debug/5n/c5n45p7d7ontdtwyxundqe7t7qwnl7trwsu3cs5voudd2lzgedus.py":21:23)
#loc6 = loc("/root/Profiler/examples/transformer_stack/test_run/inductor_debug/5n/c5n45p7d7ontdtwyxundqe7t7qwnl7trwsu3cs5voudd2lzgedus.py":22:36)
#loc7 = loc("/root/Profiler/examples/transformer_stack/test_run/inductor_debug/5n/c5n45p7d7ontdtwyxundqe7t7qwnl7trwsu3cs5voudd2lzgedus.py":24:19)
#loc8 = loc("/root/Profiler/examples/transformer_stack/test_run/inductor_debug/5n/c5n45p7d7ontdtwyxundqe7t7qwnl7trwsu3cs5voudd2lzgedus.py":25:30)
#loc9 = loc("/root/Profiler/examples/transformer_stack/test_run/inductor_debug/5n/c5n45p7d7ontdtwyxundqe7t7qwnl7trwsu3cs5voudd2lzgedus.py":25:35)
#loc10 = loc("/root/Profiler/examples/transformer_stack/test_run/inductor_debug/5n/c5n45p7d7ontdtwyxundqe7t7qwnl7trwsu3cs5voudd2lzgedus.py":26:34)
#loc11 = loc("/root/Profiler/examples/transformer_stack/test_run/inductor_debug/5n/c5n45p7d7ontdtwyxundqe7t7qwnl7trwsu3cs5voudd2lzgedus.py":26:39)
#loc12 = loc("/root/Profiler/examples/transformer_stack/test_run/inductor_debug/5n/c5n45p7d7ontdtwyxundqe7t7qwnl7trwsu3cs5voudd2lzgedus.py":27:30)
#loc13 = loc("/root/Profiler/examples/transformer_stack/test_run/inductor_debug/5n/c5n45p7d7ontdtwyxundqe7t7qwnl7trwsu3cs5voudd2lzgedus.py":27:35)
#loc14 = loc("/root/Profiler/examples/transformer_stack/test_run/inductor_debug/5n/c5n45p7d7ontdtwyxundqe7t7qwnl7trwsu3cs5voudd2lzgedus.py":28:30)
#loc15 = loc("/root/Profiler/examples/transformer_stack/test_run/inductor_debug/5n/c5n45p7d7ontdtwyxundqe7t7qwnl7trwsu3cs5voudd2lzgedus.py":28:35)
#loc16 = loc("/root/Profiler/examples/transformer_stack/test_run/inductor_debug/5n/c5n45p7d7ontdtwyxundqe7t7qwnl7trwsu3cs5voudd2lzgedus.py":29:18)
#loc17 = loc("/root/Profiler/examples/transformer_stack/test_run/inductor_debug/5n/c5n45p7d7ontdtwyxundqe7t7qwnl7trwsu3cs5voudd2lzgedus.py":30:18)
#loc18 = loc("/root/Profiler/examples/transformer_stack/test_run/inductor_debug/5n/c5n45p7d7ontdtwyxundqe7t7qwnl7trwsu3cs5voudd2lzgedus.py":31:18)
#loc19 = loc("/root/Profiler/examples/transformer_stack/test_run/inductor_debug/5n/c5n45p7d7ontdtwyxundqe7t7qwnl7trwsu3cs5voudd2lzgedus.py":32:28)
#loc20 = loc("/root/Profiler/examples/transformer_stack/test_run/inductor_debug/5n/c5n45p7d7ontdtwyxundqe7t7qwnl7trwsu3cs5voudd2lzgedus.py":32:39)
#loc21 = loc("/root/Profiler/examples/transformer_stack/test_run/inductor_debug/5n/c5n45p7d7ontdtwyxundqe7t7qwnl7trwsu3cs5voudd2lzgedus.py":32:4)
#loc27 = loc("xnumel"(#loc1))
#loc28 = loc("xoffset"(#loc2))
#loc29 = loc("xoffset"(#loc3))
#loc30 = loc("xindex"(#loc4))
#loc31 = loc("xindex"(#loc5))
#loc32 = loc("xmask"(#loc6))
#loc33 = loc("x0"(#loc7))
#loc34 = loc("tmp0"(#loc8))
#loc35 = loc("tmp0"(#loc9))
#loc36 = loc("tmp1"(#loc10))
#loc37 = loc("tmp1"(#loc11))
#loc38 = loc("tmp3"(#loc12))
#loc39 = loc("tmp3"(#loc13))
#loc40 = loc("tmp4"(#loc14))
#loc41 = loc("tmp4"(#loc15))
#loc42 = loc("tmp2"(#loc16))
#loc43 = loc("tmp5"(#loc17))
#loc44 = loc("tmp6"(#loc18))
