#loc = loc("/root/Profiler/examples/transformer_stack/test_run/inductor_debug/5n/c5n45p7d7ontdtwyxundqe7t7qwnl7trwsu3cs5voudd2lzgedus.py":18:0)
#loc20 = loc("in_out_ptr0"(#loc))
#loc21 = loc("in_ptr0"(#loc))
#loc22 = loc("in_ptr1"(#loc))
#loc23 = loc("in_ptr2"(#loc))
#loc24 = loc("xnumel"(#loc))
module {
  tt.func public @triton_poi_fused__unsafe_view_add_addmm_view_7(%in_out_ptr0: !tt.ptr<f32> {tt.divisibility = 16 : i32} loc("in_out_ptr0"(#loc)), %in_ptr0: !tt.ptr<f32> {tt.divisibility = 16 : i32} loc("in_ptr0"(#loc)), %in_ptr1: !tt.ptr<f32> {tt.divisibility = 16 : i32} loc("in_ptr1"(#loc)), %in_ptr2: !tt.ptr<f32> {tt.divisibility = 16 : i32} loc("in_ptr2"(#loc)), %xnumel: i32 {tt.divisibility = 16 : i32} loc("xnumel"(#loc))) attributes {noinline = false} {
    %x0 = arith.constant dense<512> : tensor<512xi32> loc(#loc25)
    %c512_i32 = arith.constant 512 : i32 loc(#loc2)
    %xoffset = tt.get_program_id x : i32 loc(#loc26)
    %xoffset_0 = arith.muli %xoffset, %c512_i32 : i32 loc(#loc27)
    %xindex = tt.make_range {end = 512 : i32, start = 0 : i32} : tensor<512xi32> loc(#loc28)
    %xindex_1 = tt.splat %xoffset_0 : i32 -> tensor<512xi32> loc(#loc29)
    %xindex_2 = arith.addi %xindex_1, %xindex : tensor<512xi32> loc(#loc29)
    %x0_3 = arith.remsi %xindex_2, %x0 : tensor<512xi32> loc(#loc25)
    %tmp0 = tt.splat %in_ptr0 : !tt.ptr<f32> -> tensor<512x!tt.ptr<f32>> loc(#loc30)
    %tmp0_4 = tt.addptr %tmp0, %xindex_2 : tensor<512x!tt.ptr<f32>>, tensor<512xi32> loc(#loc30)
    %tmp0_5 = tt.load %tmp0_4 : tensor<512x!tt.ptr<f32>> loc(#loc31)
    %tmp1 = tt.splat %in_out_ptr0 : !tt.ptr<f32> -> tensor<512x!tt.ptr<f32>> loc(#loc32)
    %tmp1_6 = tt.addptr %tmp1, %xindex_2 : tensor<512x!tt.ptr<f32>>, tensor<512xi32> loc(#loc32)
    %tmp1_7 = tt.load %tmp1_6 : tensor<512x!tt.ptr<f32>> loc(#loc33)
    %tmp3 = tt.splat %in_ptr1 : !tt.ptr<f32> -> tensor<512x!tt.ptr<f32>> loc(#loc34)
    %tmp3_8 = tt.addptr %tmp3, %x0_3 : tensor<512x!tt.ptr<f32>>, tensor<512xi32> loc(#loc34)
    %tmp3_9 = tt.load %tmp3_8 evictionPolicy = evict_last : tensor<512x!tt.ptr<f32>> loc(#loc35)
    %tmp4 = tt.splat %in_ptr2 : !tt.ptr<f32> -> tensor<512x!tt.ptr<f32>> loc(#loc36)
    %tmp4_10 = tt.addptr %tmp4, %xindex_2 : tensor<512x!tt.ptr<f32>>, tensor<512xi32> loc(#loc36)
    %tmp4_11 = tt.load %tmp4_10 : tensor<512x!tt.ptr<f32>> loc(#loc37)
    %tmp2 = arith.addf %tmp0_5, %tmp1_7 : tensor<512xf32> loc(#loc38)
    %tmp5 = arith.addf %tmp3_9, %tmp4_11 : tensor<512xf32> loc(#loc39)
    %tmp6 = arith.addf %tmp2, %tmp5 : tensor<512xf32> loc(#loc40)
    tt.store %tmp1_6, %tmp6 : tensor<512x!tt.ptr<f32>> loc(#loc18)
    tt.return loc(#loc19)
  } loc(#loc)
} loc(#loc)
#loc1 = loc("/root/Profiler/examples/transformer_stack/test_run/inductor_debug/5n/c5n45p7d7ontdtwyxundqe7t7qwnl7trwsu3cs5voudd2lzgedus.py":24:19)
#loc2 = loc(unknown)
#loc3 = loc("/root/Profiler/examples/transformer_stack/test_run/inductor_debug/5n/c5n45p7d7ontdtwyxundqe7t7qwnl7trwsu3cs5voudd2lzgedus.py":20:28)
#loc4 = loc("/root/Profiler/examples/transformer_stack/test_run/inductor_debug/5n/c5n45p7d7ontdtwyxundqe7t7qwnl7trwsu3cs5voudd2lzgedus.py":20:33)
#loc5 = loc("/root/Profiler/examples/transformer_stack/test_run/inductor_debug/5n/c5n45p7d7ontdtwyxundqe7t7qwnl7trwsu3cs5voudd2lzgedus.py":21:36)
#loc6 = loc("/root/Profiler/examples/transformer_stack/test_run/inductor_debug/5n/c5n45p7d7ontdtwyxundqe7t7qwnl7trwsu3cs5voudd2lzgedus.py":21:23)
#loc7 = loc("/root/Profiler/examples/transformer_stack/test_run/inductor_debug/5n/c5n45p7d7ontdtwyxundqe7t7qwnl7trwsu3cs5voudd2lzgedus.py":25:30)
#loc8 = loc("/root/Profiler/examples/transformer_stack/test_run/inductor_debug/5n/c5n45p7d7ontdtwyxundqe7t7qwnl7trwsu3cs5voudd2lzgedus.py":25:35)
#loc9 = loc("/root/Profiler/examples/transformer_stack/test_run/inductor_debug/5n/c5n45p7d7ontdtwyxundqe7t7qwnl7trwsu3cs5voudd2lzgedus.py":26:34)
#loc10 = loc("/root/Profiler/examples/transformer_stack/test_run/inductor_debug/5n/c5n45p7d7ontdtwyxundqe7t7qwnl7trwsu3cs5voudd2lzgedus.py":26:39)
#loc11 = loc("/root/Profiler/examples/transformer_stack/test_run/inductor_debug/5n/c5n45p7d7ontdtwyxundqe7t7qwnl7trwsu3cs5voudd2lzgedus.py":27:30)
#loc12 = loc("/root/Profiler/examples/transformer_stack/test_run/inductor_debug/5n/c5n45p7d7ontdtwyxundqe7t7qwnl7trwsu3cs5voudd2lzgedus.py":27:35)
#loc13 = loc("/root/Profiler/examples/transformer_stack/test_run/inductor_debug/5n/c5n45p7d7ontdtwyxundqe7t7qwnl7trwsu3cs5voudd2lzgedus.py":28:30)
#loc14 = loc("/root/Profiler/examples/transformer_stack/test_run/inductor_debug/5n/c5n45p7d7ontdtwyxundqe7t7qwnl7trwsu3cs5voudd2lzgedus.py":28:35)
#loc15 = loc("/root/Profiler/examples/transformer_stack/test_run/inductor_debug/5n/c5n45p7d7ontdtwyxundqe7t7qwnl7trwsu3cs5voudd2lzgedus.py":29:18)
#loc16 = loc("/root/Profiler/examples/transformer_stack/test_run/inductor_debug/5n/c5n45p7d7ontdtwyxundqe7t7qwnl7trwsu3cs5voudd2lzgedus.py":30:18)
#loc17 = loc("/root/Profiler/examples/transformer_stack/test_run/inductor_debug/5n/c5n45p7d7ontdtwyxundqe7t7qwnl7trwsu3cs5voudd2lzgedus.py":31:18)
#loc18 = loc("/root/Profiler/examples/transformer_stack/test_run/inductor_debug/5n/c5n45p7d7ontdtwyxundqe7t7qwnl7trwsu3cs5voudd2lzgedus.py":32:39)
#loc19 = loc("/root/Profiler/examples/transformer_stack/test_run/inductor_debug/5n/c5n45p7d7ontdtwyxundqe7t7qwnl7trwsu3cs5voudd2lzgedus.py":32:4)
#loc25 = loc("x0"(#loc1))
#loc26 = loc("xoffset"(#loc3))
#loc27 = loc("xoffset"(#loc4))
#loc28 = loc("xindex"(#loc5))
#loc29 = loc("xindex"(#loc6))
#loc30 = loc("tmp0"(#loc7))
#loc31 = loc("tmp0"(#loc8))
#loc32 = loc("tmp1"(#loc9))
#loc33 = loc("tmp1"(#loc10))
#loc34 = loc("tmp3"(#loc11))
#loc35 = loc("tmp3"(#loc12))
#loc36 = loc("tmp4"(#loc13))
#loc37 = loc("tmp4"(#loc14))
#loc38 = loc("tmp2"(#loc15))
#loc39 = loc("tmp5"(#loc16))
#loc40 = loc("tmp6"(#loc17))
