#loc = loc("/root/Profiler/gpt2_optimized_inductor_debug/zb/czbvxldyt3l7teqrcywu4kolziswyogj3h26ioljetasgtmc53ee.py":18:0)
#loc20 = loc("in_out_ptr0"(#loc))
#loc21 = loc("xnumel"(#loc))
module {
  tt.func public @triton_poi_fused_add_mul_pow_tanh_view_5(%in_out_ptr0: !tt.ptr<bf16> {tt.divisibility = 16 : i32} loc("in_out_ptr0"(#loc)), %xnumel: i32 {tt.divisibility = 16 : i32} loc("xnumel"(#loc))) attributes {noinline = false} {
    %tmp12 = arith.constant dense<1.000000e+00> : tensor<1024xf32> loc(#loc22)
    %tmp9 = arith.constant dense<0.797884583> : tensor<1024xf32> loc(#loc23)
    %tmp6 = arith.constant dense<4.471500e-02> : tensor<1024xf32> loc(#loc24)
    %tmp2 = arith.constant dense<5.000000e-01> : tensor<1024xf32> loc(#loc25)
    %c1024_i32 = arith.constant 1024 : i32 loc(#loc5)
    %xoffset = tt.get_program_id x : i32 loc(#loc26)
    %xoffset_0 = arith.muli %xoffset, %c1024_i32 : i32 loc(#loc27)
    %xindex = tt.make_range {end = 1024 : i32, start = 0 : i32} : tensor<1024xi32> loc(#loc28)
    %xindex_1 = tt.splat %xoffset_0 : i32 -> tensor<1024xi32> loc(#loc29)
    %xindex_2 = arith.addi %xindex_1, %xindex : tensor<1024xi32> loc(#loc29)
    %tmp0 = tt.splat %in_out_ptr0 : !tt.ptr<bf16> -> tensor<1024x!tt.ptr<bf16>> loc(#loc30)
    %tmp0_3 = tt.addptr %tmp0, %xindex_2 : tensor<1024x!tt.ptr<bf16>>, tensor<1024xi32> loc(#loc30)
    %tmp0_4 = tt.load %tmp0_3 : tensor<1024x!tt.ptr<bf16>> loc(#loc31)
    %tmp0_5 = arith.extf %tmp0_4 : tensor<1024xbf16> to tensor<1024xf32> loc(#loc32)
    %tmp2_6 = arith.mulf %tmp0_5, %tmp2 : tensor<1024xf32> loc(#loc25)
    %tmp3 = arith.mulf %tmp0_5, %tmp0_5 : tensor<1024xf32> loc(#loc33)
    %tmp4 = arith.mulf %tmp3, %tmp0_5 : tensor<1024xf32> loc(#loc34)
    %tmp6_7 = arith.mulf %tmp4, %tmp6 : tensor<1024xf32> loc(#loc24)
    %tmp7 = arith.addf %tmp0_5, %tmp6_7 : tensor<1024xf32> loc(#loc35)
    %tmp9_8 = arith.mulf %tmp7, %tmp9 : tensor<1024xf32> loc(#loc23)
    %tmp10 = tt.extern_elementwise %tmp9_8 {libname = "", libpath = "", pure = true, symbol = "__nv_tanhf"} : (tensor<1024xf32>) -> tensor<1024xf32> loc(#loc36)
    %tmp12_9 = arith.addf %tmp10, %tmp12 : tensor<1024xf32> loc(#loc22)
    %tmp13 = arith.mulf %tmp2_6, %tmp12_9 : tensor<1024xf32> loc(#loc37)
    %0 = arith.truncf %tmp13 : tensor<1024xf32> to tensor<1024xbf16> loc(#loc18)
    tt.store %tmp0_3, %0 : tensor<1024x!tt.ptr<bf16>> loc(#loc18)
    tt.return loc(#loc19)
  } loc(#loc)
} loc(#loc)
#loc1 = loc("/root/Profiler/gpt2_optimized_inductor_debug/zb/czbvxldyt3l7teqrcywu4kolziswyogj3h26ioljetasgtmc53ee.py":36:20)
#loc2 = loc("/root/Profiler/gpt2_optimized_inductor_debug/zb/czbvxldyt3l7teqrcywu4kolziswyogj3h26ioljetasgtmc53ee.py":33:18)
#loc3 = loc("/root/Profiler/gpt2_optimized_inductor_debug/zb/czbvxldyt3l7teqrcywu4kolziswyogj3h26ioljetasgtmc53ee.py":30:18)
#loc4 = loc("/root/Profiler/gpt2_optimized_inductor_debug/zb/czbvxldyt3l7teqrcywu4kolziswyogj3h26ioljetasgtmc53ee.py":26:18)
#loc5 = loc(unknown)
#loc6 = loc("/root/Profiler/gpt2_optimized_inductor_debug/zb/czbvxldyt3l7teqrcywu4kolziswyogj3h26ioljetasgtmc53ee.py":20:28)
#loc7 = loc("/root/Profiler/gpt2_optimized_inductor_debug/zb/czbvxldyt3l7teqrcywu4kolziswyogj3h26ioljetasgtmc53ee.py":20:33)
#loc8 = loc("/root/Profiler/gpt2_optimized_inductor_debug/zb/czbvxldyt3l7teqrcywu4kolziswyogj3h26ioljetasgtmc53ee.py":21:36)
#loc9 = loc("/root/Profiler/gpt2_optimized_inductor_debug/zb/czbvxldyt3l7teqrcywu4kolziswyogj3h26ioljetasgtmc53ee.py":21:23)
#loc10 = loc("/root/Profiler/gpt2_optimized_inductor_debug/zb/czbvxldyt3l7teqrcywu4kolziswyogj3h26ioljetasgtmc53ee.py":24:34)
#loc11 = loc("/root/Profiler/gpt2_optimized_inductor_debug/zb/czbvxldyt3l7teqrcywu4kolziswyogj3h26ioljetasgtmc53ee.py":24:39)
#loc12 = loc("/root/Profiler/gpt2_optimized_inductor_debug/zb/czbvxldyt3l7teqrcywu4kolziswyogj3h26ioljetasgtmc53ee.py":24:48)
#loc13 = loc("/root/Profiler/gpt2_optimized_inductor_debug/zb/czbvxldyt3l7teqrcywu4kolziswyogj3h26ioljetasgtmc53ee.py":27:18)
#loc14 = loc("/root/Profiler/gpt2_optimized_inductor_debug/zb/czbvxldyt3l7teqrcywu4kolziswyogj3h26ioljetasgtmc53ee.py":28:18)
#loc15 = loc("/root/Profiler/gpt2_optimized_inductor_debug/zb/czbvxldyt3l7teqrcywu4kolziswyogj3h26ioljetasgtmc53ee.py":31:18)
#loc16 = loc("/root/Profiler/gpt2_optimized_inductor_debug/zb/czbvxldyt3l7teqrcywu4kolziswyogj3h26ioljetasgtmc53ee.py":34:27)
#loc17 = loc("/root/Profiler/gpt2_optimized_inductor_debug/zb/czbvxldyt3l7teqrcywu4kolziswyogj3h26ioljetasgtmc53ee.py":37:19)
#loc18 = loc("/root/Profiler/gpt2_optimized_inductor_debug/zb/czbvxldyt3l7teqrcywu4kolziswyogj3h26ioljetasgtmc53ee.py":38:40)
#loc19 = loc("/root/Profiler/gpt2_optimized_inductor_debug/zb/czbvxldyt3l7teqrcywu4kolziswyogj3h26ioljetasgtmc53ee.py":38:4)
#loc22 = loc("tmp12"(#loc1))
#loc23 = loc("tmp9"(#loc2))
#loc24 = loc("tmp6"(#loc3))
#loc25 = loc("tmp2"(#loc4))
#loc26 = loc("xoffset"(#loc6))
#loc27 = loc("xoffset"(#loc7))
#loc28 = loc("xindex"(#loc8))
#loc29 = loc("xindex"(#loc9))
#loc30 = loc("tmp0"(#loc10))
#loc31 = loc("tmp0"(#loc11))
#loc32 = loc("tmp0"(#loc12))
#loc33 = loc("tmp3"(#loc13))
#loc34 = loc("tmp4"(#loc14))
#loc35 = loc("tmp7"(#loc15))
#loc36 = loc("tmp10"(#loc16))
#loc37 = loc("tmp13"(#loc17))
