#loc = loc("/root/Profiler/examples/transformer_stack/test_run/inductor_debug/fs/cfshh6phwugwyf4qrinxpgd5rm4xqklkymwcyun6cdz3fsi4se74.py":18:0)
#loc1 = loc(unknown)
#loc11 = loc("/root/Profiler/examples/transformer_stack/test_run/inductor_debug/fs/cfshh6phwugwyf4qrinxpgd5rm4xqklkymwcyun6cdz3fsi4se74.py":38:37)
#loc20 = loc("/root/Profiler/examples/transformer_stack/test_run/inductor_debug/fs/cfshh6phwugwyf4qrinxpgd5rm4xqklkymwcyun6cdz3fsi4se74.py":44:26)
#loc26 = loc("in_out_ptr0"(#loc))
#loc27 = loc("xnumel"(#loc))
#loc28 = loc("r0_numel"(#loc))
#loc37 = loc("tmp5"(#loc11))
#loc44 = loc("tmp12"(#loc20))
#loc49 = loc(callsite(#loc1 at #loc37))
#loc53 = loc(callsite(#loc1 at #loc44))
module {
  tt.func public @triton_per_fused__softmax_amax_mul_sub_view_3(%in_out_ptr0: !tt.ptr<f32> {tt.divisibility = 16 : i32} loc("in_out_ptr0"(#loc)), %xnumel: i32 {tt.divisibility = 16 : i32} loc("xnumel"(#loc)), %r0_numel: i32 {tt.divisibility = 16 : i32} loc("r0_numel"(#loc))) attributes {noinline = false} {
    %c128_i32 = arith.constant 128 : i32 loc(#loc1)
    %tmp8 = arith.constant dense<1.250000e-01> : tensor<1x128xf32> loc(#loc29)
    %xoffset = tt.get_program_id x : i32 loc(#loc30)
    %r0_index = tt.make_range {end = 128 : i32, start = 0 : i32} : tensor<128xi32> loc(#loc31)
    %r0_index_0 = tt.expand_dims %r0_index {axis = 0 : i32} : tensor<128xi32> -> tensor<1x128xi32> loc(#loc32)
    %tmp0 = arith.muli %xoffset, %c128_i32 : i32 loc(#loc33)
    %tmp0_1 = tt.splat %tmp0 : i32 -> tensor<1x128xi32> loc(#loc47)
    %tmp0_2 = arith.addi %r0_index_0, %tmp0_1 : tensor<1x128xi32> loc(#loc34)
    %tmp0_3 = tt.splat %in_out_ptr0 : !tt.ptr<f32> -> tensor<1x128x!tt.ptr<f32>> loc(#loc35)
    %tmp0_4 = tt.addptr %tmp0_3, %tmp0_2 : tensor<1x128x!tt.ptr<f32>>, tensor<1x128xi32> loc(#loc35)
    %tmp0_5 = tt.load %tmp0_4 : tensor<1x128x!tt.ptr<f32>> loc(#loc36)
    %tmp5 = "tt.reduce"(%tmp0_5) <{axis = 1 : i32}> ({
    ^bb0(%tmp5_11: f32 loc(callsite(#loc1 at #loc37)), %tmp5_12: f32 loc(callsite(#loc1 at #loc37))):
      %mask = arith.cmpf ogt, %tmp5_11, %tmp5_12 : f32 loc(#loc54)
      %mask_13 = arith.cmpf une, %tmp5_11, %tmp5_11 : f32 loc(#loc55)
      %mask_14 = arith.ori %mask, %mask_13 : i1 loc(#loc56)
      %tmp5_15 = arith.select %mask_14, %tmp5_11, %tmp5_12 : f32 loc(#loc57)
      tt.reduce.return %tmp5_15 : f32 loc(#loc48)
    }) : (tensor<1x128xf32>) -> tensor<1xf32> loc(#loc48)
    %tmp5_6 = tt.expand_dims %tmp5 {axis = 1 : i32} : tensor<1xf32> -> tensor<1x1xf32> loc(#loc41)
    %tmp6 = tt.broadcast %tmp5_6 : tensor<1x1xf32> -> tensor<1x128xf32> loc(#loc42)
    %tmp6_7 = arith.subf %tmp0_5, %tmp6 : tensor<1x128xf32> loc(#loc42)
    %tmp8_8 = arith.mulf %tmp6_7, %tmp8 : tensor<1x128xf32> loc(#loc29)
    %tmp9 = tt.extern_elementwise %tmp8_8 {libname = "", libpath = "", pure = true, symbol = "__nv_expf"} : (tensor<1x128xf32>) -> tensor<1x128xf32> loc(#loc43)
    %tmp12 = "tt.reduce"(%tmp9) <{axis = 1 : i32}> ({
    ^bb0(%tmp12_11: f32 loc(callsite(#loc1 at #loc44)), %tmp12_12: f32 loc(callsite(#loc1 at #loc44))):
      %tmp12_13 = arith.addf %tmp12_11, %tmp12_12 : f32 loc(#loc58)
      tt.reduce.return %tmp12_13 : f32 loc(#loc52)
    }) : (tensor<1x128xf32>) -> tensor<1xf32> loc(#loc52)
    %tmp12_9 = tt.expand_dims %tmp12 {axis = 1 : i32} : tensor<1xf32> -> tensor<1x1xf32> loc(#loc45)
    %tmp13 = tt.broadcast %tmp12_9 : tensor<1x1xf32> -> tensor<1x128xf32> loc(#loc46)
    %tmp13_10 = arith.divf %tmp9, %tmp13 : tensor<1x128xf32> loc(#loc46)
    tt.store %tmp0_4, %tmp13_10 : tensor<1x128x!tt.ptr<f32>> loc(#loc24)
    tt.return loc(#loc25)
  } loc(#loc)
} loc(#loc)
#loc2 = loc("/root/Profiler/examples/transformer_stack/test_run/inductor_debug/fs/cfshh6phwugwyf4qrinxpgd5rm4xqklkymwcyun6cdz3fsi4se74.py":41:18)
#loc3 = loc("/root/Profiler/examples/transformer_stack/test_run/inductor_debug/fs/cfshh6phwugwyf4qrinxpgd5rm4xqklkymwcyun6cdz3fsi4se74.py":24:28)
#loc4 = loc("/root/Profiler/examples/transformer_stack/test_run/inductor_debug/fs/cfshh6phwugwyf4qrinxpgd5rm4xqklkymwcyun6cdz3fsi4se74.py":27:28)
#loc5 = loc("/root/Profiler/examples/transformer_stack/test_run/inductor_debug/fs/cfshh6phwugwyf4qrinxpgd5rm4xqklkymwcyun6cdz3fsi4se74.py":27:38)
#loc6 = loc("/root/Profiler/examples/transformer_stack/test_run/inductor_debug/fs/cfshh6phwugwyf4qrinxpgd5rm4xqklkymwcyun6cdz3fsi4se74.py":34:45)
#loc7 = loc("/root/Profiler/examples/transformer_stack/test_run/inductor_debug/fs/cfshh6phwugwyf4qrinxpgd5rm4xqklkymwcyun6cdz3fsi4se74.py":34:41)
#loc8 = loc("/root/Profiler/examples/transformer_stack/test_run/inductor_debug/fs/cfshh6phwugwyf4qrinxpgd5rm4xqklkymwcyun6cdz3fsi4se74.py":34:34)
#loc9 = loc("/root/Profiler/examples/transformer_stack/test_run/inductor_debug/fs/cfshh6phwugwyf4qrinxpgd5rm4xqklkymwcyun6cdz3fsi4se74.py":34:50)
#loc10 = loc("/usr/local/lib/python3.10/dist-packages/torch/_inductor/runtime/triton_helpers.py":129:29)
#loc12 = loc("/usr/local/lib/python3.10/dist-packages/torch/_inductor/runtime/triton_helpers.py":116:15)
#loc13 = loc("/usr/local/lib/python3.10/dist-packages/torch/_inductor/runtime/triton_helpers.py":118:21)
#loc14 = loc("/usr/local/lib/python3.10/dist-packages/torch/_inductor/runtime/triton_helpers.py":118:16)
#loc15 = loc("/usr/local/lib/python3.10/dist-packages/torch/_inductor/runtime/triton_helpers.py":119:29)
#loc16 = loc("/root/Profiler/examples/transformer_stack/test_run/inductor_debug/fs/cfshh6phwugwyf4qrinxpgd5rm4xqklkymwcyun6cdz3fsi4se74.py":38:40)
#loc17 = loc("/root/Profiler/examples/transformer_stack/test_run/inductor_debug/fs/cfshh6phwugwyf4qrinxpgd5rm4xqklkymwcyun6cdz3fsi4se74.py":39:18)
#loc18 = loc("/root/Profiler/examples/transformer_stack/test_run/inductor_debug/fs/cfshh6phwugwyf4qrinxpgd5rm4xqklkymwcyun6cdz3fsi4se74.py":42:25)
#loc19 = loc("/usr/local/lib/python3.10/dist-packages/triton/language/standard.py":293:36)
#loc21 = loc("/usr/local/lib/python3.10/dist-packages/triton/language/standard.py":263:15)
#loc22 = loc("/root/Profiler/examples/transformer_stack/test_run/inductor_debug/fs/cfshh6phwugwyf4qrinxpgd5rm4xqklkymwcyun6cdz3fsi4se74.py":44:29)
#loc23 = loc("/root/Profiler/examples/transformer_stack/test_run/inductor_debug/fs/cfshh6phwugwyf4qrinxpgd5rm4xqklkymwcyun6cdz3fsi4se74.py":45:20)
#loc24 = loc("/root/Profiler/examples/transformer_stack/test_run/inductor_debug/fs/cfshh6phwugwyf4qrinxpgd5rm4xqklkymwcyun6cdz3fsi4se74.py":46:51)
#loc25 = loc("/root/Profiler/examples/transformer_stack/test_run/inductor_debug/fs/cfshh6phwugwyf4qrinxpgd5rm4xqklkymwcyun6cdz3fsi4se74.py":46:4)
#loc29 = loc("tmp8"(#loc2))
#loc30 = loc("xoffset"(#loc3))
#loc31 = loc("r0_index"(#loc4))
#loc32 = loc("r0_index"(#loc5))
#loc33 = loc("tmp0"(#loc6))
#loc34 = loc("tmp0"(#loc7))
#loc35 = loc("tmp0"(#loc8))
#loc36 = loc("tmp0"(#loc9))
#loc38 = loc("mask"(#loc12))
#loc39 = loc("mask"(#loc13))
#loc40 = loc("mask"(#loc14))
#loc41 = loc("tmp5"(#loc16))
#loc42 = loc("tmp6"(#loc17))
#loc43 = loc("tmp9"(#loc18))
#loc45 = loc("tmp12"(#loc22))
#loc46 = loc("tmp13"(#loc23))
#loc47 = loc(fused[#loc34, #loc33])
#loc48 = loc(callsite(#loc10 at #loc37))
#loc50 = loc("mask"(#loc38))
#loc51 = loc("mask"(#loc40))
#loc52 = loc(callsite(#loc19 at #loc44))
#loc54 = loc(callsite(#loc50 at #loc48))
#loc55 = loc(callsite(#loc39 at #loc48))
#loc56 = loc(callsite(#loc51 at #loc48))
#loc57 = loc(callsite(#loc15 at #loc48))
#loc58 = loc(callsite(#loc21 at #loc52))
