#loc = loc("/root/Profiler/examples/transformer_stack/test_run/inductor_debug/fs/cfshh6phwugwyf4qrinxpgd5rm4xqklkymwcyun6cdz3fsi4se74.py":18:0)
#loc35 = loc("/usr/local/lib/python3.10/dist-packages/torch/_inductor/runtime/triton_helpers.py":128:0)
#loc37 = loc(unknown)
#loc40 = loc("/usr/local/lib/python3.10/dist-packages/torch/_inductor/runtime/triton_helpers.py":115:0)
#loc49 = loc("/usr/local/lib/python3.10/dist-packages/torch/_inductor/runtime/triton_helpers.py":92:0)
#loc53 = loc("/usr/local/lib/python3.10/dist-packages/torch/_inductor/runtime/triton_helpers.py":69:0)
#loc62 = loc("/usr/local/lib/python3.10/dist-packages/triton/language/standard.py":287:0)
#loc66 = loc("/usr/local/lib/python3.10/dist-packages/triton/language/standard.py":262:0)
#loc70 = loc("in_out_ptr0"(#loc))
#loc71 = loc("xnumel"(#loc))
#loc72 = loc("r0_numel"(#loc))
#loc102 = loc("a"(#loc35))
#loc103 = loc("a"(#loc40))
#loc104 = loc("b"(#loc40))
#loc108 = loc("x"(#loc49))
#loc109 = loc("x"(#loc53))
#loc110 = loc("input"(#loc62))
#loc111 = loc("a"(#loc66))
#loc112 = loc("b"(#loc66))
module {
  tt.func public @triton_per_fused__softmax_amax_mul_sub_view_3(%in_out_ptr0: !tt.ptr<f32> {tt.divisibility = 16 : i32} loc("in_out_ptr0"(#loc)), %xnumel: i32 {tt.divisibility = 16 : i32} loc("xnumel"(#loc)), %r0_numel: i32 {tt.divisibility = 16 : i32} loc("r0_numel"(#loc))) attributes {noinline = false} {
    %xnumel_0 = arith.constant 4096 : i32 loc(#loc73)
    %r0_numel_1 = arith.constant 128 : i32 loc(#loc74)
    %xoffset = tt.get_program_id x : i32 loc(#loc75)
    %xoffset_2 = arith.constant 1 : i32 loc(#loc76)
    %xoffset_3 = arith.constant 1 : i32 loc(#loc76)
    %xoffset_4 = arith.muli %xoffset, %xoffset_3 : i32 loc(#loc76)
    %xindex = tt.make_range {end = 1 : i32, start = 0 : i32} : tensor<1xi32> loc(#loc77)
    %xindex_5 = tt.expand_dims %xindex {axis = 1 : i32} : tensor<1xi32> -> tensor<1x1xi32> loc(#loc78)
    %xindex_6 = tt.splat %xoffset_4 : i32 -> tensor<1x1xi32> loc(#loc79)
    %xindex_7 = arith.addi %xindex_6, %xindex_5 : tensor<1x1xi32> loc(#loc79)
    %xmask = arith.constant true loc(#loc80)
    %xmask_8 = arith.constant dense<true> : tensor<1xi1> loc(#loc80)
    %xmask_9 = tt.expand_dims %xmask_8 {axis = 1 : i32} : tensor<1xi1> -> tensor<1x1xi1> loc(#loc81)
    %r0_index = tt.make_range {end = 128 : i32, start = 0 : i32} : tensor<128xi32> loc(#loc82)
    %r0_index_10 = tt.expand_dims %r0_index {axis = 0 : i32} : tensor<128xi32> -> tensor<1x128xi32> loc(#loc83)
    %r0_offset = arith.constant 0 : i32 loc(#loc84)
    %r0_mask = arith.constant true loc(#loc85)
    %r0_mask_11 = arith.constant dense<true> : tensor<128xi1> loc(#loc85)
    %r0_mask_12 = tt.expand_dims %r0_mask_11 {axis = 0 : i32} : tensor<128xi1> -> tensor<1x128xi1> loc(#loc86)
    %tmp0 = arith.constant 128 : i32 loc(#loc87)
    %tmp0_13 = arith.constant 128 : i32 loc(#loc87)
    %tmp0_14 = arith.constant dense<128> : tensor<1x1xi32> loc(#loc87)
    %tmp0_15 = arith.muli %tmp0_14, %xindex_7 : tensor<1x1xi32> loc(#loc87)
    %tmp0_16 = tt.broadcast %tmp0_15 : tensor<1x1xi32> -> tensor<1x128xi32> loc(#loc88)
    %tmp0_17 = arith.addi %r0_index_10, %tmp0_16 : tensor<1x128xi32> loc(#loc88)
    %tmp0_18 = tt.splat %in_out_ptr0 : !tt.ptr<f32> -> tensor<1x128x!tt.ptr<f32>> loc(#loc89)
    %tmp0_19 = tt.addptr %tmp0_18, %tmp0_17 : tensor<1x128x!tt.ptr<f32>>, tensor<1x128xi32> loc(#loc89)
    %tmp0_20 = tt.load %tmp0_19 : tensor<1x128x!tt.ptr<f32>> loc(#loc90)
    %tmp1 = arith.constant 1.000000e+00 : f32 loc(#loc91)
    %tmp1_21 = arith.constant dense<1.000000e+00> : tensor<1x1xf32> loc(#loc91)
    %tmp2 = arith.constant dense<1.000000e+00> : tensor<1x128xf32> loc(#loc92)
    %tmp2_22 = arith.mulf %tmp0_20, %tmp2 : tensor<1x128xf32> loc(#loc92)
    %tmp5 = tt.call @"torch._inductor.runtime.triton_helpers.max2__fp32S1_128S__(1,)cconstexpr_1_"(%tmp2_22) : (tensor<1x128xf32>) -> tensor<1xf32> loc(#loc93)
    %tmp5_23 = tt.expand_dims %tmp5 {axis = 1 : i32} : tensor<1xf32> -> tensor<1x1xf32> loc(#loc94)
    %tmp6 = tt.broadcast %tmp5_23 : tensor<1x1xf32> -> tensor<1x128xf32> loc(#loc95)
    %tmp6_24 = arith.subf %tmp2_22, %tmp6 : tensor<1x128xf32> loc(#loc95)
    %tmp7 = arith.constant 1.250000e-01 : f32 loc(#loc96)
    %tmp7_25 = arith.constant dense<1.250000e-01> : tensor<1x1xf32> loc(#loc96)
    %tmp8 = arith.constant dense<1.250000e-01> : tensor<1x128xf32> loc(#loc97)
    %tmp8_26 = arith.mulf %tmp6_24, %tmp8 : tensor<1x128xf32> loc(#loc97)
    %tmp9 = tt.extern_elementwise %tmp8_26 {libname = "", libpath = "", pure = true, symbol = "__nv_expf"} : (tensor<1x128xf32>) -> tensor<1x128xf32> loc(#loc98)
    %tmp12 = tt.call @"triton.language.standard.sum__fp32S1_128S__(1,)cconstexpr_1__(2,)cconstexpr_False__(3,)cNone"(%tmp9) : (tensor<1x128xf32>) -> tensor<1xf32> loc(#loc99)
    %tmp12_27 = tt.expand_dims %tmp12 {axis = 1 : i32} : tensor<1xf32> -> tensor<1x1xf32> loc(#loc100)
    %tmp13 = tt.broadcast %tmp12_27 : tensor<1x1xf32> -> tensor<1x128xf32> loc(#loc101)
    %tmp13_28 = arith.divf %tmp9, %tmp13 : tensor<1x128xf32> loc(#loc101)
    %c128_i32 = arith.constant 128 : i32 loc(#loc30)
    %c128_i32_29 = arith.constant 128 : i32 loc(#loc30)
    %cst = arith.constant dense<128> : tensor<1x1xi32> loc(#loc30)
    %0 = arith.muli %cst, %xindex_7 : tensor<1x1xi32> loc(#loc30)
    %1 = tt.broadcast %0 : tensor<1x1xi32> -> tensor<1x128xi32> loc(#loc31)
    %2 = arith.addi %r0_index_10, %1 : tensor<1x128xi32> loc(#loc31)
    %3 = tt.splat %in_out_ptr0 : !tt.ptr<f32> -> tensor<1x128x!tt.ptr<f32>> loc(#loc32)
    %4 = tt.addptr %3, %2 : tensor<1x128x!tt.ptr<f32>>, tensor<1x128xi32> loc(#loc32)
    tt.store %4, %tmp13_28 : tensor<1x128x!tt.ptr<f32>> loc(#loc33)
    tt.return loc(#loc34)
  } loc(#loc)
  tt.func private @"torch._inductor.runtime.triton_helpers.max2__fp32S1_128S__(1,)cconstexpr_1_"(%a: tensor<1x128xf32> loc("a"(#loc35))) -> tensor<1xf32> attributes {noinline = false} {
    %0 = "tt.reduce"(%a) <{axis = 1 : i32}> ({
    ^bb0(%arg1: f32 loc(unknown), %arg2: f32 loc(unknown)):
      %2 = tt.call @torch._inductor.runtime.triton_helpers.maximum__fp32_fp32__(%arg1, %arg2) : (f32, f32) -> f32 loc(#loc36)
      tt.reduce.return %2 : f32 loc(#loc36)
    }) : (tensor<1x128xf32>) -> tensor<1xf32> loc(#loc36)
    tt.return %0 : tensor<1xf32> loc(#loc38)
  ^bb1:  // no predecessors
    %1 = ub.poison : tensor<1xf32> loc(#loc39)
    tt.return %1 : tensor<1xf32> loc(#loc39)
  } loc(#loc35)
  tt.func private @torch._inductor.runtime.triton_helpers.maximum__fp32_fp32__(%a: f32 loc("a"(#loc40)), %b: f32 loc("b"(#loc40))) -> f32 attributes {noinline = false} {
    %mask = arith.cmpf ogt, %a, %b : f32 loc(#loc113)
    %0 = tt.call @torch._inductor.runtime.triton_helpers.is_floating__fp32__(%a) : (f32) -> i1 loc(#loc42)
    %1 = scf.if %0 -> (i1) {
      %mask_0 = arith.cmpf une, %a, %a : f32 loc(#loc106)
      %mask_1 = arith.ori %mask, %mask_0 : i1 loc(#loc114)
      scf.yield %mask_1 : i1 loc(#loc114)
    } else {
      scf.yield %mask : i1 loc(#loc43)
    } loc(#loc43)
    %2 = arith.select %1, %a, %b : f32 loc(#loc46)
    tt.return %2 : f32 loc(#loc47)
  ^bb1:  // no predecessors
    %3 = ub.poison : f32 loc(#loc48)
    tt.return %3 : f32 loc(#loc48)
  } loc(#loc40)
  tt.func private @torch._inductor.runtime.triton_helpers.is_floating__fp32__(%x: f32 loc("x"(#loc49))) -> i1 attributes {noinline = false} {
    %0 = tt.call @torch._inductor.runtime.triton_helpers.promote_to_tensor__fp32__(%x) : (f32) -> tensor<1xf32> loc(#loc50)
    %true = arith.constant true loc(#loc51)
    tt.return %true : i1 loc(#loc51)
  ^bb1:  // no predecessors
    %1 = ub.poison : i1 loc(#loc52)
    tt.return %1 : i1 loc(#loc52)
  } loc(#loc49)
  tt.func private @torch._inductor.runtime.triton_helpers.promote_to_tensor__fp32__(%x: f32 loc("x"(#loc53))) -> tensor<1xf32> attributes {noinline = false} {
    %0 = tt.call @"triton.language.standard.zeros____(0, 0)cconstexpr_1__(1,)cconstexpr_int1_"() : () -> tensor<1xi1> loc(#loc54)
    %1 = arith.uitofp %0 : tensor<1xi1> to tensor<1xf32> loc(#loc55)
    %2 = tt.splat %x : f32 -> tensor<1xf32> loc(#loc55)
    %3 = arith.addf %2, %1 : tensor<1xf32> loc(#loc55)
    tt.return %3 : tensor<1xf32> loc(#loc56)
  ^bb1:  // no predecessors
    %4 = ub.poison : tensor<1xf32> loc(#loc57)
    tt.return %4 : tensor<1xf32> loc(#loc57)
  } loc(#loc53)
  tt.func private @"triton.language.standard.zeros____(0, 0)cconstexpr_1__(1,)cconstexpr_int1_"() -> tensor<1xi1> attributes {noinline = false} {
    %false = arith.constant false loc(#loc59)
    %cst = arith.constant dense<false> : tensor<1xi1> loc(#loc59)
    tt.return %cst : tensor<1xi1> loc(#loc60)
  ^bb1:  // no predecessors
    %0 = ub.poison : tensor<1xi1> loc(#loc61)
    tt.return %0 : tensor<1xi1> loc(#loc61)
  } loc(#loc58)
  tt.func private @"triton.language.standard.sum__fp32S1_128S__(1,)cconstexpr_1__(2,)cconstexpr_False__(3,)cNone"(%input: tensor<1x128xf32> loc("input"(#loc62))) -> tensor<1xf32> attributes {noinline = false} {
    %0 = "tt.reduce"(%input) <{axis = 1 : i32}> ({
    ^bb0(%arg1: f32 loc(unknown), %arg2: f32 loc(unknown)):
      %2 = tt.call @triton.language.standard._sum_combine__fp32_fp32__(%arg1, %arg2) : (f32, f32) -> f32 loc(#loc63)
      tt.reduce.return %2 : f32 loc(#loc63)
    }) : (tensor<1x128xf32>) -> tensor<1xf32> loc(#loc63)
    tt.return %0 : tensor<1xf32> loc(#loc64)
  ^bb1:  // no predecessors
    %1 = ub.poison : tensor<1xf32> loc(#loc65)
    tt.return %1 : tensor<1xf32> loc(#loc65)
  } loc(#loc62)
  tt.func private @triton.language.standard._sum_combine__fp32_fp32__(%a: f32 loc("a"(#loc66)), %b: f32 loc("b"(#loc66))) -> f32 attributes {noinline = false} {
    %0 = arith.addf %a, %b : f32 loc(#loc67)
    tt.return %0 : f32 loc(#loc68)
  ^bb1:  // no predecessors
    %1 = ub.poison : f32 loc(#loc69)
    tt.return %1 : f32 loc(#loc69)
  } loc(#loc66)
} loc(#loc)
#loc1 = loc("/root/Profiler/examples/transformer_stack/test_run/inductor_debug/fs/cfshh6phwugwyf4qrinxpgd5rm4xqklkymwcyun6cdz3fsi4se74.py":19:13)
#loc2 = loc("/root/Profiler/examples/transformer_stack/test_run/inductor_debug/fs/cfshh6phwugwyf4qrinxpgd5rm4xqklkymwcyun6cdz3fsi4se74.py":20:15)
#loc3 = loc("/root/Profiler/examples/transformer_stack/test_run/inductor_debug/fs/cfshh6phwugwyf4qrinxpgd5rm4xqklkymwcyun6cdz3fsi4se74.py":24:28)
#loc4 = loc("/root/Profiler/examples/transformer_stack/test_run/inductor_debug/fs/cfshh6phwugwyf4qrinxpgd5rm4xqklkymwcyun6cdz3fsi4se74.py":24:33)
#loc5 = loc("/root/Profiler/examples/transformer_stack/test_run/inductor_debug/fs/cfshh6phwugwyf4qrinxpgd5rm4xqklkymwcyun6cdz3fsi4se74.py":25:36)
#loc6 = loc("/root/Profiler/examples/transformer_stack/test_run/inductor_debug/fs/cfshh6phwugwyf4qrinxpgd5rm4xqklkymwcyun6cdz3fsi4se74.py":25:44)
#loc7 = loc("/root/Profiler/examples/transformer_stack/test_run/inductor_debug/fs/cfshh6phwugwyf4qrinxpgd5rm4xqklkymwcyun6cdz3fsi4se74.py":25:23)
#loc8 = loc("/root/Profiler/examples/transformer_stack/test_run/inductor_debug/fs/cfshh6phwugwyf4qrinxpgd5rm4xqklkymwcyun6cdz3fsi4se74.py":26:36)
#loc9 = loc("/root/Profiler/examples/transformer_stack/test_run/inductor_debug/fs/cfshh6phwugwyf4qrinxpgd5rm4xqklkymwcyun6cdz3fsi4se74.py":26:45)
#loc10 = loc("/root/Profiler/examples/transformer_stack/test_run/inductor_debug/fs/cfshh6phwugwyf4qrinxpgd5rm4xqklkymwcyun6cdz3fsi4se74.py":27:28)
#loc11 = loc("/root/Profiler/examples/transformer_stack/test_run/inductor_debug/fs/cfshh6phwugwyf4qrinxpgd5rm4xqklkymwcyun6cdz3fsi4se74.py":27:38)
#loc12 = loc("/root/Profiler/examples/transformer_stack/test_run/inductor_debug/fs/cfshh6phwugwyf4qrinxpgd5rm4xqklkymwcyun6cdz3fsi4se74.py":28:16)
#loc13 = loc("/root/Profiler/examples/transformer_stack/test_run/inductor_debug/fs/cfshh6phwugwyf4qrinxpgd5rm4xqklkymwcyun6cdz3fsi4se74.py":29:40)
#loc14 = loc("/root/Profiler/examples/transformer_stack/test_run/inductor_debug/fs/cfshh6phwugwyf4qrinxpgd5rm4xqklkymwcyun6cdz3fsi4se74.py":29:49)
#loc15 = loc("/root/Profiler/examples/transformer_stack/test_run/inductor_debug/fs/cfshh6phwugwyf4qrinxpgd5rm4xqklkymwcyun6cdz3fsi4se74.py":34:45)
#loc16 = loc("/root/Profiler/examples/transformer_stack/test_run/inductor_debug/fs/cfshh6phwugwyf4qrinxpgd5rm4xqklkymwcyun6cdz3fsi4se74.py":34:41)
#loc17 = loc("/root/Profiler/examples/transformer_stack/test_run/inductor_debug/fs/cfshh6phwugwyf4qrinxpgd5rm4xqklkymwcyun6cdz3fsi4se74.py":34:34)
#loc18 = loc("/root/Profiler/examples/transformer_stack/test_run/inductor_debug/fs/cfshh6phwugwyf4qrinxpgd5rm4xqklkymwcyun6cdz3fsi4se74.py":34:50)
#loc19 = loc("/root/Profiler/examples/transformer_stack/test_run/inductor_debug/fs/cfshh6phwugwyf4qrinxpgd5rm4xqklkymwcyun6cdz3fsi4se74.py":35:32)
#loc20 = loc("/root/Profiler/examples/transformer_stack/test_run/inductor_debug/fs/cfshh6phwugwyf4qrinxpgd5rm4xqklkymwcyun6cdz3fsi4se74.py":36:18)
#loc21 = loc("/root/Profiler/examples/transformer_stack/test_run/inductor_debug/fs/cfshh6phwugwyf4qrinxpgd5rm4xqklkymwcyun6cdz3fsi4se74.py":38:37)
#loc22 = loc("/root/Profiler/examples/transformer_stack/test_run/inductor_debug/fs/cfshh6phwugwyf4qrinxpgd5rm4xqklkymwcyun6cdz3fsi4se74.py":38:40)
#loc23 = loc("/root/Profiler/examples/transformer_stack/test_run/inductor_debug/fs/cfshh6phwugwyf4qrinxpgd5rm4xqklkymwcyun6cdz3fsi4se74.py":39:18)
#loc24 = loc("/root/Profiler/examples/transformer_stack/test_run/inductor_debug/fs/cfshh6phwugwyf4qrinxpgd5rm4xqklkymwcyun6cdz3fsi4se74.py":40:34)
#loc25 = loc("/root/Profiler/examples/transformer_stack/test_run/inductor_debug/fs/cfshh6phwugwyf4qrinxpgd5rm4xqklkymwcyun6cdz3fsi4se74.py":41:18)
#loc26 = loc("/root/Profiler/examples/transformer_stack/test_run/inductor_debug/fs/cfshh6phwugwyf4qrinxpgd5rm4xqklkymwcyun6cdz3fsi4se74.py":42:25)
#loc27 = loc("/root/Profiler/examples/transformer_stack/test_run/inductor_debug/fs/cfshh6phwugwyf4qrinxpgd5rm4xqklkymwcyun6cdz3fsi4se74.py":44:26)
#loc28 = loc("/root/Profiler/examples/transformer_stack/test_run/inductor_debug/fs/cfshh6phwugwyf4qrinxpgd5rm4xqklkymwcyun6cdz3fsi4se74.py":44:29)
#loc29 = loc("/root/Profiler/examples/transformer_stack/test_run/inductor_debug/fs/cfshh6phwugwyf4qrinxpgd5rm4xqklkymwcyun6cdz3fsi4se74.py":45:20)
#loc30 = loc("/root/Profiler/examples/transformer_stack/test_run/inductor_debug/fs/cfshh6phwugwyf4qrinxpgd5rm4xqklkymwcyun6cdz3fsi4se74.py":46:39)
#loc31 = loc("/root/Profiler/examples/transformer_stack/test_run/inductor_debug/fs/cfshh6phwugwyf4qrinxpgd5rm4xqklkymwcyun6cdz3fsi4se74.py":46:35)
#loc32 = loc("/root/Profiler/examples/transformer_stack/test_run/inductor_debug/fs/cfshh6phwugwyf4qrinxpgd5rm4xqklkymwcyun6cdz3fsi4se74.py":46:28)
#loc33 = loc("/root/Profiler/examples/transformer_stack/test_run/inductor_debug/fs/cfshh6phwugwyf4qrinxpgd5rm4xqklkymwcyun6cdz3fsi4se74.py":46:51)
#loc34 = loc("/root/Profiler/examples/transformer_stack/test_run/inductor_debug/fs/cfshh6phwugwyf4qrinxpgd5rm4xqklkymwcyun6cdz3fsi4se74.py":46:4)
#loc36 = loc("/usr/local/lib/python3.10/dist-packages/torch/_inductor/runtime/triton_helpers.py":129:29)
#loc38 = loc("/usr/local/lib/python3.10/dist-packages/torch/_inductor/runtime/triton_helpers.py":129:11)
#loc39 = loc("/usr/local/lib/python3.10/dist-packages/torch/_inductor/runtime/triton_helpers.py":129:4)
#loc41 = loc("/usr/local/lib/python3.10/dist-packages/torch/_inductor/runtime/triton_helpers.py":116:15)
#loc42 = loc("/usr/local/lib/python3.10/dist-packages/torch/_inductor/runtime/triton_helpers.py":117:19)
#loc43 = loc("/usr/local/lib/python3.10/dist-packages/torch/_inductor/runtime/triton_helpers.py":117:7)
#loc44 = loc("/usr/local/lib/python3.10/dist-packages/torch/_inductor/runtime/triton_helpers.py":118:21)
#loc45 = loc("/usr/local/lib/python3.10/dist-packages/torch/_inductor/runtime/triton_helpers.py":118:16)
#loc46 = loc("/usr/local/lib/python3.10/dist-packages/torch/_inductor/runtime/triton_helpers.py":119:29)
#loc47 = loc("/usr/local/lib/python3.10/dist-packages/torch/_inductor/runtime/triton_helpers.py":119:11)
#loc48 = loc("/usr/local/lib/python3.10/dist-packages/torch/_inductor/runtime/triton_helpers.py":119:4)
#loc50 = loc("/usr/local/lib/python3.10/dist-packages/torch/_inductor/runtime/triton_helpers.py":93:29)
#loc51 = loc("/usr/local/lib/python3.10/dist-packages/torch/_inductor/runtime/triton_helpers.py":93:11)
#loc52 = loc("/usr/local/lib/python3.10/dist-packages/torch/_inductor/runtime/triton_helpers.py":93:4)
#loc54 = loc("/usr/local/lib/python3.10/dist-packages/torch/_inductor/runtime/triton_helpers.py":71:30)
#loc55 = loc("/usr/local/lib/python3.10/dist-packages/torch/_inductor/runtime/triton_helpers.py":71:15)
#loc56 = loc("/usr/local/lib/python3.10/dist-packages/torch/_inductor/runtime/triton_helpers.py":71:11)
#loc57 = loc("/usr/local/lib/python3.10/dist-packages/torch/_inductor/runtime/triton_helpers.py":71:4)
#loc58 = loc("/usr/local/lib/python3.10/dist-packages/triton/language/standard.py":120:0)
#loc59 = loc("/usr/local/lib/python3.10/dist-packages/triton/language/standard.py":129:31)
#loc60 = loc("/usr/local/lib/python3.10/dist-packages/triton/language/standard.py":129:11)
#loc61 = loc("/usr/local/lib/python3.10/dist-packages/triton/language/standard.py":129:4)
#loc63 = loc("/usr/local/lib/python3.10/dist-packages/triton/language/standard.py":293:36)
#loc64 = loc("/usr/local/lib/python3.10/dist-packages/triton/language/standard.py":293:11)
#loc65 = loc("/usr/local/lib/python3.10/dist-packages/triton/language/standard.py":293:4)
#loc67 = loc("/usr/local/lib/python3.10/dist-packages/triton/language/standard.py":263:15)
#loc68 = loc("/usr/local/lib/python3.10/dist-packages/triton/language/standard.py":263:11)
#loc69 = loc("/usr/local/lib/python3.10/dist-packages/triton/language/standard.py":263:4)
#loc73 = loc("xnumel"(#loc1))
#loc74 = loc("r0_numel"(#loc2))
#loc75 = loc("xoffset"(#loc3))
#loc76 = loc("xoffset"(#loc4))
#loc77 = loc("xindex"(#loc5))
#loc78 = loc("xindex"(#loc6))
#loc79 = loc("xindex"(#loc7))
#loc80 = loc("xmask"(#loc8))
#loc81 = loc("xmask"(#loc9))
#loc82 = loc("r0_index"(#loc10))
#loc83 = loc("r0_index"(#loc11))
#loc84 = loc("r0_offset"(#loc12))
#loc85 = loc("r0_mask"(#loc13))
#loc86 = loc("r0_mask"(#loc14))
#loc87 = loc("tmp0"(#loc15))
#loc88 = loc("tmp0"(#loc16))
#loc89 = loc("tmp0"(#loc17))
#loc90 = loc("tmp0"(#loc18))
#loc91 = loc("tmp1"(#loc19))
#loc92 = loc("tmp2"(#loc20))
#loc93 = loc("tmp5"(#loc21))
#loc94 = loc("tmp5"(#loc22))
#loc95 = loc("tmp6"(#loc23))
#loc96 = loc("tmp7"(#loc24))
#loc97 = loc("tmp8"(#loc25))
#loc98 = loc("tmp9"(#loc26))
#loc99 = loc("tmp12"(#loc27))
#loc100 = loc("tmp12"(#loc28))
#loc101 = loc("tmp13"(#loc29))
#loc105 = loc("mask"(#loc41))
#loc106 = loc("mask"(#loc44))
#loc107 = loc("mask"(#loc45))
#loc113 = loc("mask"(#loc105))
#loc114 = loc("mask"(#loc107))
