#loc = loc("/root/Profiler/gpt2_optimized_inductor_debug/36/c36eckxyvs5uv7m4gdapp3osbim6u2z7ctdwtymchk2gomqew7ok.py":18:0)
#loc1 = loc(unknown)
#loc37 = loc("/root/Profiler/gpt2_optimized_inductor_debug/36/c36eckxyvs5uv7m4gdapp3osbim6u2z7ctdwtymchk2gomqew7ok.py":48:26)
#loc44 = loc("/root/Profiler/gpt2_optimized_inductor_debug/36/c36eckxyvs5uv7m4gdapp3osbim6u2z7ctdwtymchk2gomqew7ok.py":56:26)
#loc55 = loc("in_ptr0"(#loc))
#loc56 = loc("in_ptr1"(#loc))
#loc57 = loc("in_ptr2"(#loc))
#loc58 = loc("in_ptr3"(#loc))
#loc59 = loc("in_ptr4"(#loc))
#loc60 = loc("out_ptr2"(#loc))
#loc61 = loc("ks0"(#loc))
#loc62 = loc("xnumel"(#loc))
#loc63 = loc("r0_numel"(#loc))
#loc98 = loc("tmp12"(#loc37))
#loc104 = loc("tmp21"(#loc44))
#loc117 = loc(callsite(#loc1 at #loc98))
#loc119 = loc(callsite(#loc1 at #loc104))
module {
  tt.func public @triton_per_fused_add_native_layer_norm_view_6(%in_ptr0: !tt.ptr<bf16> {tt.divisibility = 16 : i32} loc("in_ptr0"(#loc)), %in_ptr1: !tt.ptr<bf16> {tt.divisibility = 16 : i32} loc("in_ptr1"(#loc)), %in_ptr2: !tt.ptr<bf16> {tt.divisibility = 16 : i32} loc("in_ptr2"(#loc)), %in_ptr3: !tt.ptr<bf16> {tt.divisibility = 16 : i32} loc("in_ptr3"(#loc)), %in_ptr4: !tt.ptr<bf16> {tt.divisibility = 16 : i32} loc("in_ptr4"(#loc)), %out_ptr2: !tt.ptr<bf16> {tt.divisibility = 16 : i32} loc("out_ptr2"(#loc)), %ks0: i64 loc("ks0"(#loc)), %xnumel: i32 {tt.divisibility = 16 : i32} loc("xnumel"(#loc)), %r0_numel: i32 {tt.divisibility = 16 : i32} loc("r0_numel"(#loc))) attributes {noinline = false} {
    %c768_i32 = arith.constant 768 : i32 loc(#loc1)
    %c128_i32 = arith.constant 128 : i32 loc(#loc1)
    %xmask = arith.constant 512 : i32 loc(#loc64)
    %cst = arith.constant dense<0.000000e+00> : tensor<1x1024xbf16> loc(#loc1)
    %tmp25 = arith.constant dense<9.99999974E-6> : tensor<1x1xf32> loc(#loc65)
    %cst_0 = arith.constant dense<7.680000e+02> : tensor<1x1xf32> loc(#loc1)
    %c768_i64 = arith.constant 768 : i64 loc(#loc1)
    %cst_1 = arith.constant dense<0.000000e+00> : tensor<1x1024xf32> loc(#loc1)
    %r0_mask = arith.constant dense<768> : tensor<1x1024xi32> loc(#loc66)
    %xoffset = tt.get_program_id x : i32 loc(#loc67)
    %xmask_2 = arith.cmpi slt, %xoffset, %xmask : i32 loc(#loc64)
    %r0_index = tt.make_range {end = 1024 : i32, start = 0 : i32} : tensor<1024xi32> loc(#loc68)
    %r0_index_3 = tt.expand_dims %r0_index {axis = 0 : i32} : tensor<1024xi32> -> tensor<1x1024xi32> loc(#loc69)
    %r0_mask_4 = arith.cmpi slt, %r0_index_3, %r0_mask : tensor<1x1024xi32> loc(#loc66)
    %x0 = arith.remsi %xoffset, %c128_i32 : i32 loc(#loc70)
    %x1 = arith.divsi %xoffset, %c128_i32 : i32 loc(#loc71)
    %tmp0 = arith.muli %xoffset, %c768_i32 : i32 loc(#loc72)
    %tmp0_5 = tt.splat %tmp0 : i32 -> tensor<1x1024xi32> loc(#loc112)
    %tmp0_6 = arith.addi %r0_index_3, %tmp0_5 : tensor<1x1024xi32> loc(#loc73)
    %tmp0_7 = tt.splat %in_ptr0 : !tt.ptr<bf16> -> tensor<1x1024x!tt.ptr<bf16>> loc(#loc74)
    %tmp0_8 = tt.addptr %tmp0_7, %tmp0_6 : tensor<1x1024x!tt.ptr<bf16>>, tensor<1x1024xi32> loc(#loc74)
    %tmp0_9 = tt.splat %xmask_2 : i1 -> tensor<1x1024xi1> loc(#loc113)
    %tmp0_10 = arith.andi %r0_mask_4, %tmp0_9 : tensor<1x1024xi1> loc(#loc75)
    %tmp0_11 = tt.load %tmp0_8, %tmp0_10, %cst : tensor<1x1024x!tt.ptr<bf16>> loc(#loc76)
    %tmp0_12 = arith.extf %tmp0_11 : tensor<1x1024xbf16> to tensor<1x1024xf32> loc(#loc77)
    %tmp1 = arith.muli %x0, %c768_i32 : i32 loc(#loc78)
    %tmp1_13 = tt.splat %tmp1 : i32 -> tensor<1x1024xi32> loc(#loc114)
    %tmp1_14 = arith.addi %r0_index_3, %tmp1_13 : tensor<1x1024xi32> loc(#loc79)
    %tmp1_15 = arith.muli %ks0, %c768_i64 : i64 loc(#loc80)
    %tmp1_16 = arith.extsi %x1 : i32 to i64 loc(#loc81)
    %tmp1_17 = arith.muli %tmp1_15, %tmp1_16 : i64 loc(#loc81)
    %tmp1_18 = arith.extsi %tmp1_14 : tensor<1x1024xi32> to tensor<1x1024xi64> loc(#loc82)
    %tmp1_19 = tt.splat %tmp1_17 : i64 -> tensor<1x1024xi64> loc(#loc115)
    %tmp1_20 = arith.addi %tmp1_18, %tmp1_19 : tensor<1x1024xi64> loc(#loc82)
    %tmp1_21 = tt.splat %in_ptr1 : !tt.ptr<bf16> -> tensor<1x1024x!tt.ptr<bf16>> loc(#loc83)
    %tmp1_22 = tt.addptr %tmp1_21, %tmp1_20 : tensor<1x1024x!tt.ptr<bf16>>, tensor<1x1024xi64> loc(#loc83)
    %tmp1_23 = tt.load %tmp1_22, %tmp0_10, %cst : tensor<1x1024x!tt.ptr<bf16>> loc(#loc84)
    %tmp1_24 = arith.extf %tmp1_23 : tensor<1x1024xbf16> to tensor<1x1024xf32> loc(#loc85)
    %tmp3 = tt.splat %in_ptr2 : !tt.ptr<bf16> -> tensor<1x1024x!tt.ptr<bf16>> loc(#loc86)
    %tmp3_25 = tt.addptr %tmp3, %tmp0_6 : tensor<1x1024x!tt.ptr<bf16>>, tensor<1x1024xi32> loc(#loc86)
    %tmp3_26 = tt.load %tmp3_25, %tmp0_10, %cst : tensor<1x1024x!tt.ptr<bf16>> loc(#loc87)
    %tmp3_27 = arith.extf %tmp3_26 : tensor<1x1024xbf16> to tensor<1x1024xf32> loc(#loc88)
    %tmp29 = tt.splat %in_ptr3 : !tt.ptr<bf16> -> tensor<1x1024x!tt.ptr<bf16>> loc(#loc89)
    %tmp29_28 = tt.addptr %tmp29, %r0_index_3 : tensor<1x1024x!tt.ptr<bf16>>, tensor<1x1024xi32> loc(#loc89)
    %tmp29_29 = tt.load %tmp29_28, %r0_mask_4, %cst evictionPolicy = evict_last : tensor<1x1024x!tt.ptr<bf16>> loc(#loc90)
    %tmp29_30 = arith.extf %tmp29_29 : tensor<1x1024xbf16> to tensor<1x1024xf32> loc(#loc91)
    %tmp32 = tt.splat %in_ptr4 : !tt.ptr<bf16> -> tensor<1x1024x!tt.ptr<bf16>> loc(#loc92)
    %tmp32_31 = tt.addptr %tmp32, %r0_index_3 : tensor<1x1024x!tt.ptr<bf16>>, tensor<1x1024xi32> loc(#loc92)
    %tmp32_32 = tt.load %tmp32_31, %r0_mask_4, %cst evictionPolicy = evict_last : tensor<1x1024x!tt.ptr<bf16>> loc(#loc93)
    %tmp32_33 = arith.extf %tmp32_32 : tensor<1x1024xbf16> to tensor<1x1024xf32> loc(#loc94)
    %tmp2 = arith.addf %tmp0_12, %tmp1_24 : tensor<1x1024xf32> loc(#loc95)
    %tmp4 = arith.addf %tmp2, %tmp3_27 : tensor<1x1024xf32> loc(#loc96)
    %tmp11 = arith.select %tmp0_10, %tmp4, %cst_1 : tensor<1x1024xi1>, tensor<1x1024xf32> loc(#loc97)
    %tmp12 = "tt.reduce"(%tmp11) <{axis = 1 : i32}> ({
    ^bb0(%tmp12_38: f32 loc(callsite(#loc1 at #loc98)), %tmp12_39: f32 loc(callsite(#loc1 at #loc98))):
      %tmp12_40 = arith.addf %tmp12_38, %tmp12_39 : f32 loc(#loc120)
      tt.reduce.return %tmp12_40 : f32 loc(#loc116)
    }) : (tensor<1x1024xf32>) -> tensor<1xf32> loc(#loc116)
    %tmp12_34 = tt.expand_dims %tmp12 {axis = 1 : i32} : tensor<1xf32> -> tensor<1x1xf32> loc(#loc99)
    %tmp15 = arith.divf %tmp12_34, %cst_0 : tensor<1x1xf32> loc(#loc100)
    %tmp16 = tt.broadcast %tmp15 : tensor<1x1xf32> -> tensor<1x1024xf32> loc(#loc101)
    %tmp16_35 = arith.subf %tmp4, %tmp16 : tensor<1x1024xf32> loc(#loc101)
    %tmp17 = arith.mulf %tmp16_35, %tmp16_35 : tensor<1x1024xf32> loc(#loc102)
    %tmp20 = arith.select %tmp0_10, %tmp17, %cst_1 : tensor<1x1024xi1>, tensor<1x1024xf32> loc(#loc103)
    %tmp21 = "tt.reduce"(%tmp20) <{axis = 1 : i32}> ({
    ^bb0(%tmp21_38: f32 loc(callsite(#loc1 at #loc104)), %tmp21_39: f32 loc(callsite(#loc1 at #loc104))):
      %tmp21_40 = arith.addf %tmp21_38, %tmp21_39 : f32 loc(#loc121)
      tt.reduce.return %tmp21_40 : f32 loc(#loc118)
    }) : (tensor<1x1024xf32>) -> tensor<1xf32> loc(#loc118)
    %tmp21_36 = tt.expand_dims %tmp21 {axis = 1 : i32} : tensor<1xf32> -> tensor<1x1xf32> loc(#loc105)
    %tmp24 = arith.divf %tmp21_36, %cst_0 : tensor<1x1xf32> loc(#loc106)
    %tmp26 = arith.addf %tmp24, %tmp25 : tensor<1x1xf32> loc(#loc107)
    %tmp27 = tt.extern_elementwise %tmp26 {libname = "", libpath = "", pure = true, symbol = "__nv_rsqrtf"} : (tensor<1x1xf32>) -> tensor<1x1xf32> loc(#loc108)
    %tmp28 = tt.broadcast %tmp27 : tensor<1x1xf32> -> tensor<1x1024xf32> loc(#loc109)
    %tmp28_37 = arith.mulf %tmp16_35, %tmp28 : tensor<1x1024xf32> loc(#loc109)
    %tmp31 = arith.mulf %tmp28_37, %tmp29_30 : tensor<1x1024xf32> loc(#loc110)
    %tmp34 = arith.addf %tmp31, %tmp32_33 : tensor<1x1024xf32> loc(#loc111)
    %0 = tt.splat %out_ptr2 : !tt.ptr<bf16> -> tensor<1x1024x!tt.ptr<bf16>> loc(#loc52)
    %1 = tt.addptr %0, %tmp1_20 : tensor<1x1024x!tt.ptr<bf16>>, tensor<1x1024xi64> loc(#loc52)
    %2 = arith.truncf %tmp34 : tensor<1x1024xf32> to tensor<1x1024xbf16> loc(#loc53)
    tt.store %1, %2, %tmp0_10 : tensor<1x1024x!tt.ptr<bf16>> loc(#loc53)
    tt.return loc(#loc54)
  } loc(#loc)
} loc(#loc)
#loc2 = loc("/root/Profiler/gpt2_optimized_inductor_debug/36/c36eckxyvs5uv7m4gdapp3osbim6u2z7ctdwtymchk2gomqew7ok.py":26:21)
#loc3 = loc("/root/Profiler/gpt2_optimized_inductor_debug/36/c36eckxyvs5uv7m4gdapp3osbim6u2z7ctdwtymchk2gomqew7ok.py":60:35)
#loc4 = loc("/root/Profiler/gpt2_optimized_inductor_debug/36/c36eckxyvs5uv7m4gdapp3osbim6u2z7ctdwtymchk2gomqew7ok.py":29:25)
#loc5 = loc("/root/Profiler/gpt2_optimized_inductor_debug/36/c36eckxyvs5uv7m4gdapp3osbim6u2z7ctdwtymchk2gomqew7ok.py":24:28)
#loc6 = loc("/root/Profiler/gpt2_optimized_inductor_debug/36/c36eckxyvs5uv7m4gdapp3osbim6u2z7ctdwtymchk2gomqew7ok.py":27:28)
#loc7 = loc("/root/Profiler/gpt2_optimized_inductor_debug/36/c36eckxyvs5uv7m4gdapp3osbim6u2z7ctdwtymchk2gomqew7ok.py":27:38)
#loc8 = loc("/root/Profiler/gpt2_optimized_inductor_debug/36/c36eckxyvs5uv7m4gdapp3osbim6u2z7ctdwtymchk2gomqew7ok.py":34:19)
#loc9 = loc("/root/Profiler/gpt2_optimized_inductor_debug/36/c36eckxyvs5uv7m4gdapp3osbim6u2z7ctdwtymchk2gomqew7ok.py":35:19)
#loc10 = loc("/root/Profiler/gpt2_optimized_inductor_debug/36/c36eckxyvs5uv7m4gdapp3osbim6u2z7ctdwtymchk2gomqew7ok.py":36:41)
#loc11 = loc("/root/Profiler/gpt2_optimized_inductor_debug/36/c36eckxyvs5uv7m4gdapp3osbim6u2z7ctdwtymchk2gomqew7ok.py":36:37)
#loc12 = loc("/root/Profiler/gpt2_optimized_inductor_debug/36/c36eckxyvs5uv7m4gdapp3osbim6u2z7ctdwtymchk2gomqew7ok.py":36:30)
#loc13 = loc("/root/Profiler/gpt2_optimized_inductor_debug/36/c36eckxyvs5uv7m4gdapp3osbim6u2z7ctdwtymchk2gomqew7ok.py":36:56)
#loc14 = loc("/root/Profiler/gpt2_optimized_inductor_debug/36/c36eckxyvs5uv7m4gdapp3osbim6u2z7ctdwtymchk2gomqew7ok.py":36:46)
#loc15 = loc("/root/Profiler/gpt2_optimized_inductor_debug/36/c36eckxyvs5uv7m4gdapp3osbim6u2z7ctdwtymchk2gomqew7ok.py":36:77)
#loc16 = loc("/root/Profiler/gpt2_optimized_inductor_debug/36/c36eckxyvs5uv7m4gdapp3osbim6u2z7ctdwtymchk2gomqew7ok.py":37:41)
#loc17 = loc("/root/Profiler/gpt2_optimized_inductor_debug/36/c36eckxyvs5uv7m4gdapp3osbim6u2z7ctdwtymchk2gomqew7ok.py":37:37)
#loc18 = loc("/root/Profiler/gpt2_optimized_inductor_debug/36/c36eckxyvs5uv7m4gdapp3osbim6u2z7ctdwtymchk2gomqew7ok.py":37:50)
#loc19 = loc("/root/Profiler/gpt2_optimized_inductor_debug/36/c36eckxyvs5uv7m4gdapp3osbim6u2z7ctdwtymchk2gomqew7ok.py":37:54)
#loc20 = loc("/root/Profiler/gpt2_optimized_inductor_debug/36/c36eckxyvs5uv7m4gdapp3osbim6u2z7ctdwtymchk2gomqew7ok.py":37:46)
#loc21 = loc("/root/Profiler/gpt2_optimized_inductor_debug/36/c36eckxyvs5uv7m4gdapp3osbim6u2z7ctdwtymchk2gomqew7ok.py":37:30)
#loc22 = loc("/root/Profiler/gpt2_optimized_inductor_debug/36/c36eckxyvs5uv7m4gdapp3osbim6u2z7ctdwtymchk2gomqew7ok.py":37:59)
#loc23 = loc("/root/Profiler/gpt2_optimized_inductor_debug/36/c36eckxyvs5uv7m4gdapp3osbim6u2z7ctdwtymchk2gomqew7ok.py":37:90)
#loc24 = loc("/root/Profiler/gpt2_optimized_inductor_debug/36/c36eckxyvs5uv7m4gdapp3osbim6u2z7ctdwtymchk2gomqew7ok.py":38:30)
#loc25 = loc("/root/Profiler/gpt2_optimized_inductor_debug/36/c36eckxyvs5uv7m4gdapp3osbim6u2z7ctdwtymchk2gomqew7ok.py":38:46)
#loc26 = loc("/root/Profiler/gpt2_optimized_inductor_debug/36/c36eckxyvs5uv7m4gdapp3osbim6u2z7ctdwtymchk2gomqew7ok.py":38:77)
#loc27 = loc("/root/Profiler/gpt2_optimized_inductor_debug/36/c36eckxyvs5uv7m4gdapp3osbim6u2z7ctdwtymchk2gomqew7ok.py":39:31)
#loc28 = loc("/root/Profiler/gpt2_optimized_inductor_debug/36/c36eckxyvs5uv7m4gdapp3osbim6u2z7ctdwtymchk2gomqew7ok.py":39:38)
#loc29 = loc("/root/Profiler/gpt2_optimized_inductor_debug/36/c36eckxyvs5uv7m4gdapp3osbim6u2z7ctdwtymchk2gomqew7ok.py":39:91)
#loc30 = loc("/root/Profiler/gpt2_optimized_inductor_debug/36/c36eckxyvs5uv7m4gdapp3osbim6u2z7ctdwtymchk2gomqew7ok.py":40:31)
#loc31 = loc("/root/Profiler/gpt2_optimized_inductor_debug/36/c36eckxyvs5uv7m4gdapp3osbim6u2z7ctdwtymchk2gomqew7ok.py":40:38)
#loc32 = loc("/root/Profiler/gpt2_optimized_inductor_debug/36/c36eckxyvs5uv7m4gdapp3osbim6u2z7ctdwtymchk2gomqew7ok.py":40:91)
#loc33 = loc("/root/Profiler/gpt2_optimized_inductor_debug/36/c36eckxyvs5uv7m4gdapp3osbim6u2z7ctdwtymchk2gomqew7ok.py":41:18)
#loc34 = loc("/root/Profiler/gpt2_optimized_inductor_debug/36/c36eckxyvs5uv7m4gdapp3osbim6u2z7ctdwtymchk2gomqew7ok.py":42:18)
#loc35 = loc("/root/Profiler/gpt2_optimized_inductor_debug/36/c36eckxyvs5uv7m4gdapp3osbim6u2z7ctdwtymchk2gomqew7ok.py":47:44)
#loc36 = loc("/usr/local/lib/python3.10/dist-packages/triton/language/standard.py":293:36)
#loc38 = loc("/usr/local/lib/python3.10/dist-packages/triton/language/standard.py":263:15)
#loc39 = loc("/root/Profiler/gpt2_optimized_inductor_debug/36/c36eckxyvs5uv7m4gdapp3osbim6u2z7ctdwtymchk2gomqew7ok.py":48:29)
#loc40 = loc("/root/Profiler/gpt2_optimized_inductor_debug/36/c36eckxyvs5uv7m4gdapp3osbim6u2z7ctdwtymchk2gomqew7ok.py":51:21)
#loc41 = loc("/root/Profiler/gpt2_optimized_inductor_debug/36/c36eckxyvs5uv7m4gdapp3osbim6u2z7ctdwtymchk2gomqew7ok.py":52:19)
#loc42 = loc("/root/Profiler/gpt2_optimized_inductor_debug/36/c36eckxyvs5uv7m4gdapp3osbim6u2z7ctdwtymchk2gomqew7ok.py":53:20)
#loc43 = loc("/root/Profiler/gpt2_optimized_inductor_debug/36/c36eckxyvs5uv7m4gdapp3osbim6u2z7ctdwtymchk2gomqew7ok.py":55:45)
#loc45 = loc("/root/Profiler/gpt2_optimized_inductor_debug/36/c36eckxyvs5uv7m4gdapp3osbim6u2z7ctdwtymchk2gomqew7ok.py":56:29)
#loc46 = loc("/root/Profiler/gpt2_optimized_inductor_debug/36/c36eckxyvs5uv7m4gdapp3osbim6u2z7ctdwtymchk2gomqew7ok.py":59:21)
#loc47 = loc("/root/Profiler/gpt2_optimized_inductor_debug/36/c36eckxyvs5uv7m4gdapp3osbim6u2z7ctdwtymchk2gomqew7ok.py":61:20)
#loc48 = loc("/root/Profiler/gpt2_optimized_inductor_debug/36/c36eckxyvs5uv7m4gdapp3osbim6u2z7ctdwtymchk2gomqew7ok.py":62:28)
#loc49 = loc("/root/Profiler/gpt2_optimized_inductor_debug/36/c36eckxyvs5uv7m4gdapp3osbim6u2z7ctdwtymchk2gomqew7ok.py":63:20)
#loc50 = loc("/root/Profiler/gpt2_optimized_inductor_debug/36/c36eckxyvs5uv7m4gdapp3osbim6u2z7ctdwtymchk2gomqew7ok.py":65:20)
#loc51 = loc("/root/Profiler/gpt2_optimized_inductor_debug/36/c36eckxyvs5uv7m4gdapp3osbim6u2z7ctdwtymchk2gomqew7ok.py":67:20)
#loc52 = loc("/root/Profiler/gpt2_optimized_inductor_debug/36/c36eckxyvs5uv7m4gdapp3osbim6u2z7ctdwtymchk2gomqew7ok.py":69:25)
#loc53 = loc("/root/Profiler/gpt2_optimized_inductor_debug/36/c36eckxyvs5uv7m4gdapp3osbim6u2z7ctdwtymchk2gomqew7ok.py":69:61)
#loc54 = loc("/root/Profiler/gpt2_optimized_inductor_debug/36/c36eckxyvs5uv7m4gdapp3osbim6u2z7ctdwtymchk2gomqew7ok.py":69:4)
#loc64 = loc("xmask"(#loc2))
#loc65 = loc("tmp25"(#loc3))
#loc66 = loc("r0_mask"(#loc4))
#loc67 = loc("xoffset"(#loc5))
#loc68 = loc("r0_index"(#loc6))
#loc69 = loc("r0_index"(#loc7))
#loc70 = loc("x0"(#loc8))
#loc71 = loc("x1"(#loc9))
#loc72 = loc("tmp0"(#loc10))
#loc73 = loc("tmp0"(#loc11))
#loc74 = loc("tmp0"(#loc12))
#loc75 = loc("tmp0"(#loc13))
#loc76 = loc("tmp0"(#loc14))
#loc77 = loc("tmp0"(#loc15))
#loc78 = loc("tmp1"(#loc16))
#loc79 = loc("tmp1"(#loc17))
#loc80 = loc("tmp1"(#loc18))
#loc81 = loc("tmp1"(#loc19))
#loc82 = loc("tmp1"(#loc20))
#loc83 = loc("tmp1"(#loc21))
#loc84 = loc("tmp1"(#loc22))
#loc85 = loc("tmp1"(#loc23))
#loc86 = loc("tmp3"(#loc24))
#loc87 = loc("tmp3"(#loc25))
#loc88 = loc("tmp3"(#loc26))
#loc89 = loc("tmp29"(#loc27))
#loc90 = loc("tmp29"(#loc28))
#loc91 = loc("tmp29"(#loc29))
#loc92 = loc("tmp32"(#loc30))
#loc93 = loc("tmp32"(#loc31))
#loc94 = loc("tmp32"(#loc32))
#loc95 = loc("tmp2"(#loc33))
#loc96 = loc("tmp4"(#loc34))
#loc97 = loc("tmp11"(#loc35))
#loc99 = loc("tmp12"(#loc39))
#loc100 = loc("tmp15"(#loc40))
#loc101 = loc("tmp16"(#loc41))
#loc102 = loc("tmp17"(#loc42))
#loc103 = loc("tmp20"(#loc43))
#loc105 = loc("tmp21"(#loc45))
#loc106 = loc("tmp24"(#loc46))
#loc107 = loc("tmp26"(#loc47))
#loc108 = loc("tmp27"(#loc48))
#loc109 = loc("tmp28"(#loc49))
#loc110 = loc("tmp31"(#loc50))
#loc111 = loc("tmp34"(#loc51))
#loc112 = loc(fused[#loc73, #loc72])
#loc113 = loc(fused[#loc75, #loc64])
#loc114 = loc(fused[#loc79, #loc78])
#loc115 = loc(fused[#loc82, #loc81])
#loc116 = loc(callsite(#loc36 at #loc98))
#loc118 = loc(callsite(#loc36 at #loc104))
#loc120 = loc(callsite(#loc38 at #loc116))
#loc121 = loc(callsite(#loc38 at #loc118))
