#loc = loc("/root/Profiler/gpt2_optimized_inductor_debug/36/c36eckxyvs5uv7m4gdapp3osbim6u2z7ctdwtymchk2gomqew7ok.py":18:0)
#loc77 = loc("/usr/local/lib/python3.10/dist-packages/triton/language/standard.py":287:0)
#loc79 = loc(unknown)
#loc82 = loc("/usr/local/lib/python3.10/dist-packages/triton/language/standard.py":262:0)
#loc86 = loc("in_ptr0"(#loc))
#loc87 = loc("in_ptr1"(#loc))
#loc88 = loc("in_ptr2"(#loc))
#loc89 = loc("in_ptr3"(#loc))
#loc90 = loc("in_ptr4"(#loc))
#loc91 = loc("out_ptr2"(#loc))
#loc92 = loc("ks0"(#loc))
#loc93 = loc("xnumel"(#loc))
#loc94 = loc("r0_numel"(#loc))
#loc162 = loc("input"(#loc77))
#loc163 = loc("a"(#loc82))
#loc164 = loc("b"(#loc82))
module {
  tt.func public @triton_per_fused_add_native_layer_norm_view_6(%in_ptr0: !tt.ptr<bf16> {tt.divisibility = 16 : i32} loc("in_ptr0"(#loc)), %in_ptr1: !tt.ptr<bf16> {tt.divisibility = 16 : i32} loc("in_ptr1"(#loc)), %in_ptr2: !tt.ptr<bf16> {tt.divisibility = 16 : i32} loc("in_ptr2"(#loc)), %in_ptr3: !tt.ptr<bf16> {tt.divisibility = 16 : i32} loc("in_ptr3"(#loc)), %in_ptr4: !tt.ptr<bf16> {tt.divisibility = 16 : i32} loc("in_ptr4"(#loc)), %out_ptr2: !tt.ptr<bf16> {tt.divisibility = 16 : i32} loc("out_ptr2"(#loc)), %ks0: i64 loc("ks0"(#loc)), %xnumel: i32 {tt.divisibility = 16 : i32} loc("xnumel"(#loc)), %r0_numel: i32 {tt.divisibility = 16 : i32} loc("r0_numel"(#loc))) attributes {noinline = false} {
    %xnumel_0 = arith.constant 512 : i32 loc(#loc95)
    %r0_numel_1 = arith.constant 768 : i32 loc(#loc96)
    %xoffset = tt.get_program_id x : i32 loc(#loc97)
    %xoffset_2 = arith.constant 1 : i32 loc(#loc98)
    %xoffset_3 = arith.constant 1 : i32 loc(#loc98)
    %xoffset_4 = arith.muli %xoffset, %xoffset_3 : i32 loc(#loc98)
    %xindex = tt.make_range {end = 1 : i32, start = 0 : i32} : tensor<1xi32> loc(#loc99)
    %xindex_5 = tt.expand_dims %xindex {axis = 1 : i32} : tensor<1xi32> -> tensor<1x1xi32> loc(#loc100)
    %xindex_6 = tt.splat %xoffset_4 : i32 -> tensor<1x1xi32> loc(#loc101)
    %xindex_7 = arith.addi %xindex_6, %xindex_5 : tensor<1x1xi32> loc(#loc101)
    %xmask = arith.constant dense<512> : tensor<1x1xi32> loc(#loc102)
    %xmask_8 = arith.cmpi slt, %xindex_7, %xmask : tensor<1x1xi32> loc(#loc102)
    %r0_index = tt.make_range {end = 1024 : i32, start = 0 : i32} : tensor<1024xi32> loc(#loc103)
    %r0_index_9 = tt.expand_dims %r0_index {axis = 0 : i32} : tensor<1024xi32> -> tensor<1x1024xi32> loc(#loc104)
    %r0_offset = arith.constant 0 : i32 loc(#loc105)
    %r0_mask = arith.constant dense<768> : tensor<1x1024xi32> loc(#loc106)
    %r0_mask_10 = arith.cmpi slt, %r0_index_9, %r0_mask : tensor<1x1024xi32> loc(#loc106)
    %x0 = arith.constant 128 : i32 loc(#loc107)
    %x0_11 = arith.constant 128 : i32 loc(#loc107)
    %x0_12 = arith.constant dense<128> : tensor<1x1xi32> loc(#loc107)
    %x0_13 = arith.remsi %xindex_7, %x0_12 : tensor<1x1xi32> loc(#loc107)
    %x1 = arith.constant 128 : i32 loc(#loc108)
    %x1_14 = arith.constant 128 : i32 loc(#loc108)
    %x1_15 = arith.constant dense<128> : tensor<1x1xi32> loc(#loc108)
    %x1_16 = arith.divsi %xindex_7, %x1_15 : tensor<1x1xi32> loc(#loc108)
    %tmp0 = arith.constant 768 : i32 loc(#loc109)
    %tmp0_17 = arith.constant 768 : i32 loc(#loc109)
    %tmp0_18 = arith.constant dense<768> : tensor<1x1xi32> loc(#loc109)
    %tmp0_19 = arith.muli %tmp0_18, %xindex_7 : tensor<1x1xi32> loc(#loc109)
    %tmp0_20 = tt.broadcast %tmp0_19 : tensor<1x1xi32> -> tensor<1x1024xi32> loc(#loc110)
    %tmp0_21 = arith.addi %r0_index_9, %tmp0_20 : tensor<1x1024xi32> loc(#loc110)
    %tmp0_22 = tt.splat %in_ptr0 : !tt.ptr<bf16> -> tensor<1x1024x!tt.ptr<bf16>> loc(#loc111)
    %tmp0_23 = tt.addptr %tmp0_22, %tmp0_21 : tensor<1x1024x!tt.ptr<bf16>>, tensor<1x1024xi32> loc(#loc111)
    %tmp0_24 = tt.broadcast %xmask_8 : tensor<1x1xi1> -> tensor<1x1024xi1> loc(#loc112)
    %tmp0_25 = arith.andi %r0_mask_10, %tmp0_24 : tensor<1x1024xi1> loc(#loc112)
    %tmp0_26 = arith.constant 0.000000e+00 : f32 loc(#loc113)
    %tmp0_27 = arith.constant dense<0.000000e+00> : tensor<1x1024xf32> loc(#loc113)
    %tmp0_28 = arith.truncf %tmp0_27 : tensor<1x1024xf32> to tensor<1x1024xbf16> loc(#loc113)
    %tmp0_29 = tt.load %tmp0_23, %tmp0_25, %tmp0_28 : tensor<1x1024x!tt.ptr<bf16>> loc(#loc113)
    %tmp0_30 = arith.extf %tmp0_29 : tensor<1x1024xbf16> to tensor<1x1024xf32> loc(#loc114)
    %tmp1 = arith.constant 768 : i32 loc(#loc115)
    %tmp1_31 = arith.constant 768 : i32 loc(#loc115)
    %tmp1_32 = arith.constant dense<768> : tensor<1x1xi32> loc(#loc115)
    %tmp1_33 = arith.muli %tmp1_32, %x0_13 : tensor<1x1xi32> loc(#loc115)
    %tmp1_34 = tt.broadcast %tmp1_33 : tensor<1x1xi32> -> tensor<1x1024xi32> loc(#loc116)
    %tmp1_35 = arith.addi %r0_index_9, %tmp1_34 : tensor<1x1024xi32> loc(#loc116)
    %tmp1_36 = arith.constant 768 : i32 loc(#loc117)
    %tmp1_37 = arith.constant 768 : i64 loc(#loc117)
    %tmp1_38 = arith.muli %tmp1_37, %ks0 : i64 loc(#loc117)
    %tmp1_39 = arith.extsi %x1_16 : tensor<1x1xi32> to tensor<1x1xi64> loc(#loc118)
    %tmp1_40 = tt.splat %tmp1_38 : i64 -> tensor<1x1xi64> loc(#loc118)
    %tmp1_41 = arith.muli %tmp1_40, %tmp1_39 : tensor<1x1xi64> loc(#loc118)
    %tmp1_42 = arith.extsi %tmp1_35 : tensor<1x1024xi32> to tensor<1x1024xi64> loc(#loc119)
    %tmp1_43 = tt.broadcast %tmp1_41 : tensor<1x1xi64> -> tensor<1x1024xi64> loc(#loc119)
    %tmp1_44 = arith.addi %tmp1_42, %tmp1_43 : tensor<1x1024xi64> loc(#loc119)
    %tmp1_45 = tt.splat %in_ptr1 : !tt.ptr<bf16> -> tensor<1x1024x!tt.ptr<bf16>> loc(#loc120)
    %tmp1_46 = tt.addptr %tmp1_45, %tmp1_44 : tensor<1x1024x!tt.ptr<bf16>>, tensor<1x1024xi64> loc(#loc120)
    %tmp1_47 = tt.broadcast %xmask_8 : tensor<1x1xi1> -> tensor<1x1024xi1> loc(#loc121)
    %tmp1_48 = arith.andi %r0_mask_10, %tmp1_47 : tensor<1x1024xi1> loc(#loc121)
    %tmp1_49 = arith.constant 0.000000e+00 : f32 loc(#loc122)
    %tmp1_50 = arith.constant dense<0.000000e+00> : tensor<1x1024xf32> loc(#loc122)
    %tmp1_51 = arith.truncf %tmp1_50 : tensor<1x1024xf32> to tensor<1x1024xbf16> loc(#loc122)
    %tmp1_52 = tt.load %tmp1_46, %tmp1_48, %tmp1_51 : tensor<1x1024x!tt.ptr<bf16>> loc(#loc122)
    %tmp1_53 = arith.extf %tmp1_52 : tensor<1x1024xbf16> to tensor<1x1024xf32> loc(#loc123)
    %tmp3 = arith.constant 768 : i32 loc(#loc124)
    %tmp3_54 = arith.constant 768 : i32 loc(#loc124)
    %tmp3_55 = arith.constant dense<768> : tensor<1x1xi32> loc(#loc124)
    %tmp3_56 = arith.muli %tmp3_55, %xindex_7 : tensor<1x1xi32> loc(#loc124)
    %tmp3_57 = tt.broadcast %tmp3_56 : tensor<1x1xi32> -> tensor<1x1024xi32> loc(#loc125)
    %tmp3_58 = arith.addi %r0_index_9, %tmp3_57 : tensor<1x1024xi32> loc(#loc125)
    %tmp3_59 = tt.splat %in_ptr2 : !tt.ptr<bf16> -> tensor<1x1024x!tt.ptr<bf16>> loc(#loc126)
    %tmp3_60 = tt.addptr %tmp3_59, %tmp3_58 : tensor<1x1024x!tt.ptr<bf16>>, tensor<1x1024xi32> loc(#loc126)
    %tmp3_61 = tt.broadcast %xmask_8 : tensor<1x1xi1> -> tensor<1x1024xi1> loc(#loc127)
    %tmp3_62 = arith.andi %r0_mask_10, %tmp3_61 : tensor<1x1024xi1> loc(#loc127)
    %tmp3_63 = arith.constant 0.000000e+00 : f32 loc(#loc128)
    %tmp3_64 = arith.constant dense<0.000000e+00> : tensor<1x1024xf32> loc(#loc128)
    %tmp3_65 = arith.truncf %tmp3_64 : tensor<1x1024xf32> to tensor<1x1024xbf16> loc(#loc128)
    %tmp3_66 = tt.load %tmp3_60, %tmp3_62, %tmp3_65 : tensor<1x1024x!tt.ptr<bf16>> loc(#loc128)
    %tmp3_67 = arith.extf %tmp3_66 : tensor<1x1024xbf16> to tensor<1x1024xf32> loc(#loc129)
    %tmp29 = tt.splat %in_ptr3 : !tt.ptr<bf16> -> tensor<1x1024x!tt.ptr<bf16>> loc(#loc130)
    %tmp29_68 = tt.addptr %tmp29, %r0_index_9 : tensor<1x1024x!tt.ptr<bf16>>, tensor<1x1024xi32> loc(#loc130)
    %tmp29_69 = arith.constant 0.000000e+00 : f32 loc(#loc131)
    %tmp29_70 = arith.constant dense<0.000000e+00> : tensor<1x1024xf32> loc(#loc131)
    %tmp29_71 = arith.truncf %tmp29_70 : tensor<1x1024xf32> to tensor<1x1024xbf16> loc(#loc131)
    %tmp29_72 = tt.load %tmp29_68, %r0_mask_10, %tmp29_71 evictionPolicy = evict_last : tensor<1x1024x!tt.ptr<bf16>> loc(#loc131)
    %tmp29_73 = arith.extf %tmp29_72 : tensor<1x1024xbf16> to tensor<1x1024xf32> loc(#loc132)
    %tmp32 = tt.splat %in_ptr4 : !tt.ptr<bf16> -> tensor<1x1024x!tt.ptr<bf16>> loc(#loc133)
    %tmp32_74 = tt.addptr %tmp32, %r0_index_9 : tensor<1x1024x!tt.ptr<bf16>>, tensor<1x1024xi32> loc(#loc133)
    %tmp32_75 = arith.constant 0.000000e+00 : f32 loc(#loc134)
    %tmp32_76 = arith.constant dense<0.000000e+00> : tensor<1x1024xf32> loc(#loc134)
    %tmp32_77 = arith.truncf %tmp32_76 : tensor<1x1024xf32> to tensor<1x1024xbf16> loc(#loc134)
    %tmp32_78 = tt.load %tmp32_74, %r0_mask_10, %tmp32_77 evictionPolicy = evict_last : tensor<1x1024x!tt.ptr<bf16>> loc(#loc134)
    %tmp32_79 = arith.extf %tmp32_78 : tensor<1x1024xbf16> to tensor<1x1024xf32> loc(#loc135)
    %tmp2 = arith.addf %tmp0_30, %tmp1_53 : tensor<1x1024xf32> loc(#loc136)
    %tmp4 = arith.addf %tmp2, %tmp3_67 : tensor<1x1024xf32> loc(#loc137)
    %tmp8 = tt.broadcast %xmask_8 : tensor<1x1xi1> -> tensor<1x1024xi1> loc(#loc138)
    %tmp8_80 = arith.andi %r0_mask_10, %tmp8 : tensor<1x1024xi1> loc(#loc138)
    %tmp8_81 = arith.constant 0 : i32 loc(#loc139)
    %tmp8_82 = arith.constant 0.000000e+00 : f32 loc(#loc139)
    %tmp8_83 = arith.constant dense<0.000000e+00> : tensor<1x1024xf32> loc(#loc139)
    %tmp8_84 = arith.select %tmp8_80, %tmp4, %tmp8_83 : tensor<1x1024xi1>, tensor<1x1024xf32> loc(#loc139)
    %tmp11 = tt.broadcast %xmask_8 : tensor<1x1xi1> -> tensor<1x1024xi1> loc(#loc140)
    %tmp11_85 = arith.andi %r0_mask_10, %tmp11 : tensor<1x1024xi1> loc(#loc140)
    %tmp11_86 = arith.constant 0 : i32 loc(#loc141)
    %tmp11_87 = arith.constant 0.000000e+00 : f32 loc(#loc141)
    %tmp11_88 = arith.constant dense<0.000000e+00> : tensor<1x1024xf32> loc(#loc141)
    %tmp11_89 = arith.select %tmp11_85, %tmp4, %tmp11_88 : tensor<1x1024xi1>, tensor<1x1024xf32> loc(#loc141)
    %tmp12 = tt.call @"triton.language.standard.sum__fp32S1_1024S__(1,)cconstexpr_1__(2,)cconstexpr_False__(3,)cNone"(%tmp11_89) : (tensor<1x1024xf32>) -> tensor<1xf32> loc(#loc142)
    %tmp12_90 = tt.expand_dims %tmp12 {axis = 1 : i32} : tensor<1xf32> -> tensor<1x1xf32> loc(#loc143)
    %tmp13 = arith.constant 768 : i32 loc(#loc144)
    %tmp13_91 = arith.constant dense<768> : tensor<1x1xi32> loc(#loc144)
    %tmp14 = arith.sitofp %tmp13_91 : tensor<1x1xi32> to tensor<1x1xf32> loc(#loc145)
    %tmp15 = arith.divf %tmp12_90, %tmp14 : tensor<1x1xf32> loc(#loc146)
    %tmp16 = tt.broadcast %tmp15 : tensor<1x1xf32> -> tensor<1x1024xf32> loc(#loc147)
    %tmp16_92 = arith.subf %tmp4, %tmp16 : tensor<1x1024xf32> loc(#loc147)
    %tmp17 = arith.mulf %tmp16_92, %tmp16_92 : tensor<1x1024xf32> loc(#loc148)
    %tmp20 = tt.broadcast %xmask_8 : tensor<1x1xi1> -> tensor<1x1024xi1> loc(#loc149)
    %tmp20_93 = arith.andi %r0_mask_10, %tmp20 : tensor<1x1024xi1> loc(#loc149)
    %tmp20_94 = arith.constant 0 : i32 loc(#loc150)
    %tmp20_95 = arith.constant 0.000000e+00 : f32 loc(#loc150)
    %tmp20_96 = arith.constant dense<0.000000e+00> : tensor<1x1024xf32> loc(#loc150)
    %tmp20_97 = arith.select %tmp20_93, %tmp17, %tmp20_96 : tensor<1x1024xi1>, tensor<1x1024xf32> loc(#loc150)
    %tmp21 = tt.call @"triton.language.standard.sum__fp32S1_1024S__(1,)cconstexpr_1__(2,)cconstexpr_False__(3,)cNone"(%tmp20_97) : (tensor<1x1024xf32>) -> tensor<1xf32> loc(#loc151)
    %tmp21_98 = tt.expand_dims %tmp21 {axis = 1 : i32} : tensor<1xf32> -> tensor<1x1xf32> loc(#loc152)
    %tmp22 = tt.broadcast %tmp15 : tensor<1x1xf32> -> tensor<1x1024xf32> loc(#loc153)
    %tmp22_99 = arith.subf %tmp4, %tmp22 : tensor<1x1024xf32> loc(#loc153)
    %tmp23 = arith.constant 7.680000e+02 : f32 loc(#loc154)
    %tmp23_100 = arith.constant dense<7.680000e+02> : tensor<1x1xf32> loc(#loc154)
    %tmp24 = arith.divf %tmp21_98, %tmp23_100 : tensor<1x1xf32> loc(#loc155)
    %tmp25 = arith.constant 9.99999974E-6 : f32 loc(#loc156)
    %tmp25_101 = arith.constant dense<9.99999974E-6> : tensor<1x1xf32> loc(#loc156)
    %tmp26 = arith.addf %tmp24, %tmp25_101 : tensor<1x1xf32> loc(#loc157)
    %tmp27 = tt.extern_elementwise %tmp26 {libname = "", libpath = "", pure = true, symbol = "__nv_rsqrtf"} : (tensor<1x1xf32>) -> tensor<1x1xf32> loc(#loc158)
    %tmp28 = tt.broadcast %tmp27 : tensor<1x1xf32> -> tensor<1x1024xf32> loc(#loc159)
    %tmp28_102 = arith.mulf %tmp22_99, %tmp28 : tensor<1x1024xf32> loc(#loc159)
    %tmp31 = arith.mulf %tmp28_102, %tmp29_73 : tensor<1x1024xf32> loc(#loc160)
    %tmp34 = arith.addf %tmp31, %tmp32_79 : tensor<1x1024xf32> loc(#loc161)
    %c768_i32 = arith.constant 768 : i32 loc(#loc68)
    %c768_i32_103 = arith.constant 768 : i32 loc(#loc68)
    %cst = arith.constant dense<768> : tensor<1x1xi32> loc(#loc68)
    %0 = arith.muli %cst, %x0_13 : tensor<1x1xi32> loc(#loc68)
    %1 = tt.broadcast %0 : tensor<1x1xi32> -> tensor<1x1024xi32> loc(#loc69)
    %2 = arith.addi %r0_index_9, %1 : tensor<1x1024xi32> loc(#loc69)
    %c768_i32_104 = arith.constant 768 : i32 loc(#loc70)
    %c768_i64 = arith.constant 768 : i64 loc(#loc70)
    %3 = arith.muli %c768_i64, %ks0 : i64 loc(#loc70)
    %4 = arith.extsi %x1_16 : tensor<1x1xi32> to tensor<1x1xi64> loc(#loc71)
    %5 = tt.splat %3 : i64 -> tensor<1x1xi64> loc(#loc71)
    %6 = arith.muli %5, %4 : tensor<1x1xi64> loc(#loc71)
    %7 = arith.extsi %2 : tensor<1x1024xi32> to tensor<1x1024xi64> loc(#loc72)
    %8 = tt.broadcast %6 : tensor<1x1xi64> -> tensor<1x1024xi64> loc(#loc72)
    %9 = arith.addi %7, %8 : tensor<1x1024xi64> loc(#loc72)
    %10 = tt.splat %out_ptr2 : !tt.ptr<bf16> -> tensor<1x1024x!tt.ptr<bf16>> loc(#loc73)
    %11 = tt.addptr %10, %9 : tensor<1x1024x!tt.ptr<bf16>>, tensor<1x1024xi64> loc(#loc73)
    %12 = tt.broadcast %xmask_8 : tensor<1x1xi1> -> tensor<1x1024xi1> loc(#loc74)
    %13 = arith.andi %r0_mask_10, %12 : tensor<1x1024xi1> loc(#loc74)
    %14 = arith.truncf %tmp34 : tensor<1x1024xf32> to tensor<1x1024xbf16> loc(#loc75)
    tt.store %11, %14, %13 : tensor<1x1024x!tt.ptr<bf16>> loc(#loc75)
    tt.return loc(#loc76)
  } loc(#loc)
  tt.func private @"triton.language.standard.sum__fp32S1_1024S__(1,)cconstexpr_1__(2,)cconstexpr_False__(3,)cNone"(%input: tensor<1x1024xf32> loc("input"(#loc77))) -> tensor<1xf32> attributes {noinline = false} {
    %0 = "tt.reduce"(%input) <{axis = 1 : i32}> ({
    ^bb0(%arg1: f32 loc(unknown), %arg2: f32 loc(unknown)):
      %2 = tt.call @triton.language.standard._sum_combine__fp32_fp32__(%arg1, %arg2) : (f32, f32) -> f32 loc(#loc78)
      tt.reduce.return %2 : f32 loc(#loc78)
    }) : (tensor<1x1024xf32>) -> tensor<1xf32> loc(#loc78)
    tt.return %0 : tensor<1xf32> loc(#loc80)
  ^bb1:  // no predecessors
    %1 = ub.poison : tensor<1xf32> loc(#loc81)
    tt.return %1 : tensor<1xf32> loc(#loc81)
  } loc(#loc77)
  tt.func private @triton.language.standard._sum_combine__fp32_fp32__(%a: f32 loc("a"(#loc82)), %b: f32 loc("b"(#loc82))) -> f32 attributes {noinline = false} {
    %0 = arith.addf %a, %b : f32 loc(#loc83)
    tt.return %0 : f32 loc(#loc84)
  ^bb1:  // no predecessors
    %1 = ub.poison : f32 loc(#loc85)
    tt.return %1 : f32 loc(#loc85)
  } loc(#loc82)
} loc(#loc)
#loc1 = loc("/root/Profiler/gpt2_optimized_inductor_debug/36/c36eckxyvs5uv7m4gdapp3osbim6u2z7ctdwtymchk2gomqew7ok.py":19:13)
#loc2 = loc("/root/Profiler/gpt2_optimized_inductor_debug/36/c36eckxyvs5uv7m4gdapp3osbim6u2z7ctdwtymchk2gomqew7ok.py":20:15)
#loc3 = loc("/root/Profiler/gpt2_optimized_inductor_debug/36/c36eckxyvs5uv7m4gdapp3osbim6u2z7ctdwtymchk2gomqew7ok.py":24:28)
#loc4 = loc("/root/Profiler/gpt2_optimized_inductor_debug/36/c36eckxyvs5uv7m4gdapp3osbim6u2z7ctdwtymchk2gomqew7ok.py":24:33)
#loc5 = loc("/root/Profiler/gpt2_optimized_inductor_debug/36/c36eckxyvs5uv7m4gdapp3osbim6u2z7ctdwtymchk2gomqew7ok.py":25:36)
#loc6 = loc("/root/Profiler/gpt2_optimized_inductor_debug/36/c36eckxyvs5uv7m4gdapp3osbim6u2z7ctdwtymchk2gomqew7ok.py":25:44)
#loc7 = loc("/root/Profiler/gpt2_optimized_inductor_debug/36/c36eckxyvs5uv7m4gdapp3osbim6u2z7ctdwtymchk2gomqew7ok.py":25:23)
#loc8 = loc("/root/Profiler/gpt2_optimized_inductor_debug/36/c36eckxyvs5uv7m4gdapp3osbim6u2z7ctdwtymchk2gomqew7ok.py":26:21)
#loc9 = loc("/root/Profiler/gpt2_optimized_inductor_debug/36/c36eckxyvs5uv7m4gdapp3osbim6u2z7ctdwtymchk2gomqew7ok.py":27:28)
#loc10 = loc("/root/Profiler/gpt2_optimized_inductor_debug/36/c36eckxyvs5uv7m4gdapp3osbim6u2z7ctdwtymchk2gomqew7ok.py":27:38)
#loc11 = loc("/root/Profiler/gpt2_optimized_inductor_debug/36/c36eckxyvs5uv7m4gdapp3osbim6u2z7ctdwtymchk2gomqew7ok.py":28:16)
#loc12 = loc("/root/Profiler/gpt2_optimized_inductor_debug/36/c36eckxyvs5uv7m4gdapp3osbim6u2z7ctdwtymchk2gomqew7ok.py":29:25)
#loc13 = loc("/root/Profiler/gpt2_optimized_inductor_debug/36/c36eckxyvs5uv7m4gdapp3osbim6u2z7ctdwtymchk2gomqew7ok.py":34:19)
#loc14 = loc("/root/Profiler/gpt2_optimized_inductor_debug/36/c36eckxyvs5uv7m4gdapp3osbim6u2z7ctdwtymchk2gomqew7ok.py":35:19)
#loc15 = loc("/root/Profiler/gpt2_optimized_inductor_debug/36/c36eckxyvs5uv7m4gdapp3osbim6u2z7ctdwtymchk2gomqew7ok.py":36:41)
#loc16 = loc("/root/Profiler/gpt2_optimized_inductor_debug/36/c36eckxyvs5uv7m4gdapp3osbim6u2z7ctdwtymchk2gomqew7ok.py":36:37)
#loc17 = loc("/root/Profiler/gpt2_optimized_inductor_debug/36/c36eckxyvs5uv7m4gdapp3osbim6u2z7ctdwtymchk2gomqew7ok.py":36:30)
#loc18 = loc("/root/Profiler/gpt2_optimized_inductor_debug/36/c36eckxyvs5uv7m4gdapp3osbim6u2z7ctdwtymchk2gomqew7ok.py":36:56)
#loc19 = loc("/root/Profiler/gpt2_optimized_inductor_debug/36/c36eckxyvs5uv7m4gdapp3osbim6u2z7ctdwtymchk2gomqew7ok.py":36:46)
#loc20 = loc("/root/Profiler/gpt2_optimized_inductor_debug/36/c36eckxyvs5uv7m4gdapp3osbim6u2z7ctdwtymchk2gomqew7ok.py":36:77)
#loc21 = loc("/root/Profiler/gpt2_optimized_inductor_debug/36/c36eckxyvs5uv7m4gdapp3osbim6u2z7ctdwtymchk2gomqew7ok.py":37:41)
#loc22 = loc("/root/Profiler/gpt2_optimized_inductor_debug/36/c36eckxyvs5uv7m4gdapp3osbim6u2z7ctdwtymchk2gomqew7ok.py":37:37)
#loc23 = loc("/root/Profiler/gpt2_optimized_inductor_debug/36/c36eckxyvs5uv7m4gdapp3osbim6u2z7ctdwtymchk2gomqew7ok.py":37:50)
#loc24 = loc("/root/Profiler/gpt2_optimized_inductor_debug/36/c36eckxyvs5uv7m4gdapp3osbim6u2z7ctdwtymchk2gomqew7ok.py":37:54)
#loc25 = loc("/root/Profiler/gpt2_optimized_inductor_debug/36/c36eckxyvs5uv7m4gdapp3osbim6u2z7ctdwtymchk2gomqew7ok.py":37:46)
#loc26 = loc("/root/Profiler/gpt2_optimized_inductor_debug/36/c36eckxyvs5uv7m4gdapp3osbim6u2z7ctdwtymchk2gomqew7ok.py":37:30)
#loc27 = loc("/root/Profiler/gpt2_optimized_inductor_debug/36/c36eckxyvs5uv7m4gdapp3osbim6u2z7ctdwtymchk2gomqew7ok.py":37:69)
#loc28 = loc("/root/Profiler/gpt2_optimized_inductor_debug/36/c36eckxyvs5uv7m4gdapp3osbim6u2z7ctdwtymchk2gomqew7ok.py":37:59)
#loc29 = loc("/root/Profiler/gpt2_optimized_inductor_debug/36/c36eckxyvs5uv7m4gdapp3osbim6u2z7ctdwtymchk2gomqew7ok.py":37:90)
#loc30 = loc("/root/Profiler/gpt2_optimized_inductor_debug/36/c36eckxyvs5uv7m4gdapp3osbim6u2z7ctdwtymchk2gomqew7ok.py":38:41)
#loc31 = loc("/root/Profiler/gpt2_optimized_inductor_debug/36/c36eckxyvs5uv7m4gdapp3osbim6u2z7ctdwtymchk2gomqew7ok.py":38:37)
#loc32 = loc("/root/Profiler/gpt2_optimized_inductor_debug/36/c36eckxyvs5uv7m4gdapp3osbim6u2z7ctdwtymchk2gomqew7ok.py":38:30)
#loc33 = loc("/root/Profiler/gpt2_optimized_inductor_debug/36/c36eckxyvs5uv7m4gdapp3osbim6u2z7ctdwtymchk2gomqew7ok.py":38:56)
#loc34 = loc("/root/Profiler/gpt2_optimized_inductor_debug/36/c36eckxyvs5uv7m4gdapp3osbim6u2z7ctdwtymchk2gomqew7ok.py":38:46)
#loc35 = loc("/root/Profiler/gpt2_optimized_inductor_debug/36/c36eckxyvs5uv7m4gdapp3osbim6u2z7ctdwtymchk2gomqew7ok.py":38:77)
#loc36 = loc("/root/Profiler/gpt2_optimized_inductor_debug/36/c36eckxyvs5uv7m4gdapp3osbim6u2z7ctdwtymchk2gomqew7ok.py":39:31)
#loc37 = loc("/root/Profiler/gpt2_optimized_inductor_debug/36/c36eckxyvs5uv7m4gdapp3osbim6u2z7ctdwtymchk2gomqew7ok.py":39:38)
#loc38 = loc("/root/Profiler/gpt2_optimized_inductor_debug/36/c36eckxyvs5uv7m4gdapp3osbim6u2z7ctdwtymchk2gomqew7ok.py":39:91)
#loc39 = loc("/root/Profiler/gpt2_optimized_inductor_debug/36/c36eckxyvs5uv7m4gdapp3osbim6u2z7ctdwtymchk2gomqew7ok.py":40:31)
#loc40 = loc("/root/Profiler/gpt2_optimized_inductor_debug/36/c36eckxyvs5uv7m4gdapp3osbim6u2z7ctdwtymchk2gomqew7ok.py":40:38)
#loc41 = loc("/root/Profiler/gpt2_optimized_inductor_debug/36/c36eckxyvs5uv7m4gdapp3osbim6u2z7ctdwtymchk2gomqew7ok.py":40:91)
#loc42 = loc("/root/Profiler/gpt2_optimized_inductor_debug/36/c36eckxyvs5uv7m4gdapp3osbim6u2z7ctdwtymchk2gomqew7ok.py":41:18)
#loc43 = loc("/root/Profiler/gpt2_optimized_inductor_debug/36/c36eckxyvs5uv7m4gdapp3osbim6u2z7ctdwtymchk2gomqew7ok.py":42:18)
#loc44 = loc("/root/Profiler/gpt2_optimized_inductor_debug/36/c36eckxyvs5uv7m4gdapp3osbim6u2z7ctdwtymchk2gomqew7ok.py":45:30)
#loc45 = loc("/root/Profiler/gpt2_optimized_inductor_debug/36/c36eckxyvs5uv7m4gdapp3osbim6u2z7ctdwtymchk2gomqew7ok.py":45:43)
#loc46 = loc("/root/Profiler/gpt2_optimized_inductor_debug/36/c36eckxyvs5uv7m4gdapp3osbim6u2z7ctdwtymchk2gomqew7ok.py":47:31)
#loc47 = loc("/root/Profiler/gpt2_optimized_inductor_debug/36/c36eckxyvs5uv7m4gdapp3osbim6u2z7ctdwtymchk2gomqew7ok.py":47:44)
#loc48 = loc("/root/Profiler/gpt2_optimized_inductor_debug/36/c36eckxyvs5uv7m4gdapp3osbim6u2z7ctdwtymchk2gomqew7ok.py":48:26)
#loc49 = loc("/root/Profiler/gpt2_optimized_inductor_debug/36/c36eckxyvs5uv7m4gdapp3osbim6u2z7ctdwtymchk2gomqew7ok.py":48:29)
#loc50 = loc("/root/Profiler/gpt2_optimized_inductor_debug/36/c36eckxyvs5uv7m4gdapp3osbim6u2z7ctdwtymchk2gomqew7ok.py":49:33)
#loc51 = loc("/root/Profiler/gpt2_optimized_inductor_debug/36/c36eckxyvs5uv7m4gdapp3osbim6u2z7ctdwtymchk2gomqew7ok.py":50:21)
#loc52 = loc("/root/Profiler/gpt2_optimized_inductor_debug/36/c36eckxyvs5uv7m4gdapp3osbim6u2z7ctdwtymchk2gomqew7ok.py":51:21)
#loc53 = loc("/root/Profiler/gpt2_optimized_inductor_debug/36/c36eckxyvs5uv7m4gdapp3osbim6u2z7ctdwtymchk2gomqew7ok.py":52:19)
#loc54 = loc("/root/Profiler/gpt2_optimized_inductor_debug/36/c36eckxyvs5uv7m4gdapp3osbim6u2z7ctdwtymchk2gomqew7ok.py":53:20)
#loc55 = loc("/root/Profiler/gpt2_optimized_inductor_debug/36/c36eckxyvs5uv7m4gdapp3osbim6u2z7ctdwtymchk2gomqew7ok.py":55:31)
#loc56 = loc("/root/Profiler/gpt2_optimized_inductor_debug/36/c36eckxyvs5uv7m4gdapp3osbim6u2z7ctdwtymchk2gomqew7ok.py":55:45)
#loc57 = loc("/root/Profiler/gpt2_optimized_inductor_debug/36/c36eckxyvs5uv7m4gdapp3osbim6u2z7ctdwtymchk2gomqew7ok.py":56:26)
#loc58 = loc("/root/Profiler/gpt2_optimized_inductor_debug/36/c36eckxyvs5uv7m4gdapp3osbim6u2z7ctdwtymchk2gomqew7ok.py":56:29)
#loc59 = loc("/root/Profiler/gpt2_optimized_inductor_debug/36/c36eckxyvs5uv7m4gdapp3osbim6u2z7ctdwtymchk2gomqew7ok.py":57:19)
#loc60 = loc("/root/Profiler/gpt2_optimized_inductor_debug/36/c36eckxyvs5uv7m4gdapp3osbim6u2z7ctdwtymchk2gomqew7ok.py":58:35)
#loc61 = loc("/root/Profiler/gpt2_optimized_inductor_debug/36/c36eckxyvs5uv7m4gdapp3osbim6u2z7ctdwtymchk2gomqew7ok.py":59:21)
#loc62 = loc("/root/Profiler/gpt2_optimized_inductor_debug/36/c36eckxyvs5uv7m4gdapp3osbim6u2z7ctdwtymchk2gomqew7ok.py":60:35)
#loc63 = loc("/root/Profiler/gpt2_optimized_inductor_debug/36/c36eckxyvs5uv7m4gdapp3osbim6u2z7ctdwtymchk2gomqew7ok.py":61:20)
#loc64 = loc("/root/Profiler/gpt2_optimized_inductor_debug/36/c36eckxyvs5uv7m4gdapp3osbim6u2z7ctdwtymchk2gomqew7ok.py":62:28)
#loc65 = loc("/root/Profiler/gpt2_optimized_inductor_debug/36/c36eckxyvs5uv7m4gdapp3osbim6u2z7ctdwtymchk2gomqew7ok.py":63:20)
#loc66 = loc("/root/Profiler/gpt2_optimized_inductor_debug/36/c36eckxyvs5uv7m4gdapp3osbim6u2z7ctdwtymchk2gomqew7ok.py":65:20)
#loc67 = loc("/root/Profiler/gpt2_optimized_inductor_debug/36/c36eckxyvs5uv7m4gdapp3osbim6u2z7ctdwtymchk2gomqew7ok.py":67:20)
#loc68 = loc("/root/Profiler/gpt2_optimized_inductor_debug/36/c36eckxyvs5uv7m4gdapp3osbim6u2z7ctdwtymchk2gomqew7ok.py":69:36)
#loc69 = loc("/root/Profiler/gpt2_optimized_inductor_debug/36/c36eckxyvs5uv7m4gdapp3osbim6u2z7ctdwtymchk2gomqew7ok.py":69:32)
#loc70 = loc("/root/Profiler/gpt2_optimized_inductor_debug/36/c36eckxyvs5uv7m4gdapp3osbim6u2z7ctdwtymchk2gomqew7ok.py":69:45)
#loc71 = loc("/root/Profiler/gpt2_optimized_inductor_debug/36/c36eckxyvs5uv7m4gdapp3osbim6u2z7ctdwtymchk2gomqew7ok.py":69:49)
#loc72 = loc("/root/Profiler/gpt2_optimized_inductor_debug/36/c36eckxyvs5uv7m4gdapp3osbim6u2z7ctdwtymchk2gomqew7ok.py":69:41)
#loc73 = loc("/root/Profiler/gpt2_optimized_inductor_debug/36/c36eckxyvs5uv7m4gdapp3osbim6u2z7ctdwtymchk2gomqew7ok.py":69:25)
#loc74 = loc("/root/Profiler/gpt2_optimized_inductor_debug/36/c36eckxyvs5uv7m4gdapp3osbim6u2z7ctdwtymchk2gomqew7ok.py":69:71)
#loc75 = loc("/root/Profiler/gpt2_optimized_inductor_debug/36/c36eckxyvs5uv7m4gdapp3osbim6u2z7ctdwtymchk2gomqew7ok.py":69:61)
#loc76 = loc("/root/Profiler/gpt2_optimized_inductor_debug/36/c36eckxyvs5uv7m4gdapp3osbim6u2z7ctdwtymchk2gomqew7ok.py":69:4)
#loc78 = loc("/usr/local/lib/python3.10/dist-packages/triton/language/standard.py":293:36)
#loc80 = loc("/usr/local/lib/python3.10/dist-packages/triton/language/standard.py":293:11)
#loc81 = loc("/usr/local/lib/python3.10/dist-packages/triton/language/standard.py":293:4)
#loc83 = loc("/usr/local/lib/python3.10/dist-packages/triton/language/standard.py":263:15)
#loc84 = loc("/usr/local/lib/python3.10/dist-packages/triton/language/standard.py":263:11)
#loc85 = loc("/usr/local/lib/python3.10/dist-packages/triton/language/standard.py":263:4)
#loc95 = loc("xnumel"(#loc1))
#loc96 = loc("r0_numel"(#loc2))
#loc97 = loc("xoffset"(#loc3))
#loc98 = loc("xoffset"(#loc4))
#loc99 = loc("xindex"(#loc5))
#loc100 = loc("xindex"(#loc6))
#loc101 = loc("xindex"(#loc7))
#loc102 = loc("xmask"(#loc8))
#loc103 = loc("r0_index"(#loc9))
#loc104 = loc("r0_index"(#loc10))
#loc105 = loc("r0_offset"(#loc11))
#loc106 = loc("r0_mask"(#loc12))
#loc107 = loc("x0"(#loc13))
#loc108 = loc("x1"(#loc14))
#loc109 = loc("tmp0"(#loc15))
#loc110 = loc("tmp0"(#loc16))
#loc111 = loc("tmp0"(#loc17))
#loc112 = loc("tmp0"(#loc18))
#loc113 = loc("tmp0"(#loc19))
#loc114 = loc("tmp0"(#loc20))
#loc115 = loc("tmp1"(#loc21))
#loc116 = loc("tmp1"(#loc22))
#loc117 = loc("tmp1"(#loc23))
#loc118 = loc("tmp1"(#loc24))
#loc119 = loc("tmp1"(#loc25))
#loc120 = loc("tmp1"(#loc26))
#loc121 = loc("tmp1"(#loc27))
#loc122 = loc("tmp1"(#loc28))
#loc123 = loc("tmp1"(#loc29))
#loc124 = loc("tmp3"(#loc30))
#loc125 = loc("tmp3"(#loc31))
#loc126 = loc("tmp3"(#loc32))
#loc127 = loc("tmp3"(#loc33))
#loc128 = loc("tmp3"(#loc34))
#loc129 = loc("tmp3"(#loc35))
#loc130 = loc("tmp29"(#loc36))
#loc131 = loc("tmp29"(#loc37))
#loc132 = loc("tmp29"(#loc38))
#loc133 = loc("tmp32"(#loc39))
#loc134 = loc("tmp32"(#loc40))
#loc135 = loc("tmp32"(#loc41))
#loc136 = loc("tmp2"(#loc42))
#loc137 = loc("tmp4"(#loc43))
#loc138 = loc("tmp8"(#loc44))
#loc139 = loc("tmp8"(#loc45))
#loc140 = loc("tmp11"(#loc46))
#loc141 = loc("tmp11"(#loc47))
#loc142 = loc("tmp12"(#loc48))
#loc143 = loc("tmp12"(#loc49))
#loc144 = loc("tmp13"(#loc50))
#loc145 = loc("tmp14"(#loc51))
#loc146 = loc("tmp15"(#loc52))
#loc147 = loc("tmp16"(#loc53))
#loc148 = loc("tmp17"(#loc54))
#loc149 = loc("tmp20"(#loc55))
#loc150 = loc("tmp20"(#loc56))
#loc151 = loc("tmp21"(#loc57))
#loc152 = loc("tmp21"(#loc58))
#loc153 = loc("tmp22"(#loc59))
#loc154 = loc("tmp23"(#loc60))
#loc155 = loc("tmp24"(#loc61))
#loc156 = loc("tmp25"(#loc62))
#loc157 = loc("tmp26"(#loc63))
#loc158 = loc("tmp27"(#loc64))
#loc159 = loc("tmp28"(#loc65))
#loc160 = loc("tmp31"(#loc66))
#loc161 = loc("tmp34"(#loc67))
