#loc = loc("/root/Profiler/gpt2_optimized_inductor_debug/zb/czbvxldyt3l7teqrcywu4kolziswyogj3h26ioljetasgtmc53ee.py":18:0)
#loc26 = loc("in_out_ptr0"(#loc))
#loc27 = loc("xnumel"(#loc))
module {
  tt.func public @triton_poi_fused_add_mul_pow_tanh_view_5(%in_out_ptr0: !tt.ptr<bf16> {tt.divisibility = 16 : i32} loc("in_out_ptr0"(#loc)), %xnumel: i32 {tt.divisibility = 16 : i32} loc("xnumel"(#loc))) attributes {noinline = false} {
    %xnumel_0 = arith.constant 1572864 : i32 loc(#loc28)
    %xoffset = tt.get_program_id x : i32 loc(#loc29)
    %xoffset_1 = arith.constant 512 : i32 loc(#loc30)
    %xoffset_2 = arith.constant 512 : i32 loc(#loc30)
    %xoffset_3 = arith.muli %xoffset, %xoffset_2 : i32 loc(#loc30)
    %xindex = tt.make_range {end = 512 : i32, start = 0 : i32} : tensor<512xi32> loc(#loc31)
    %xindex_4 = tt.splat %xoffset_3 : i32 -> tensor<512xi32> loc(#loc32)
    %xindex_5 = arith.addi %xindex_4, %xindex : tensor<512xi32> loc(#loc32)
    %xmask = arith.constant true loc(#loc33)
    %xmask_6 = arith.constant dense<true> : tensor<512xi1> loc(#loc33)
    %tmp0 = tt.splat %in_out_ptr0 : !tt.ptr<bf16> -> tensor<512x!tt.ptr<bf16>> loc(#loc34)
    %tmp0_7 = tt.addptr %tmp0, %xindex_5 : tensor<512x!tt.ptr<bf16>>, tensor<512xi32> loc(#loc34)
    %tmp0_8 = tt.load %tmp0_7 : tensor<512x!tt.ptr<bf16>> loc(#loc35)
    %tmp0_9 = arith.extf %tmp0_8 : tensor<512xbf16> to tensor<512xf32> loc(#loc36)
    %tmp1 = arith.constant 5.000000e-01 : f32 loc(#loc37)
    %tmp1_10 = arith.constant dense<5.000000e-01> : tensor<1xf32> loc(#loc37)
    %tmp2 = arith.constant dense<5.000000e-01> : tensor<512xf32> loc(#loc38)
    %tmp2_11 = arith.mulf %tmp0_9, %tmp2 : tensor<512xf32> loc(#loc38)
    %tmp3 = arith.mulf %tmp0_9, %tmp0_9 : tensor<512xf32> loc(#loc39)
    %tmp4 = arith.mulf %tmp3, %tmp0_9 : tensor<512xf32> loc(#loc40)
    %tmp5 = arith.constant 4.471500e-02 : f32 loc(#loc41)
    %tmp5_12 = arith.constant dense<4.471500e-02> : tensor<1xf32> loc(#loc41)
    %tmp6 = arith.constant dense<4.471500e-02> : tensor<512xf32> loc(#loc42)
    %tmp6_13 = arith.mulf %tmp4, %tmp6 : tensor<512xf32> loc(#loc42)
    %tmp7 = arith.addf %tmp0_9, %tmp6_13 : tensor<512xf32> loc(#loc43)
    %tmp8 = arith.constant 0.797884583 : f32 loc(#loc44)
    %tmp8_14 = arith.constant dense<0.797884583> : tensor<1xf32> loc(#loc44)
    %tmp9 = arith.constant dense<0.797884583> : tensor<512xf32> loc(#loc45)
    %tmp9_15 = arith.mulf %tmp7, %tmp9 : tensor<512xf32> loc(#loc45)
    %tmp10 = tt.extern_elementwise %tmp9_15 {libname = "", libpath = "", pure = true, symbol = "__nv_tanhf"} : (tensor<512xf32>) -> tensor<512xf32> loc(#loc46)
    %tmp11 = arith.constant 1.000000e+00 : f32 loc(#loc47)
    %tmp11_16 = arith.constant dense<1.000000e+00> : tensor<1xf32> loc(#loc47)
    %tmp12 = arith.constant dense<1.000000e+00> : tensor<512xf32> loc(#loc48)
    %tmp12_17 = arith.addf %tmp10, %tmp12 : tensor<512xf32> loc(#loc48)
    %tmp13 = arith.mulf %tmp2_11, %tmp12_17 : tensor<512xf32> loc(#loc49)
    %0 = tt.splat %in_out_ptr0 : !tt.ptr<bf16> -> tensor<512x!tt.ptr<bf16>> loc(#loc23)
    %1 = tt.addptr %0, %xindex_5 : tensor<512x!tt.ptr<bf16>>, tensor<512xi32> loc(#loc23)
    %2 = arith.truncf %tmp13 : tensor<512xf32> to tensor<512xbf16> loc(#loc24)
    tt.store %1, %2 : tensor<512x!tt.ptr<bf16>> loc(#loc24)
    tt.return loc(#loc25)
  } loc(#loc)
} loc(#loc)
#loc1 = loc("/root/Profiler/gpt2_optimized_inductor_debug/zb/czbvxldyt3l7teqrcywu4kolziswyogj3h26ioljetasgtmc53ee.py":19:13)
#loc2 = loc("/root/Profiler/gpt2_optimized_inductor_debug/zb/czbvxldyt3l7teqrcywu4kolziswyogj3h26ioljetasgtmc53ee.py":20:28)
#loc3 = loc("/root/Profiler/gpt2_optimized_inductor_debug/zb/czbvxldyt3l7teqrcywu4kolziswyogj3h26ioljetasgtmc53ee.py":20:33)
#loc4 = loc("/root/Profiler/gpt2_optimized_inductor_debug/zb/czbvxldyt3l7teqrcywu4kolziswyogj3h26ioljetasgtmc53ee.py":21:36)
#loc5 = loc("/root/Profiler/gpt2_optimized_inductor_debug/zb/czbvxldyt3l7teqrcywu4kolziswyogj3h26ioljetasgtmc53ee.py":21:23)
#loc6 = loc("/root/Profiler/gpt2_optimized_inductor_debug/zb/czbvxldyt3l7teqrcywu4kolziswyogj3h26ioljetasgtmc53ee.py":22:36)
#loc7 = loc("/root/Profiler/gpt2_optimized_inductor_debug/zb/czbvxldyt3l7teqrcywu4kolziswyogj3h26ioljetasgtmc53ee.py":24:34)
#loc8 = loc("/root/Profiler/gpt2_optimized_inductor_debug/zb/czbvxldyt3l7teqrcywu4kolziswyogj3h26ioljetasgtmc53ee.py":24:39)
#loc9 = loc("/root/Profiler/gpt2_optimized_inductor_debug/zb/czbvxldyt3l7teqrcywu4kolziswyogj3h26ioljetasgtmc53ee.py":24:48)
#loc10 = loc("/root/Profiler/gpt2_optimized_inductor_debug/zb/czbvxldyt3l7teqrcywu4kolziswyogj3h26ioljetasgtmc53ee.py":25:29)
#loc11 = loc("/root/Profiler/gpt2_optimized_inductor_debug/zb/czbvxldyt3l7teqrcywu4kolziswyogj3h26ioljetasgtmc53ee.py":26:18)
#loc12 = loc("/root/Profiler/gpt2_optimized_inductor_debug/zb/czbvxldyt3l7teqrcywu4kolziswyogj3h26ioljetasgtmc53ee.py":27:18)
#loc13 = loc("/root/Profiler/gpt2_optimized_inductor_debug/zb/czbvxldyt3l7teqrcywu4kolziswyogj3h26ioljetasgtmc53ee.py":28:18)
#loc14 = loc("/root/Profiler/gpt2_optimized_inductor_debug/zb/czbvxldyt3l7teqrcywu4kolziswyogj3h26ioljetasgtmc53ee.py":29:34)
#loc15 = loc("/root/Profiler/gpt2_optimized_inductor_debug/zb/czbvxldyt3l7teqrcywu4kolziswyogj3h26ioljetasgtmc53ee.py":30:18)
#loc16 = loc("/root/Profiler/gpt2_optimized_inductor_debug/zb/czbvxldyt3l7teqrcywu4kolziswyogj3h26ioljetasgtmc53ee.py":31:18)
#loc17 = loc("/root/Profiler/gpt2_optimized_inductor_debug/zb/czbvxldyt3l7teqrcywu4kolziswyogj3h26ioljetasgtmc53ee.py":32:44)
#loc18 = loc("/root/Profiler/gpt2_optimized_inductor_debug/zb/czbvxldyt3l7teqrcywu4kolziswyogj3h26ioljetasgtmc53ee.py":33:18)
#loc19 = loc("/root/Profiler/gpt2_optimized_inductor_debug/zb/czbvxldyt3l7teqrcywu4kolziswyogj3h26ioljetasgtmc53ee.py":34:27)
#loc20 = loc("/root/Profiler/gpt2_optimized_inductor_debug/zb/czbvxldyt3l7teqrcywu4kolziswyogj3h26ioljetasgtmc53ee.py":35:30)
#loc21 = loc("/root/Profiler/gpt2_optimized_inductor_debug/zb/czbvxldyt3l7teqrcywu4kolziswyogj3h26ioljetasgtmc53ee.py":36:20)
#loc22 = loc("/root/Profiler/gpt2_optimized_inductor_debug/zb/czbvxldyt3l7teqrcywu4kolziswyogj3h26ioljetasgtmc53ee.py":37:19)
#loc23 = loc("/root/Profiler/gpt2_optimized_inductor_debug/zb/czbvxldyt3l7teqrcywu4kolziswyogj3h26ioljetasgtmc53ee.py":38:28)
#loc24 = loc("/root/Profiler/gpt2_optimized_inductor_debug/zb/czbvxldyt3l7teqrcywu4kolziswyogj3h26ioljetasgtmc53ee.py":38:40)
#loc25 = loc("/root/Profiler/gpt2_optimized_inductor_debug/zb/czbvxldyt3l7teqrcywu4kolziswyogj3h26ioljetasgtmc53ee.py":38:4)
#loc28 = loc("xnumel"(#loc1))
#loc29 = loc("xoffset"(#loc2))
#loc30 = loc("xoffset"(#loc3))
#loc31 = loc("xindex"(#loc4))
#loc32 = loc("xindex"(#loc5))
#loc33 = loc("xmask"(#loc6))
#loc34 = loc("tmp0"(#loc7))
#loc35 = loc("tmp0"(#loc8))
#loc36 = loc("tmp0"(#loc9))
#loc37 = loc("tmp1"(#loc10))
#loc38 = loc("tmp2"(#loc11))
#loc39 = loc("tmp3"(#loc12))
#loc40 = loc("tmp4"(#loc13))
#loc41 = loc("tmp5"(#loc14))
#loc42 = loc("tmp6"(#loc15))
#loc43 = loc("tmp7"(#loc16))
#loc44 = loc("tmp8"(#loc17))
#loc45 = loc("tmp9"(#loc18))
#loc46 = loc("tmp10"(#loc19))
#loc47 = loc("tmp11"(#loc20))
#loc48 = loc("tmp12"(#loc21))
#loc49 = loc("tmp13"(#loc22))
