#loc = loc("/root/Profiler/examples/sdpa_attention/test_run/inductor_debug_opt/gh/cghiaxpkyapyectmmmosbn24ylcnd3qcdx3wi2olybiupbs53gla.py":18:0)
#loc49 = loc("/usr/local/lib/python3.10/dist-packages/triton/language/standard.py":287:0)
#loc51 = loc(unknown)
#loc54 = loc("/usr/local/lib/python3.10/dist-packages/triton/language/standard.py":262:0)
#loc58 = loc("in_ptr0"(#loc))
#loc59 = loc("in_ptr1"(#loc))
#loc60 = loc("in_ptr2"(#loc))
#loc61 = loc("out_ptr2"(#loc))
#loc62 = loc("xnumel"(#loc))
#loc63 = loc("r0_numel"(#loc))
#loc107 = loc("input"(#loc49))
#loc108 = loc("a"(#loc54))
#loc109 = loc("b"(#loc54))
module {
  tt.func public @triton_per_fused_native_layer_norm_0(%in_ptr0: !tt.ptr<bf16> {tt.divisibility = 16 : i32} loc("in_ptr0"(#loc)), %in_ptr1: !tt.ptr<bf16> {tt.divisibility = 16 : i32} loc("in_ptr1"(#loc)), %in_ptr2: !tt.ptr<bf16> {tt.divisibility = 16 : i32} loc("in_ptr2"(#loc)), %out_ptr2: !tt.ptr<bf16> {tt.divisibility = 16 : i32} loc("out_ptr2"(#loc)), %xnumel: i32 {tt.divisibility = 16 : i32} loc("xnumel"(#loc)), %r0_numel: i32 {tt.divisibility = 16 : i32} loc("r0_numel"(#loc))) attributes {noinline = false} {
    %xnumel_0 = arith.constant 4096 : i32 loc(#loc64)
    %r0_numel_1 = arith.constant 512 : i32 loc(#loc65)
    %xoffset = tt.get_program_id x : i32 loc(#loc66)
    %xoffset_2 = arith.constant 8 : i32 loc(#loc67)
    %xoffset_3 = arith.constant 8 : i32 loc(#loc67)
    %xoffset_4 = arith.muli %xoffset, %xoffset_3 : i32 loc(#loc67)
    %xindex = tt.make_range {end = 8 : i32, start = 0 : i32} : tensor<8xi32> loc(#loc68)
    %xindex_5 = tt.expand_dims %xindex {axis = 1 : i32} : tensor<8xi32> -> tensor<8x1xi32> loc(#loc69)
    %xindex_6 = tt.splat %xoffset_4 : i32 -> tensor<8x1xi32> loc(#loc70)
    %xindex_7 = arith.addi %xindex_6, %xindex_5 : tensor<8x1xi32> loc(#loc70)
    %xmask = arith.constant true loc(#loc71)
    %xmask_8 = arith.constant dense<true> : tensor<8xi1> loc(#loc71)
    %xmask_9 = tt.expand_dims %xmask_8 {axis = 1 : i32} : tensor<8xi1> -> tensor<8x1xi1> loc(#loc72)
    %r0_index = tt.make_range {end = 512 : i32, start = 0 : i32} : tensor<512xi32> loc(#loc73)
    %r0_index_10 = tt.expand_dims %r0_index {axis = 0 : i32} : tensor<512xi32> -> tensor<1x512xi32> loc(#loc74)
    %r0_offset = arith.constant 0 : i32 loc(#loc75)
    %r0_mask = arith.constant true loc(#loc76)
    %r0_mask_11 = arith.constant dense<true> : tensor<512xi1> loc(#loc76)
    %r0_mask_12 = tt.expand_dims %r0_mask_11 {axis = 0 : i32} : tensor<512xi1> -> tensor<1x512xi1> loc(#loc77)
    %tmp0 = arith.constant 512 : i32 loc(#loc78)
    %tmp0_13 = arith.constant 512 : i32 loc(#loc78)
    %tmp0_14 = arith.constant dense<512> : tensor<8x1xi32> loc(#loc78)
    %tmp0_15 = arith.muli %tmp0_14, %xindex_7 : tensor<8x1xi32> loc(#loc78)
    %tmp0_16 = tt.broadcast %r0_index_10 : tensor<1x512xi32> -> tensor<8x512xi32> loc(#loc79)
    %tmp0_17 = tt.broadcast %tmp0_15 : tensor<8x1xi32> -> tensor<8x512xi32> loc(#loc79)
    %tmp0_18 = arith.addi %tmp0_16, %tmp0_17 : tensor<8x512xi32> loc(#loc79)
    %tmp0_19 = tt.splat %in_ptr0 : !tt.ptr<bf16> -> tensor<8x512x!tt.ptr<bf16>> loc(#loc80)
    %tmp0_20 = tt.addptr %tmp0_19, %tmp0_18 : tensor<8x512x!tt.ptr<bf16>>, tensor<8x512xi32> loc(#loc80)
    %tmp0_21 = tt.load %tmp0_20 : tensor<8x512x!tt.ptr<bf16>> loc(#loc81)
    %tmp0_22 = arith.extf %tmp0_21 : tensor<8x512xbf16> to tensor<8x512xf32> loc(#loc82)
    %tmp22 = tt.splat %in_ptr1 : !tt.ptr<bf16> -> tensor<1x512x!tt.ptr<bf16>> loc(#loc83)
    %tmp22_23 = tt.addptr %tmp22, %r0_index_10 : tensor<1x512x!tt.ptr<bf16>>, tensor<1x512xi32> loc(#loc83)
    %tmp22_24 = tt.load %tmp22_23 evictionPolicy = evict_last : tensor<1x512x!tt.ptr<bf16>> loc(#loc84)
    %tmp22_25 = arith.extf %tmp22_24 : tensor<1x512xbf16> to tensor<1x512xf32> loc(#loc85)
    %tmp25 = tt.splat %in_ptr2 : !tt.ptr<bf16> -> tensor<1x512x!tt.ptr<bf16>> loc(#loc86)
    %tmp25_26 = tt.addptr %tmp25, %r0_index_10 : tensor<1x512x!tt.ptr<bf16>>, tensor<1x512xi32> loc(#loc86)
    %tmp25_27 = tt.load %tmp25_26 evictionPolicy = evict_last : tensor<1x512x!tt.ptr<bf16>> loc(#loc87)
    %tmp25_28 = arith.extf %tmp25_27 : tensor<1x512xbf16> to tensor<1x512xf32> loc(#loc88)
    %tmp6 = tt.call @"triton.language.standard.sum__fp32S8_512S__(1,)cconstexpr_1__(2,)cconstexpr_False__(3,)cNone"(%tmp0_22) : (tensor<8x512xf32>) -> tensor<8xf32> loc(#loc89)
    %tmp6_29 = tt.expand_dims %tmp6 {axis = 1 : i32} : tensor<8xf32> -> tensor<8x1xf32> loc(#loc90)
    %tmp7 = arith.constant 512 : i32 loc(#loc91)
    %tmp7_30 = arith.constant dense<512> : tensor<1x1xi32> loc(#loc91)
    %tmp8 = arith.sitofp %tmp7_30 : tensor<1x1xi32> to tensor<1x1xf32> loc(#loc92)
    %tmp9 = tt.broadcast %tmp8 : tensor<1x1xf32> -> tensor<8x1xf32> loc(#loc93)
    %tmp9_31 = arith.divf %tmp6_29, %tmp9 : tensor<8x1xf32> loc(#loc93)
    %tmp10 = tt.broadcast %tmp9_31 : tensor<8x1xf32> -> tensor<8x512xf32> loc(#loc94)
    %tmp10_32 = arith.subf %tmp0_22, %tmp10 : tensor<8x512xf32> loc(#loc94)
    %tmp11 = arith.mulf %tmp10_32, %tmp10_32 : tensor<8x512xf32> loc(#loc95)
    %tmp14 = tt.call @"triton.language.standard.sum__fp32S8_512S__(1,)cconstexpr_1__(2,)cconstexpr_False__(3,)cNone"(%tmp11) : (tensor<8x512xf32>) -> tensor<8xf32> loc(#loc96)
    %tmp14_33 = tt.expand_dims %tmp14 {axis = 1 : i32} : tensor<8xf32> -> tensor<8x1xf32> loc(#loc97)
    %tmp15 = tt.broadcast %tmp9_31 : tensor<8x1xf32> -> tensor<8x512xf32> loc(#loc98)
    %tmp15_34 = arith.subf %tmp0_22, %tmp15 : tensor<8x512xf32> loc(#loc98)
    %tmp16 = arith.constant 5.120000e+02 : f32 loc(#loc99)
    %tmp16_35 = arith.constant dense<5.120000e+02> : tensor<1x1xf32> loc(#loc99)
    %tmp17 = arith.constant dense<5.120000e+02> : tensor<8x1xf32> loc(#loc100)
    %tmp17_36 = arith.divf %tmp14_33, %tmp17 : tensor<8x1xf32> loc(#loc100)
    %tmp18 = arith.constant 9.99999974E-6 : f32 loc(#loc101)
    %tmp18_37 = arith.constant dense<9.99999974E-6> : tensor<1x1xf32> loc(#loc101)
    %tmp19 = arith.constant dense<9.99999974E-6> : tensor<8x1xf32> loc(#loc102)
    %tmp19_38 = arith.addf %tmp17_36, %tmp19 : tensor<8x1xf32> loc(#loc102)
    %tmp20 = tt.extern_elementwise %tmp19_38 {libname = "", libpath = "", pure = true, symbol = "__nv_rsqrtf"} : (tensor<8x1xf32>) -> tensor<8x1xf32> loc(#loc103)
    %tmp21 = tt.broadcast %tmp20 : tensor<8x1xf32> -> tensor<8x512xf32> loc(#loc104)
    %tmp21_39 = arith.mulf %tmp15_34, %tmp21 : tensor<8x512xf32> loc(#loc104)
    %tmp24 = tt.broadcast %tmp22_25 : tensor<1x512xf32> -> tensor<8x512xf32> loc(#loc105)
    %tmp24_40 = arith.mulf %tmp21_39, %tmp24 : tensor<8x512xf32> loc(#loc105)
    %tmp27 = tt.broadcast %tmp25_28 : tensor<1x512xf32> -> tensor<8x512xf32> loc(#loc106)
    %tmp27_41 = arith.addf %tmp24_40, %tmp27 : tensor<8x512xf32> loc(#loc106)
    %c512_i32 = arith.constant 512 : i32 loc(#loc44)
    %c512_i32_42 = arith.constant 512 : i32 loc(#loc44)
    %cst = arith.constant dense<512> : tensor<8x1xi32> loc(#loc44)
    %0 = arith.muli %cst, %xindex_7 : tensor<8x1xi32> loc(#loc44)
    %1 = tt.broadcast %r0_index_10 : tensor<1x512xi32> -> tensor<8x512xi32> loc(#loc45)
    %2 = tt.broadcast %0 : tensor<8x1xi32> -> tensor<8x512xi32> loc(#loc45)
    %3 = arith.addi %1, %2 : tensor<8x512xi32> loc(#loc45)
    %4 = tt.splat %out_ptr2 : !tt.ptr<bf16> -> tensor<8x512x!tt.ptr<bf16>> loc(#loc46)
    %5 = tt.addptr %4, %3 : tensor<8x512x!tt.ptr<bf16>>, tensor<8x512xi32> loc(#loc46)
    %6 = arith.truncf %tmp27_41 : tensor<8x512xf32> to tensor<8x512xbf16> loc(#loc47)
    tt.store %5, %6 : tensor<8x512x!tt.ptr<bf16>> loc(#loc47)
    tt.return loc(#loc48)
  } loc(#loc)
  tt.func private @"triton.language.standard.sum__fp32S8_512S__(1,)cconstexpr_1__(2,)cconstexpr_False__(3,)cNone"(%input: tensor<8x512xf32> loc("input"(#loc49))) -> tensor<8xf32> attributes {noinline = false} {
    %0 = "tt.reduce"(%input) <{axis = 1 : i32}> ({
    ^bb0(%arg1: f32 loc(unknown), %arg2: f32 loc(unknown)):
      %2 = tt.call @triton.language.standard._sum_combine__fp32_fp32__(%arg1, %arg2) : (f32, f32) -> f32 loc(#loc50)
      tt.reduce.return %2 : f32 loc(#loc50)
    }) : (tensor<8x512xf32>) -> tensor<8xf32> loc(#loc50)
    tt.return %0 : tensor<8xf32> loc(#loc52)
  ^bb1:  // no predecessors
    %1 = ub.poison : tensor<8xf32> loc(#loc53)
    tt.return %1 : tensor<8xf32> loc(#loc53)
  } loc(#loc49)
  tt.func private @triton.language.standard._sum_combine__fp32_fp32__(%a: f32 loc("a"(#loc54)), %b: f32 loc("b"(#loc54))) -> f32 attributes {noinline = false} {
    %0 = arith.addf %a, %b : f32 loc(#loc55)
    tt.return %0 : f32 loc(#loc56)
  ^bb1:  // no predecessors
    %1 = ub.poison : f32 loc(#loc57)
    tt.return %1 : f32 loc(#loc57)
  } loc(#loc54)
} loc(#loc)
#loc1 = loc("/root/Profiler/examples/sdpa_attention/test_run/inductor_debug_opt/gh/cghiaxpkyapyectmmmosbn24ylcnd3qcdx3wi2olybiupbs53gla.py":19:13)
#loc2 = loc("/root/Profiler/examples/sdpa_attention/test_run/inductor_debug_opt/gh/cghiaxpkyapyectmmmosbn24ylcnd3qcdx3wi2olybiupbs53gla.py":20:15)
#loc3 = loc("/root/Profiler/examples/sdpa_attention/test_run/inductor_debug_opt/gh/cghiaxpkyapyectmmmosbn24ylcnd3qcdx3wi2olybiupbs53gla.py":24:28)
#loc4 = loc("/root/Profiler/examples/sdpa_attention/test_run/inductor_debug_opt/gh/cghiaxpkyapyectmmmosbn24ylcnd3qcdx3wi2olybiupbs53gla.py":24:33)
#loc5 = loc("/root/Profiler/examples/sdpa_attention/test_run/inductor_debug_opt/gh/cghiaxpkyapyectmmmosbn24ylcnd3qcdx3wi2olybiupbs53gla.py":25:36)
#loc6 = loc("/root/Profiler/examples/sdpa_attention/test_run/inductor_debug_opt/gh/cghiaxpkyapyectmmmosbn24ylcnd3qcdx3wi2olybiupbs53gla.py":25:44)
#loc7 = loc("/root/Profiler/examples/sdpa_attention/test_run/inductor_debug_opt/gh/cghiaxpkyapyectmmmosbn24ylcnd3qcdx3wi2olybiupbs53gla.py":25:23)
#loc8 = loc("/root/Profiler/examples/sdpa_attention/test_run/inductor_debug_opt/gh/cghiaxpkyapyectmmmosbn24ylcnd3qcdx3wi2olybiupbs53gla.py":26:36)
#loc9 = loc("/root/Profiler/examples/sdpa_attention/test_run/inductor_debug_opt/gh/cghiaxpkyapyectmmmosbn24ylcnd3qcdx3wi2olybiupbs53gla.py":26:45)
#loc10 = loc("/root/Profiler/examples/sdpa_attention/test_run/inductor_debug_opt/gh/cghiaxpkyapyectmmmosbn24ylcnd3qcdx3wi2olybiupbs53gla.py":27:28)
#loc11 = loc("/root/Profiler/examples/sdpa_attention/test_run/inductor_debug_opt/gh/cghiaxpkyapyectmmmosbn24ylcnd3qcdx3wi2olybiupbs53gla.py":27:38)
#loc12 = loc("/root/Profiler/examples/sdpa_attention/test_run/inductor_debug_opt/gh/cghiaxpkyapyectmmmosbn24ylcnd3qcdx3wi2olybiupbs53gla.py":28:16)
#loc13 = loc("/root/Profiler/examples/sdpa_attention/test_run/inductor_debug_opt/gh/cghiaxpkyapyectmmmosbn24ylcnd3qcdx3wi2olybiupbs53gla.py":29:40)
#loc14 = loc("/root/Profiler/examples/sdpa_attention/test_run/inductor_debug_opt/gh/cghiaxpkyapyectmmmosbn24ylcnd3qcdx3wi2olybiupbs53gla.py":29:49)
#loc15 = loc("/root/Profiler/examples/sdpa_attention/test_run/inductor_debug_opt/gh/cghiaxpkyapyectmmmosbn24ylcnd3qcdx3wi2olybiupbs53gla.py":34:41)
#loc16 = loc("/root/Profiler/examples/sdpa_attention/test_run/inductor_debug_opt/gh/cghiaxpkyapyectmmmosbn24ylcnd3qcdx3wi2olybiupbs53gla.py":34:37)
#loc17 = loc("/root/Profiler/examples/sdpa_attention/test_run/inductor_debug_opt/gh/cghiaxpkyapyectmmmosbn24ylcnd3qcdx3wi2olybiupbs53gla.py":34:30)
#loc18 = loc("/root/Profiler/examples/sdpa_attention/test_run/inductor_debug_opt/gh/cghiaxpkyapyectmmmosbn24ylcnd3qcdx3wi2olybiupbs53gla.py":34:46)
#loc19 = loc("/root/Profiler/examples/sdpa_attention/test_run/inductor_debug_opt/gh/cghiaxpkyapyectmmmosbn24ylcnd3qcdx3wi2olybiupbs53gla.py":34:55)
#loc20 = loc("/root/Profiler/examples/sdpa_attention/test_run/inductor_debug_opt/gh/cghiaxpkyapyectmmmosbn24ylcnd3qcdx3wi2olybiupbs53gla.py":35:31)
#loc21 = loc("/root/Profiler/examples/sdpa_attention/test_run/inductor_debug_opt/gh/cghiaxpkyapyectmmmosbn24ylcnd3qcdx3wi2olybiupbs53gla.py":35:38)
#loc22 = loc("/root/Profiler/examples/sdpa_attention/test_run/inductor_debug_opt/gh/cghiaxpkyapyectmmmosbn24ylcnd3qcdx3wi2olybiupbs53gla.py":35:77)
#loc23 = loc("/root/Profiler/examples/sdpa_attention/test_run/inductor_debug_opt/gh/cghiaxpkyapyectmmmosbn24ylcnd3qcdx3wi2olybiupbs53gla.py":36:31)
#loc24 = loc("/root/Profiler/examples/sdpa_attention/test_run/inductor_debug_opt/gh/cghiaxpkyapyectmmmosbn24ylcnd3qcdx3wi2olybiupbs53gla.py":36:38)
#loc25 = loc("/root/Profiler/examples/sdpa_attention/test_run/inductor_debug_opt/gh/cghiaxpkyapyectmmmosbn24ylcnd3qcdx3wi2olybiupbs53gla.py":36:77)
#loc26 = loc("/root/Profiler/examples/sdpa_attention/test_run/inductor_debug_opt/gh/cghiaxpkyapyectmmmosbn24ylcnd3qcdx3wi2olybiupbs53gla.py":40:24)
#loc27 = loc("/root/Profiler/examples/sdpa_attention/test_run/inductor_debug_opt/gh/cghiaxpkyapyectmmmosbn24ylcnd3qcdx3wi2olybiupbs53gla.py":40:27)
#loc28 = loc("/root/Profiler/examples/sdpa_attention/test_run/inductor_debug_opt/gh/cghiaxpkyapyectmmmosbn24ylcnd3qcdx3wi2olybiupbs53gla.py":41:32)
#loc29 = loc("/root/Profiler/examples/sdpa_attention/test_run/inductor_debug_opt/gh/cghiaxpkyapyectmmmosbn24ylcnd3qcdx3wi2olybiupbs53gla.py":42:19)
#loc30 = loc("/root/Profiler/examples/sdpa_attention/test_run/inductor_debug_opt/gh/cghiaxpkyapyectmmmosbn24ylcnd3qcdx3wi2olybiupbs53gla.py":43:19)
#loc31 = loc("/root/Profiler/examples/sdpa_attention/test_run/inductor_debug_opt/gh/cghiaxpkyapyectmmmosbn24ylcnd3qcdx3wi2olybiupbs53gla.py":44:19)
#loc32 = loc("/root/Profiler/examples/sdpa_attention/test_run/inductor_debug_opt/gh/cghiaxpkyapyectmmmosbn24ylcnd3qcdx3wi2olybiupbs53gla.py":45:20)
#loc33 = loc("/root/Profiler/examples/sdpa_attention/test_run/inductor_debug_opt/gh/cghiaxpkyapyectmmmosbn24ylcnd3qcdx3wi2olybiupbs53gla.py":47:26)
#loc34 = loc("/root/Profiler/examples/sdpa_attention/test_run/inductor_debug_opt/gh/cghiaxpkyapyectmmmosbn24ylcnd3qcdx3wi2olybiupbs53gla.py":47:29)
#loc35 = loc("/root/Profiler/examples/sdpa_attention/test_run/inductor_debug_opt/gh/cghiaxpkyapyectmmmosbn24ylcnd3qcdx3wi2olybiupbs53gla.py":48:19)
#loc36 = loc("/root/Profiler/examples/sdpa_attention/test_run/inductor_debug_opt/gh/cghiaxpkyapyectmmmosbn24ylcnd3qcdx3wi2olybiupbs53gla.py":49:35)
#loc37 = loc("/root/Profiler/examples/sdpa_attention/test_run/inductor_debug_opt/gh/cghiaxpkyapyectmmmosbn24ylcnd3qcdx3wi2olybiupbs53gla.py":50:21)
#loc38 = loc("/root/Profiler/examples/sdpa_attention/test_run/inductor_debug_opt/gh/cghiaxpkyapyectmmmosbn24ylcnd3qcdx3wi2olybiupbs53gla.py":51:35)
#loc39 = loc("/root/Profiler/examples/sdpa_attention/test_run/inductor_debug_opt/gh/cghiaxpkyapyectmmmosbn24ylcnd3qcdx3wi2olybiupbs53gla.py":52:20)
#loc40 = loc("/root/Profiler/examples/sdpa_attention/test_run/inductor_debug_opt/gh/cghiaxpkyapyectmmmosbn24ylcnd3qcdx3wi2olybiupbs53gla.py":53:28)
#loc41 = loc("/root/Profiler/examples/sdpa_attention/test_run/inductor_debug_opt/gh/cghiaxpkyapyectmmmosbn24ylcnd3qcdx3wi2olybiupbs53gla.py":54:20)
#loc42 = loc("/root/Profiler/examples/sdpa_attention/test_run/inductor_debug_opt/gh/cghiaxpkyapyectmmmosbn24ylcnd3qcdx3wi2olybiupbs53gla.py":56:20)
#loc43 = loc("/root/Profiler/examples/sdpa_attention/test_run/inductor_debug_opt/gh/cghiaxpkyapyectmmmosbn24ylcnd3qcdx3wi2olybiupbs53gla.py":58:20)
#loc44 = loc("/root/Profiler/examples/sdpa_attention/test_run/inductor_debug_opt/gh/cghiaxpkyapyectmmmosbn24ylcnd3qcdx3wi2olybiupbs53gla.py":60:36)
#loc45 = loc("/root/Profiler/examples/sdpa_attention/test_run/inductor_debug_opt/gh/cghiaxpkyapyectmmmosbn24ylcnd3qcdx3wi2olybiupbs53gla.py":60:32)
#loc46 = loc("/root/Profiler/examples/sdpa_attention/test_run/inductor_debug_opt/gh/cghiaxpkyapyectmmmosbn24ylcnd3qcdx3wi2olybiupbs53gla.py":60:25)
#loc47 = loc("/root/Profiler/examples/sdpa_attention/test_run/inductor_debug_opt/gh/cghiaxpkyapyectmmmosbn24ylcnd3qcdx3wi2olybiupbs53gla.py":60:48)
#loc48 = loc("/root/Profiler/examples/sdpa_attention/test_run/inductor_debug_opt/gh/cghiaxpkyapyectmmmosbn24ylcnd3qcdx3wi2olybiupbs53gla.py":60:4)
#loc50 = loc("/usr/local/lib/python3.10/dist-packages/triton/language/standard.py":293:36)
#loc52 = loc("/usr/local/lib/python3.10/dist-packages/triton/language/standard.py":293:11)
#loc53 = loc("/usr/local/lib/python3.10/dist-packages/triton/language/standard.py":293:4)
#loc55 = loc("/usr/local/lib/python3.10/dist-packages/triton/language/standard.py":263:15)
#loc56 = loc("/usr/local/lib/python3.10/dist-packages/triton/language/standard.py":263:11)
#loc57 = loc("/usr/local/lib/python3.10/dist-packages/triton/language/standard.py":263:4)
#loc64 = loc("xnumel"(#loc1))
#loc65 = loc("r0_numel"(#loc2))
#loc66 = loc("xoffset"(#loc3))
#loc67 = loc("xoffset"(#loc4))
#loc68 = loc("xindex"(#loc5))
#loc69 = loc("xindex"(#loc6))
#loc70 = loc("xindex"(#loc7))
#loc71 = loc("xmask"(#loc8))
#loc72 = loc("xmask"(#loc9))
#loc73 = loc("r0_index"(#loc10))
#loc74 = loc("r0_index"(#loc11))
#loc75 = loc("r0_offset"(#loc12))
#loc76 = loc("r0_mask"(#loc13))
#loc77 = loc("r0_mask"(#loc14))
#loc78 = loc("tmp0"(#loc15))
#loc79 = loc("tmp0"(#loc16))
#loc80 = loc("tmp0"(#loc17))
#loc81 = loc("tmp0"(#loc18))
#loc82 = loc("tmp0"(#loc19))
#loc83 = loc("tmp22"(#loc20))
#loc84 = loc("tmp22"(#loc21))
#loc85 = loc("tmp22"(#loc22))
#loc86 = loc("tmp25"(#loc23))
#loc87 = loc("tmp25"(#loc24))
#loc88 = loc("tmp25"(#loc25))
#loc89 = loc("tmp6"(#loc26))
#loc90 = loc("tmp6"(#loc27))
#loc91 = loc("tmp7"(#loc28))
#loc92 = loc("tmp8"(#loc29))
#loc93 = loc("tmp9"(#loc30))
#loc94 = loc("tmp10"(#loc31))
#loc95 = loc("tmp11"(#loc32))
#loc96 = loc("tmp14"(#loc33))
#loc97 = loc("tmp14"(#loc34))
#loc98 = loc("tmp15"(#loc35))
#loc99 = loc("tmp16"(#loc36))
#loc100 = loc("tmp17"(#loc37))
#loc101 = loc("tmp18"(#loc38))
#loc102 = loc("tmp19"(#loc39))
#loc103 = loc("tmp20"(#loc40))
#loc104 = loc("tmp21"(#loc41))
#loc105 = loc("tmp24"(#loc42))
#loc106 = loc("tmp27"(#loc43))
