#loc = loc("/root/Profiler/examples/sdpa_attention/test_run/inductor_debug_opt/gh/cghiaxpkyapyectmmmosbn24ylcnd3qcdx3wi2olybiupbs53gla.py":18:0)
#loc2 = loc(unknown)
#loc22 = loc("/root/Profiler/examples/sdpa_attention/test_run/inductor_debug_opt/gh/cghiaxpkyapyectmmmosbn24ylcnd3qcdx3wi2olybiupbs53gla.py":40:24)
#loc28 = loc("/root/Profiler/examples/sdpa_attention/test_run/inductor_debug_opt/gh/cghiaxpkyapyectmmmosbn24ylcnd3qcdx3wi2olybiupbs53gla.py":47:26)
#loc38 = loc("in_ptr0"(#loc))
#loc39 = loc("in_ptr1"(#loc))
#loc40 = loc("in_ptr2"(#loc))
#loc41 = loc("out_ptr2"(#loc))
#loc42 = loc("xnumel"(#loc))
#loc43 = loc("r0_numel"(#loc))
#loc63 = loc("tmp6"(#loc22))
#loc68 = loc("tmp14"(#loc28))
#loc76 = loc(callsite(#loc2 at #loc63))
#loc78 = loc(callsite(#loc2 at #loc68))
module {
  tt.func public @triton_per_fused_native_layer_norm_0(%in_ptr0: !tt.ptr<bf16> {tt.divisibility = 16 : i32} loc("in_ptr0"(#loc)), %in_ptr1: !tt.ptr<bf16> {tt.divisibility = 16 : i32} loc("in_ptr1"(#loc)), %in_ptr2: !tt.ptr<bf16> {tt.divisibility = 16 : i32} loc("in_ptr2"(#loc)), %out_ptr2: !tt.ptr<bf16> {tt.divisibility = 16 : i32} loc("out_ptr2"(#loc)), %xnumel: i32 {tt.divisibility = 16 : i32} loc("xnumel"(#loc)), %r0_numel: i32 {tt.divisibility = 16 : i32} loc("r0_numel"(#loc))) attributes {noinline = false} {
    %tmp19 = arith.constant dense<9.99999974E-6> : tensor<8x1xf32> loc(#loc44)
    %cst = arith.constant dense<5.120000e+02> : tensor<8x1xf32> loc(#loc2)
    %cst_0 = arith.constant dense<512> : tensor<8x1xi32> loc(#loc2)
    %c8_i32 = arith.constant 8 : i32 loc(#loc2)
    %xoffset = tt.get_program_id x : i32 loc(#loc45)
    %xoffset_1 = arith.muli %xoffset, %c8_i32 : i32 loc(#loc46)
    %xindex = tt.make_range {end = 8 : i32, start = 0 : i32} : tensor<8xi32> loc(#loc47)
    %xindex_2 = tt.expand_dims %xindex {axis = 1 : i32} : tensor<8xi32> -> tensor<8x1xi32> loc(#loc48)
    %xindex_3 = tt.splat %xoffset_1 : i32 -> tensor<8x1xi32> loc(#loc49)
    %xindex_4 = arith.addi %xindex_3, %xindex_2 : tensor<8x1xi32> loc(#loc49)
    %r0_index = tt.make_range {end = 512 : i32, start = 0 : i32} : tensor<512xi32> loc(#loc50)
    %r0_index_5 = tt.expand_dims %r0_index {axis = 0 : i32} : tensor<512xi32> -> tensor<1x512xi32> loc(#loc51)
    %tmp0 = arith.muli %xindex_4, %cst_0 : tensor<8x1xi32> loc(#loc52)
    %tmp0_6 = tt.broadcast %r0_index_5 : tensor<1x512xi32> -> tensor<8x512xi32> loc(#loc53)
    %tmp0_7 = tt.broadcast %tmp0 : tensor<8x1xi32> -> tensor<8x512xi32> loc(#loc53)
    %tmp0_8 = arith.addi %tmp0_6, %tmp0_7 : tensor<8x512xi32> loc(#loc53)
    %tmp0_9 = tt.splat %in_ptr0 : !tt.ptr<bf16> -> tensor<8x512x!tt.ptr<bf16>> loc(#loc54)
    %tmp0_10 = tt.addptr %tmp0_9, %tmp0_8 : tensor<8x512x!tt.ptr<bf16>>, tensor<8x512xi32> loc(#loc54)
    %tmp0_11 = tt.load %tmp0_10 : tensor<8x512x!tt.ptr<bf16>> loc(#loc55)
    %tmp0_12 = arith.extf %tmp0_11 : tensor<8x512xbf16> to tensor<8x512xf32> loc(#loc56)
    %tmp22 = tt.splat %in_ptr1 : !tt.ptr<bf16> -> tensor<1x512x!tt.ptr<bf16>> loc(#loc57)
    %tmp22_13 = tt.addptr %tmp22, %r0_index_5 : tensor<1x512x!tt.ptr<bf16>>, tensor<1x512xi32> loc(#loc57)
    %tmp22_14 = tt.load %tmp22_13 evictionPolicy = evict_last : tensor<1x512x!tt.ptr<bf16>> loc(#loc58)
    %tmp22_15 = arith.extf %tmp22_14 : tensor<1x512xbf16> to tensor<1x512xf32> loc(#loc59)
    %tmp25 = tt.splat %in_ptr2 : !tt.ptr<bf16> -> tensor<1x512x!tt.ptr<bf16>> loc(#loc60)
    %tmp25_16 = tt.addptr %tmp25, %r0_index_5 : tensor<1x512x!tt.ptr<bf16>>, tensor<1x512xi32> loc(#loc60)
    %tmp25_17 = tt.load %tmp25_16 evictionPolicy = evict_last : tensor<1x512x!tt.ptr<bf16>> loc(#loc61)
    %tmp25_18 = arith.extf %tmp25_17 : tensor<1x512xbf16> to tensor<1x512xf32> loc(#loc62)
    %tmp6 = "tt.reduce"(%tmp0_12) <{axis = 1 : i32}> ({
    ^bb0(%tmp6_26: f32 loc(callsite(#loc2 at #loc63)), %tmp6_27: f32 loc(callsite(#loc2 at #loc63))):
      %tmp6_28 = arith.addf %tmp6_26, %tmp6_27 : f32 loc(#loc79)
      tt.reduce.return %tmp6_28 : f32 loc(#loc75)
    }) : (tensor<8x512xf32>) -> tensor<8xf32> loc(#loc75)
    %tmp6_19 = tt.expand_dims %tmp6 {axis = 1 : i32} : tensor<8xf32> -> tensor<8x1xf32> loc(#loc64)
    %tmp9 = arith.divf %tmp6_19, %cst : tensor<8x1xf32> loc(#loc65)
    %tmp10 = tt.broadcast %tmp9 : tensor<8x1xf32> -> tensor<8x512xf32> loc(#loc66)
    %tmp10_20 = arith.subf %tmp0_12, %tmp10 : tensor<8x512xf32> loc(#loc66)
    %tmp11 = arith.mulf %tmp10_20, %tmp10_20 : tensor<8x512xf32> loc(#loc67)
    %tmp14 = "tt.reduce"(%tmp11) <{axis = 1 : i32}> ({
    ^bb0(%tmp14_26: f32 loc(callsite(#loc2 at #loc68)), %tmp14_27: f32 loc(callsite(#loc2 at #loc68))):
      %tmp14_28 = arith.addf %tmp14_26, %tmp14_27 : f32 loc(#loc80)
      tt.reduce.return %tmp14_28 : f32 loc(#loc77)
    }) : (tensor<8x512xf32>) -> tensor<8xf32> loc(#loc77)
    %tmp14_21 = tt.expand_dims %tmp14 {axis = 1 : i32} : tensor<8xf32> -> tensor<8x1xf32> loc(#loc69)
    %tmp17 = arith.divf %tmp14_21, %cst : tensor<8x1xf32> loc(#loc70)
    %tmp19_22 = arith.addf %tmp17, %tmp19 : tensor<8x1xf32> loc(#loc44)
    %tmp20 = tt.extern_elementwise %tmp19_22 {libname = "", libpath = "", pure = true, symbol = "__nv_rsqrtf"} : (tensor<8x1xf32>) -> tensor<8x1xf32> loc(#loc71)
    %tmp21 = tt.broadcast %tmp20 : tensor<8x1xf32> -> tensor<8x512xf32> loc(#loc72)
    %tmp21_23 = arith.mulf %tmp10_20, %tmp21 : tensor<8x512xf32> loc(#loc72)
    %tmp24 = tt.broadcast %tmp22_15 : tensor<1x512xf32> -> tensor<8x512xf32> loc(#loc73)
    %tmp24_24 = arith.mulf %tmp21_23, %tmp24 : tensor<8x512xf32> loc(#loc73)
    %tmp27 = tt.broadcast %tmp25_18 : tensor<1x512xf32> -> tensor<8x512xf32> loc(#loc74)
    %tmp27_25 = arith.addf %tmp24_24, %tmp27 : tensor<8x512xf32> loc(#loc74)
    %0 = tt.splat %out_ptr2 : !tt.ptr<bf16> -> tensor<8x512x!tt.ptr<bf16>> loc(#loc35)
    %1 = tt.addptr %0, %tmp0_8 : tensor<8x512x!tt.ptr<bf16>>, tensor<8x512xi32> loc(#loc35)
    %2 = arith.truncf %tmp27_25 : tensor<8x512xf32> to tensor<8x512xbf16> loc(#loc36)
    tt.store %1, %2 : tensor<8x512x!tt.ptr<bf16>> loc(#loc36)
    tt.return loc(#loc37)
  } loc(#loc)
} loc(#loc)
#loc1 = loc("/root/Profiler/examples/sdpa_attention/test_run/inductor_debug_opt/gh/cghiaxpkyapyectmmmosbn24ylcnd3qcdx3wi2olybiupbs53gla.py":52:20)
#loc3 = loc("/root/Profiler/examples/sdpa_attention/test_run/inductor_debug_opt/gh/cghiaxpkyapyectmmmosbn24ylcnd3qcdx3wi2olybiupbs53gla.py":24:28)
#loc4 = loc("/root/Profiler/examples/sdpa_attention/test_run/inductor_debug_opt/gh/cghiaxpkyapyectmmmosbn24ylcnd3qcdx3wi2olybiupbs53gla.py":24:33)
#loc5 = loc("/root/Profiler/examples/sdpa_attention/test_run/inductor_debug_opt/gh/cghiaxpkyapyectmmmosbn24ylcnd3qcdx3wi2olybiupbs53gla.py":25:36)
#loc6 = loc("/root/Profiler/examples/sdpa_attention/test_run/inductor_debug_opt/gh/cghiaxpkyapyectmmmosbn24ylcnd3qcdx3wi2olybiupbs53gla.py":25:44)
#loc7 = loc("/root/Profiler/examples/sdpa_attention/test_run/inductor_debug_opt/gh/cghiaxpkyapyectmmmosbn24ylcnd3qcdx3wi2olybiupbs53gla.py":25:23)
#loc8 = loc("/root/Profiler/examples/sdpa_attention/test_run/inductor_debug_opt/gh/cghiaxpkyapyectmmmosbn24ylcnd3qcdx3wi2olybiupbs53gla.py":27:28)
#loc9 = loc("/root/Profiler/examples/sdpa_attention/test_run/inductor_debug_opt/gh/cghiaxpkyapyectmmmosbn24ylcnd3qcdx3wi2olybiupbs53gla.py":27:38)
#loc10 = loc("/root/Profiler/examples/sdpa_attention/test_run/inductor_debug_opt/gh/cghiaxpkyapyectmmmosbn24ylcnd3qcdx3wi2olybiupbs53gla.py":34:41)
#loc11 = loc("/root/Profiler/examples/sdpa_attention/test_run/inductor_debug_opt/gh/cghiaxpkyapyectmmmosbn24ylcnd3qcdx3wi2olybiupbs53gla.py":34:37)
#loc12 = loc("/root/Profiler/examples/sdpa_attention/test_run/inductor_debug_opt/gh/cghiaxpkyapyectmmmosbn24ylcnd3qcdx3wi2olybiupbs53gla.py":34:30)
#loc13 = loc("/root/Profiler/examples/sdpa_attention/test_run/inductor_debug_opt/gh/cghiaxpkyapyectmmmosbn24ylcnd3qcdx3wi2olybiupbs53gla.py":34:46)
#loc14 = loc("/root/Profiler/examples/sdpa_attention/test_run/inductor_debug_opt/gh/cghiaxpkyapyectmmmosbn24ylcnd3qcdx3wi2olybiupbs53gla.py":34:55)
#loc15 = loc("/root/Profiler/examples/sdpa_attention/test_run/inductor_debug_opt/gh/cghiaxpkyapyectmmmosbn24ylcnd3qcdx3wi2olybiupbs53gla.py":35:31)
#loc16 = loc("/root/Profiler/examples/sdpa_attention/test_run/inductor_debug_opt/gh/cghiaxpkyapyectmmmosbn24ylcnd3qcdx3wi2olybiupbs53gla.py":35:38)
#loc17 = loc("/root/Profiler/examples/sdpa_attention/test_run/inductor_debug_opt/gh/cghiaxpkyapyectmmmosbn24ylcnd3qcdx3wi2olybiupbs53gla.py":35:77)
#loc18 = loc("/root/Profiler/examples/sdpa_attention/test_run/inductor_debug_opt/gh/cghiaxpkyapyectmmmosbn24ylcnd3qcdx3wi2olybiupbs53gla.py":36:31)
#loc19 = loc("/root/Profiler/examples/sdpa_attention/test_run/inductor_debug_opt/gh/cghiaxpkyapyectmmmosbn24ylcnd3qcdx3wi2olybiupbs53gla.py":36:38)
#loc20 = loc("/root/Profiler/examples/sdpa_attention/test_run/inductor_debug_opt/gh/cghiaxpkyapyectmmmosbn24ylcnd3qcdx3wi2olybiupbs53gla.py":36:77)
#loc21 = loc("/usr/local/lib/python3.10/dist-packages/triton/language/standard.py":293:36)
#loc23 = loc("/usr/local/lib/python3.10/dist-packages/triton/language/standard.py":263:15)
#loc24 = loc("/root/Profiler/examples/sdpa_attention/test_run/inductor_debug_opt/gh/cghiaxpkyapyectmmmosbn24ylcnd3qcdx3wi2olybiupbs53gla.py":40:27)
#loc25 = loc("/root/Profiler/examples/sdpa_attention/test_run/inductor_debug_opt/gh/cghiaxpkyapyectmmmosbn24ylcnd3qcdx3wi2olybiupbs53gla.py":43:19)
#loc26 = loc("/root/Profiler/examples/sdpa_attention/test_run/inductor_debug_opt/gh/cghiaxpkyapyectmmmosbn24ylcnd3qcdx3wi2olybiupbs53gla.py":44:19)
#loc27 = loc("/root/Profiler/examples/sdpa_attention/test_run/inductor_debug_opt/gh/cghiaxpkyapyectmmmosbn24ylcnd3qcdx3wi2olybiupbs53gla.py":45:20)
#loc29 = loc("/root/Profiler/examples/sdpa_attention/test_run/inductor_debug_opt/gh/cghiaxpkyapyectmmmosbn24ylcnd3qcdx3wi2olybiupbs53gla.py":47:29)
#loc30 = loc("/root/Profiler/examples/sdpa_attention/test_run/inductor_debug_opt/gh/cghiaxpkyapyectmmmosbn24ylcnd3qcdx3wi2olybiupbs53gla.py":50:21)
#loc31 = loc("/root/Profiler/examples/sdpa_attention/test_run/inductor_debug_opt/gh/cghiaxpkyapyectmmmosbn24ylcnd3qcdx3wi2olybiupbs53gla.py":53:28)
#loc32 = loc("/root/Profiler/examples/sdpa_attention/test_run/inductor_debug_opt/gh/cghiaxpkyapyectmmmosbn24ylcnd3qcdx3wi2olybiupbs53gla.py":54:20)
#loc33 = loc("/root/Profiler/examples/sdpa_attention/test_run/inductor_debug_opt/gh/cghiaxpkyapyectmmmosbn24ylcnd3qcdx3wi2olybiupbs53gla.py":56:20)
#loc34 = loc("/root/Profiler/examples/sdpa_attention/test_run/inductor_debug_opt/gh/cghiaxpkyapyectmmmosbn24ylcnd3qcdx3wi2olybiupbs53gla.py":58:20)
#loc35 = loc("/root/Profiler/examples/sdpa_attention/test_run/inductor_debug_opt/gh/cghiaxpkyapyectmmmosbn24ylcnd3qcdx3wi2olybiupbs53gla.py":60:25)
#loc36 = loc("/root/Profiler/examples/sdpa_attention/test_run/inductor_debug_opt/gh/cghiaxpkyapyectmmmosbn24ylcnd3qcdx3wi2olybiupbs53gla.py":60:48)
#loc37 = loc("/root/Profiler/examples/sdpa_attention/test_run/inductor_debug_opt/gh/cghiaxpkyapyectmmmosbn24ylcnd3qcdx3wi2olybiupbs53gla.py":60:4)
#loc44 = loc("tmp19"(#loc1))
#loc45 = loc("xoffset"(#loc3))
#loc46 = loc("xoffset"(#loc4))
#loc47 = loc("xindex"(#loc5))
#loc48 = loc("xindex"(#loc6))
#loc49 = loc("xindex"(#loc7))
#loc50 = loc("r0_index"(#loc8))
#loc51 = loc("r0_index"(#loc9))
#loc52 = loc("tmp0"(#loc10))
#loc53 = loc("tmp0"(#loc11))
#loc54 = loc("tmp0"(#loc12))
#loc55 = loc("tmp0"(#loc13))
#loc56 = loc("tmp0"(#loc14))
#loc57 = loc("tmp22"(#loc15))
#loc58 = loc("tmp22"(#loc16))
#loc59 = loc("tmp22"(#loc17))
#loc60 = loc("tmp25"(#loc18))
#loc61 = loc("tmp25"(#loc19))
#loc62 = loc("tmp25"(#loc20))
#loc64 = loc("tmp6"(#loc24))
#loc65 = loc("tmp9"(#loc25))
#loc66 = loc("tmp10"(#loc26))
#loc67 = loc("tmp11"(#loc27))
#loc69 = loc("tmp14"(#loc29))
#loc70 = loc("tmp17"(#loc30))
#loc71 = loc("tmp20"(#loc31))
#loc72 = loc("tmp21"(#loc32))
#loc73 = loc("tmp24"(#loc33))
#loc74 = loc("tmp27"(#loc34))
#loc75 = loc(callsite(#loc21 at #loc63))
#loc77 = loc(callsite(#loc21 at #loc68))
#loc79 = loc(callsite(#loc23 at #loc75))
#loc80 = loc(callsite(#loc23 at #loc77))
