#loc = loc("/root/Profiler/gpt2_optimized_inductor_debug/yj/cyjbaju5io2nhgdrhy7lwa3nwioreke5tlblqzy6jrtpom3zbbpb.py":18:0)
#loc1 = loc(unknown)
#loc22 = loc("/root/Profiler/gpt2_optimized_inductor_debug/yj/cyjbaju5io2nhgdrhy7lwa3nwioreke5tlblqzy6jrtpom3zbbpb.py":41:24)
#loc29 = loc("/root/Profiler/gpt2_optimized_inductor_debug/yj/cyjbaju5io2nhgdrhy7lwa3nwioreke5tlblqzy6jrtpom3zbbpb.py":49:26)
#loc40 = loc("in_ptr0"(#loc))
#loc41 = loc("in_ptr1"(#loc))
#loc42 = loc("in_ptr2"(#loc))
#loc43 = loc("out_ptr2"(#loc))
#loc44 = loc("xnumel"(#loc))
#loc45 = loc("r0_numel"(#loc))
#loc65 = loc("tmp8"(#loc22))
#loc71 = loc("tmp17"(#loc29))
#loc82 = loc(callsite(#loc1 at #loc65))
#loc84 = loc(callsite(#loc1 at #loc71))
module {
  tt.func public @triton_per_fused_native_layer_norm_0(%in_ptr0: !tt.ptr<bf16> {tt.divisibility = 16 : i32} loc("in_ptr0"(#loc)), %in_ptr1: !tt.ptr<bf16> {tt.divisibility = 16 : i32} loc("in_ptr1"(#loc)), %in_ptr2: !tt.ptr<bf16> {tt.divisibility = 16 : i32} loc("in_ptr2"(#loc)), %out_ptr2: !tt.ptr<bf16> {tt.divisibility = 16 : i32} loc("out_ptr2"(#loc)), %xnumel: i32 loc("xnumel"(#loc)), %r0_numel: i32 {tt.divisibility = 16 : i32} loc("r0_numel"(#loc))) attributes {noinline = false} {
    %c768_i32 = arith.constant 768 : i32 loc(#loc1)
    %cst = arith.constant dense<0.000000e+00> : tensor<1x1024xbf16> loc(#loc1)
    %tmp21 = arith.constant dense<9.99999974E-6> : tensor<1x1xf32> loc(#loc46)
    %cst_0 = arith.constant dense<7.680000e+02> : tensor<1x1xf32> loc(#loc1)
    %cst_1 = arith.constant dense<0.000000e+00> : tensor<1x1024xf32> loc(#loc1)
    %r0_mask = arith.constant dense<768> : tensor<1x1024xi32> loc(#loc47)
    %xoffset = tt.get_program_id x : i32 loc(#loc48)
    %xmask = arith.cmpi slt, %xoffset, %xnumel : i32 loc(#loc49)
    %r0_index = tt.make_range {end = 1024 : i32, start = 0 : i32} : tensor<1024xi32> loc(#loc50)
    %r0_index_2 = tt.expand_dims %r0_index {axis = 0 : i32} : tensor<1024xi32> -> tensor<1x1024xi32> loc(#loc51)
    %r0_mask_3 = arith.cmpi slt, %r0_index_2, %r0_mask : tensor<1x1024xi32> loc(#loc47)
    %tmp0 = arith.muli %xoffset, %c768_i32 : i32 loc(#loc52)
    %tmp0_4 = tt.splat %tmp0 : i32 -> tensor<1x1024xi32> loc(#loc79)
    %tmp0_5 = arith.addi %r0_index_2, %tmp0_4 : tensor<1x1024xi32> loc(#loc53)
    %tmp0_6 = tt.splat %in_ptr0 : !tt.ptr<bf16> -> tensor<1x1024x!tt.ptr<bf16>> loc(#loc54)
    %tmp0_7 = tt.addptr %tmp0_6, %tmp0_5 : tensor<1x1024x!tt.ptr<bf16>>, tensor<1x1024xi32> loc(#loc54)
    %tmp0_8 = tt.splat %xmask : i1 -> tensor<1x1024xi1> loc(#loc80)
    %tmp0_9 = arith.andi %r0_mask_3, %tmp0_8 : tensor<1x1024xi1> loc(#loc55)
    %tmp0_10 = tt.load %tmp0_7, %tmp0_9, %cst : tensor<1x1024x!tt.ptr<bf16>> loc(#loc56)
    %tmp0_11 = arith.extf %tmp0_10 : tensor<1x1024xbf16> to tensor<1x1024xf32> loc(#loc57)
    %tmp25 = tt.splat %in_ptr1 : !tt.ptr<bf16> -> tensor<1x1024x!tt.ptr<bf16>> loc(#loc58)
    %tmp25_12 = tt.addptr %tmp25, %r0_index_2 : tensor<1x1024x!tt.ptr<bf16>>, tensor<1x1024xi32> loc(#loc58)
    %tmp25_13 = tt.load %tmp25_12, %r0_mask_3, %cst evictionPolicy = evict_last : tensor<1x1024x!tt.ptr<bf16>> loc(#loc59)
    %tmp25_14 = arith.extf %tmp25_13 : tensor<1x1024xbf16> to tensor<1x1024xf32> loc(#loc60)
    %tmp28 = tt.splat %in_ptr2 : !tt.ptr<bf16> -> tensor<1x1024x!tt.ptr<bf16>> loc(#loc61)
    %tmp28_15 = tt.addptr %tmp28, %r0_index_2 : tensor<1x1024x!tt.ptr<bf16>>, tensor<1x1024xi32> loc(#loc61)
    %tmp28_16 = tt.load %tmp28_15, %r0_mask_3, %cst evictionPolicy = evict_last : tensor<1x1024x!tt.ptr<bf16>> loc(#loc62)
    %tmp28_17 = arith.extf %tmp28_16 : tensor<1x1024xbf16> to tensor<1x1024xf32> loc(#loc63)
    %tmp7 = arith.select %tmp0_9, %tmp0_11, %cst_1 : tensor<1x1024xi1>, tensor<1x1024xf32> loc(#loc64)
    %tmp8 = "tt.reduce"(%tmp7) <{axis = 1 : i32}> ({
    ^bb0(%tmp8_22: f32 loc(callsite(#loc1 at #loc65)), %tmp8_23: f32 loc(callsite(#loc1 at #loc65))):
      %tmp8_24 = arith.addf %tmp8_22, %tmp8_23 : f32 loc(#loc85)
      tt.reduce.return %tmp8_24 : f32 loc(#loc81)
    }) : (tensor<1x1024xf32>) -> tensor<1xf32> loc(#loc81)
    %tmp8_18 = tt.expand_dims %tmp8 {axis = 1 : i32} : tensor<1xf32> -> tensor<1x1xf32> loc(#loc66)
    %tmp11 = arith.divf %tmp8_18, %cst_0 : tensor<1x1xf32> loc(#loc67)
    %tmp12 = tt.broadcast %tmp11 : tensor<1x1xf32> -> tensor<1x1024xf32> loc(#loc68)
    %tmp12_19 = arith.subf %tmp0_11, %tmp12 : tensor<1x1024xf32> loc(#loc68)
    %tmp13 = arith.mulf %tmp12_19, %tmp12_19 : tensor<1x1024xf32> loc(#loc69)
    %tmp16 = arith.select %tmp0_9, %tmp13, %cst_1 : tensor<1x1024xi1>, tensor<1x1024xf32> loc(#loc70)
    %tmp17 = "tt.reduce"(%tmp16) <{axis = 1 : i32}> ({
    ^bb0(%tmp17_22: f32 loc(callsite(#loc1 at #loc71)), %tmp17_23: f32 loc(callsite(#loc1 at #loc71))):
      %tmp17_24 = arith.addf %tmp17_22, %tmp17_23 : f32 loc(#loc86)
      tt.reduce.return %tmp17_24 : f32 loc(#loc83)
    }) : (tensor<1x1024xf32>) -> tensor<1xf32> loc(#loc83)
    %tmp17_20 = tt.expand_dims %tmp17 {axis = 1 : i32} : tensor<1xf32> -> tensor<1x1xf32> loc(#loc72)
    %tmp20 = arith.divf %tmp17_20, %cst_0 : tensor<1x1xf32> loc(#loc73)
    %tmp22 = arith.addf %tmp20, %tmp21 : tensor<1x1xf32> loc(#loc74)
    %tmp23 = tt.extern_elementwise %tmp22 {libname = "", libpath = "", pure = true, symbol = "__nv_rsqrtf"} : (tensor<1x1xf32>) -> tensor<1x1xf32> loc(#loc75)
    %tmp24 = tt.broadcast %tmp23 : tensor<1x1xf32> -> tensor<1x1024xf32> loc(#loc76)
    %tmp24_21 = arith.mulf %tmp12_19, %tmp24 : tensor<1x1024xf32> loc(#loc76)
    %tmp27 = arith.mulf %tmp24_21, %tmp25_14 : tensor<1x1024xf32> loc(#loc77)
    %tmp30 = arith.addf %tmp27, %tmp28_17 : tensor<1x1024xf32> loc(#loc78)
    %0 = tt.splat %out_ptr2 : !tt.ptr<bf16> -> tensor<1x1024x!tt.ptr<bf16>> loc(#loc37)
    %1 = tt.addptr %0, %tmp0_5 : tensor<1x1024x!tt.ptr<bf16>>, tensor<1x1024xi32> loc(#loc37)
    %2 = arith.truncf %tmp30 : tensor<1x1024xf32> to tensor<1x1024xbf16> loc(#loc38)
    tt.store %1, %2, %tmp0_9 : tensor<1x1024x!tt.ptr<bf16>> loc(#loc38)
    tt.return loc(#loc39)
  } loc(#loc)
} loc(#loc)
#loc2 = loc("/root/Profiler/gpt2_optimized_inductor_debug/yj/cyjbaju5io2nhgdrhy7lwa3nwioreke5tlblqzy6jrtpom3zbbpb.py":53:35)
#loc3 = loc("/root/Profiler/gpt2_optimized_inductor_debug/yj/cyjbaju5io2nhgdrhy7lwa3nwioreke5tlblqzy6jrtpom3zbbpb.py":28:25)
#loc4 = loc("/root/Profiler/gpt2_optimized_inductor_debug/yj/cyjbaju5io2nhgdrhy7lwa3nwioreke5tlblqzy6jrtpom3zbbpb.py":23:28)
#loc5 = loc("/root/Profiler/gpt2_optimized_inductor_debug/yj/cyjbaju5io2nhgdrhy7lwa3nwioreke5tlblqzy6jrtpom3zbbpb.py":25:21)
#loc6 = loc("/root/Profiler/gpt2_optimized_inductor_debug/yj/cyjbaju5io2nhgdrhy7lwa3nwioreke5tlblqzy6jrtpom3zbbpb.py":26:28)
#loc7 = loc("/root/Profiler/gpt2_optimized_inductor_debug/yj/cyjbaju5io2nhgdrhy7lwa3nwioreke5tlblqzy6jrtpom3zbbpb.py":26:38)
#loc8 = loc("/root/Profiler/gpt2_optimized_inductor_debug/yj/cyjbaju5io2nhgdrhy7lwa3nwioreke5tlblqzy6jrtpom3zbbpb.py":33:41)
#loc9 = loc("/root/Profiler/gpt2_optimized_inductor_debug/yj/cyjbaju5io2nhgdrhy7lwa3nwioreke5tlblqzy6jrtpom3zbbpb.py":33:37)
#loc10 = loc("/root/Profiler/gpt2_optimized_inductor_debug/yj/cyjbaju5io2nhgdrhy7lwa3nwioreke5tlblqzy6jrtpom3zbbpb.py":33:30)
#loc11 = loc("/root/Profiler/gpt2_optimized_inductor_debug/yj/cyjbaju5io2nhgdrhy7lwa3nwioreke5tlblqzy6jrtpom3zbbpb.py":33:56)
#loc12 = loc("/root/Profiler/gpt2_optimized_inductor_debug/yj/cyjbaju5io2nhgdrhy7lwa3nwioreke5tlblqzy6jrtpom3zbbpb.py":33:46)
#loc13 = loc("/root/Profiler/gpt2_optimized_inductor_debug/yj/cyjbaju5io2nhgdrhy7lwa3nwioreke5tlblqzy6jrtpom3zbbpb.py":33:77)
#loc14 = loc("/root/Profiler/gpt2_optimized_inductor_debug/yj/cyjbaju5io2nhgdrhy7lwa3nwioreke5tlblqzy6jrtpom3zbbpb.py":34:31)
#loc15 = loc("/root/Profiler/gpt2_optimized_inductor_debug/yj/cyjbaju5io2nhgdrhy7lwa3nwioreke5tlblqzy6jrtpom3zbbpb.py":34:38)
#loc16 = loc("/root/Profiler/gpt2_optimized_inductor_debug/yj/cyjbaju5io2nhgdrhy7lwa3nwioreke5tlblqzy6jrtpom3zbbpb.py":34:91)
#loc17 = loc("/root/Profiler/gpt2_optimized_inductor_debug/yj/cyjbaju5io2nhgdrhy7lwa3nwioreke5tlblqzy6jrtpom3zbbpb.py":35:31)
#loc18 = loc("/root/Profiler/gpt2_optimized_inductor_debug/yj/cyjbaju5io2nhgdrhy7lwa3nwioreke5tlblqzy6jrtpom3zbbpb.py":35:38)
#loc19 = loc("/root/Profiler/gpt2_optimized_inductor_debug/yj/cyjbaju5io2nhgdrhy7lwa3nwioreke5tlblqzy6jrtpom3zbbpb.py":35:91)
#loc20 = loc("/root/Profiler/gpt2_optimized_inductor_debug/yj/cyjbaju5io2nhgdrhy7lwa3nwioreke5tlblqzy6jrtpom3zbbpb.py":40:43)
#loc21 = loc("/usr/local/lib/python3.10/dist-packages/triton/language/standard.py":293:36)
#loc23 = loc("/usr/local/lib/python3.10/dist-packages/triton/language/standard.py":263:15)
#loc24 = loc("/root/Profiler/gpt2_optimized_inductor_debug/yj/cyjbaju5io2nhgdrhy7lwa3nwioreke5tlblqzy6jrtpom3zbbpb.py":41:27)
#loc25 = loc("/root/Profiler/gpt2_optimized_inductor_debug/yj/cyjbaju5io2nhgdrhy7lwa3nwioreke5tlblqzy6jrtpom3zbbpb.py":44:20)
#loc26 = loc("/root/Profiler/gpt2_optimized_inductor_debug/yj/cyjbaju5io2nhgdrhy7lwa3nwioreke5tlblqzy6jrtpom3zbbpb.py":45:19)
#loc27 = loc("/root/Profiler/gpt2_optimized_inductor_debug/yj/cyjbaju5io2nhgdrhy7lwa3nwioreke5tlblqzy6jrtpom3zbbpb.py":46:20)
#loc28 = loc("/root/Profiler/gpt2_optimized_inductor_debug/yj/cyjbaju5io2nhgdrhy7lwa3nwioreke5tlblqzy6jrtpom3zbbpb.py":48:45)
#loc30 = loc("/root/Profiler/gpt2_optimized_inductor_debug/yj/cyjbaju5io2nhgdrhy7lwa3nwioreke5tlblqzy6jrtpom3zbbpb.py":49:29)
#loc31 = loc("/root/Profiler/gpt2_optimized_inductor_debug/yj/cyjbaju5io2nhgdrhy7lwa3nwioreke5tlblqzy6jrtpom3zbbpb.py":52:21)
#loc32 = loc("/root/Profiler/gpt2_optimized_inductor_debug/yj/cyjbaju5io2nhgdrhy7lwa3nwioreke5tlblqzy6jrtpom3zbbpb.py":54:20)
#loc33 = loc("/root/Profiler/gpt2_optimized_inductor_debug/yj/cyjbaju5io2nhgdrhy7lwa3nwioreke5tlblqzy6jrtpom3zbbpb.py":55:28)
#loc34 = loc("/root/Profiler/gpt2_optimized_inductor_debug/yj/cyjbaju5io2nhgdrhy7lwa3nwioreke5tlblqzy6jrtpom3zbbpb.py":56:20)
#loc35 = loc("/root/Profiler/gpt2_optimized_inductor_debug/yj/cyjbaju5io2nhgdrhy7lwa3nwioreke5tlblqzy6jrtpom3zbbpb.py":58:20)
#loc36 = loc("/root/Profiler/gpt2_optimized_inductor_debug/yj/cyjbaju5io2nhgdrhy7lwa3nwioreke5tlblqzy6jrtpom3zbbpb.py":60:20)
#loc37 = loc("/root/Profiler/gpt2_optimized_inductor_debug/yj/cyjbaju5io2nhgdrhy7lwa3nwioreke5tlblqzy6jrtpom3zbbpb.py":62:25)
#loc38 = loc("/root/Profiler/gpt2_optimized_inductor_debug/yj/cyjbaju5io2nhgdrhy7lwa3nwioreke5tlblqzy6jrtpom3zbbpb.py":62:48)
#loc39 = loc("/root/Profiler/gpt2_optimized_inductor_debug/yj/cyjbaju5io2nhgdrhy7lwa3nwioreke5tlblqzy6jrtpom3zbbpb.py":62:4)
#loc46 = loc("tmp21"(#loc2))
#loc47 = loc("r0_mask"(#loc3))
#loc48 = loc("xoffset"(#loc4))
#loc49 = loc("xmask"(#loc5))
#loc50 = loc("r0_index"(#loc6))
#loc51 = loc("r0_index"(#loc7))
#loc52 = loc("tmp0"(#loc8))
#loc53 = loc("tmp0"(#loc9))
#loc54 = loc("tmp0"(#loc10))
#loc55 = loc("tmp0"(#loc11))
#loc56 = loc("tmp0"(#loc12))
#loc57 = loc("tmp0"(#loc13))
#loc58 = loc("tmp25"(#loc14))
#loc59 = loc("tmp25"(#loc15))
#loc60 = loc("tmp25"(#loc16))
#loc61 = loc("tmp28"(#loc17))
#loc62 = loc("tmp28"(#loc18))
#loc63 = loc("tmp28"(#loc19))
#loc64 = loc("tmp7"(#loc20))
#loc66 = loc("tmp8"(#loc24))
#loc67 = loc("tmp11"(#loc25))
#loc68 = loc("tmp12"(#loc26))
#loc69 = loc("tmp13"(#loc27))
#loc70 = loc("tmp16"(#loc28))
#loc72 = loc("tmp17"(#loc30))
#loc73 = loc("tmp20"(#loc31))
#loc74 = loc("tmp22"(#loc32))
#loc75 = loc("tmp23"(#loc33))
#loc76 = loc("tmp24"(#loc34))
#loc77 = loc("tmp27"(#loc35))
#loc78 = loc("tmp30"(#loc36))
#loc79 = loc(fused[#loc53, #loc52])
#loc80 = loc(fused[#loc55, #loc49])
#loc81 = loc(callsite(#loc21 at #loc65))
#loc83 = loc(callsite(#loc21 at #loc71))
#loc85 = loc(callsite(#loc23 at #loc81))
#loc86 = loc(callsite(#loc23 at #loc83))
