#loc = loc("/root/Profiler/gpt2_optimized_inductor_debug/yj/cyjbaju5io2nhgdrhy7lwa3nwioreke5tlblqzy6jrtpom3zbbpb.py":18:0)
#loc54 = loc("/usr/local/lib/python3.10/dist-packages/triton/language/standard.py":287:0)
#loc56 = loc(unknown)
#loc59 = loc("/usr/local/lib/python3.10/dist-packages/triton/language/standard.py":262:0)
#loc63 = loc("in_ptr0"(#loc))
#loc64 = loc("in_ptr1"(#loc))
#loc65 = loc("in_ptr2"(#loc))
#loc66 = loc("out_ptr2"(#loc))
#loc67 = loc("xnumel"(#loc))
#loc68 = loc("r0_numel"(#loc))
#loc116 = loc("input"(#loc54))
#loc117 = loc("a"(#loc59))
#loc118 = loc("b"(#loc59))
module {
  tt.func public @triton_per_fused_native_layer_norm_0(%in_ptr0: !tt.ptr<bf16> {tt.divisibility = 16 : i32} loc("in_ptr0"(#loc)), %in_ptr1: !tt.ptr<bf16> {tt.divisibility = 16 : i32} loc("in_ptr1"(#loc)), %in_ptr2: !tt.ptr<bf16> {tt.divisibility = 16 : i32} loc("in_ptr2"(#loc)), %out_ptr2: !tt.ptr<bf16> {tt.divisibility = 16 : i32} loc("out_ptr2"(#loc)), %xnumel: i32 loc("xnumel"(#loc)), %r0_numel: i32 {tt.divisibility = 16 : i32} loc("r0_numel"(#loc))) attributes {noinline = false} {
    %r0_numel_0 = arith.constant 768 : i32 loc(#loc69)
    %xoffset = tt.get_program_id x : i32 loc(#loc70)
    %xoffset_1 = arith.constant 1 : i32 loc(#loc71)
    %xoffset_2 = arith.constant 1 : i32 loc(#loc71)
    %xoffset_3 = arith.muli %xoffset, %xoffset_2 : i32 loc(#loc71)
    %xindex = tt.make_range {end = 1 : i32, start = 0 : i32} : tensor<1xi32> loc(#loc72)
    %xindex_4 = tt.expand_dims %xindex {axis = 1 : i32} : tensor<1xi32> -> tensor<1x1xi32> loc(#loc73)
    %xindex_5 = tt.splat %xoffset_3 : i32 -> tensor<1x1xi32> loc(#loc74)
    %xindex_6 = arith.addi %xindex_5, %xindex_4 : tensor<1x1xi32> loc(#loc74)
    %xmask = tt.splat %xnumel : i32 -> tensor<1x1xi32> loc(#loc75)
    %xmask_7 = arith.cmpi slt, %xindex_6, %xmask : tensor<1x1xi32> loc(#loc75)
    %r0_index = tt.make_range {end = 1024 : i32, start = 0 : i32} : tensor<1024xi32> loc(#loc76)
    %r0_index_8 = tt.expand_dims %r0_index {axis = 0 : i32} : tensor<1024xi32> -> tensor<1x1024xi32> loc(#loc77)
    %r0_offset = arith.constant 0 : i32 loc(#loc78)
    %r0_mask = arith.constant dense<768> : tensor<1x1024xi32> loc(#loc79)
    %r0_mask_9 = arith.cmpi slt, %r0_index_8, %r0_mask : tensor<1x1024xi32> loc(#loc79)
    %tmp0 = arith.constant 768 : i32 loc(#loc80)
    %tmp0_10 = arith.constant 768 : i32 loc(#loc80)
    %tmp0_11 = arith.constant dense<768> : tensor<1x1xi32> loc(#loc80)
    %tmp0_12 = arith.muli %tmp0_11, %xindex_6 : tensor<1x1xi32> loc(#loc80)
    %tmp0_13 = tt.broadcast %tmp0_12 : tensor<1x1xi32> -> tensor<1x1024xi32> loc(#loc81)
    %tmp0_14 = arith.addi %r0_index_8, %tmp0_13 : tensor<1x1024xi32> loc(#loc81)
    %tmp0_15 = tt.splat %in_ptr0 : !tt.ptr<bf16> -> tensor<1x1024x!tt.ptr<bf16>> loc(#loc82)
    %tmp0_16 = tt.addptr %tmp0_15, %tmp0_14 : tensor<1x1024x!tt.ptr<bf16>>, tensor<1x1024xi32> loc(#loc82)
    %tmp0_17 = tt.broadcast %xmask_7 : tensor<1x1xi1> -> tensor<1x1024xi1> loc(#loc83)
    %tmp0_18 = arith.andi %r0_mask_9, %tmp0_17 : tensor<1x1024xi1> loc(#loc83)
    %tmp0_19 = arith.constant 0.000000e+00 : f32 loc(#loc84)
    %tmp0_20 = arith.constant dense<0.000000e+00> : tensor<1x1024xf32> loc(#loc84)
    %tmp0_21 = arith.truncf %tmp0_20 : tensor<1x1024xf32> to tensor<1x1024xbf16> loc(#loc84)
    %tmp0_22 = tt.load %tmp0_16, %tmp0_18, %tmp0_21 : tensor<1x1024x!tt.ptr<bf16>> loc(#loc84)
    %tmp0_23 = arith.extf %tmp0_22 : tensor<1x1024xbf16> to tensor<1x1024xf32> loc(#loc85)
    %tmp25 = tt.splat %in_ptr1 : !tt.ptr<bf16> -> tensor<1x1024x!tt.ptr<bf16>> loc(#loc86)
    %tmp25_24 = tt.addptr %tmp25, %r0_index_8 : tensor<1x1024x!tt.ptr<bf16>>, tensor<1x1024xi32> loc(#loc86)
    %tmp25_25 = arith.constant 0.000000e+00 : f32 loc(#loc87)
    %tmp25_26 = arith.constant dense<0.000000e+00> : tensor<1x1024xf32> loc(#loc87)
    %tmp25_27 = arith.truncf %tmp25_26 : tensor<1x1024xf32> to tensor<1x1024xbf16> loc(#loc87)
    %tmp25_28 = tt.load %tmp25_24, %r0_mask_9, %tmp25_27 evictionPolicy = evict_last : tensor<1x1024x!tt.ptr<bf16>> loc(#loc87)
    %tmp25_29 = arith.extf %tmp25_28 : tensor<1x1024xbf16> to tensor<1x1024xf32> loc(#loc88)
    %tmp28 = tt.splat %in_ptr2 : !tt.ptr<bf16> -> tensor<1x1024x!tt.ptr<bf16>> loc(#loc89)
    %tmp28_30 = tt.addptr %tmp28, %r0_index_8 : tensor<1x1024x!tt.ptr<bf16>>, tensor<1x1024xi32> loc(#loc89)
    %tmp28_31 = arith.constant 0.000000e+00 : f32 loc(#loc90)
    %tmp28_32 = arith.constant dense<0.000000e+00> : tensor<1x1024xf32> loc(#loc90)
    %tmp28_33 = arith.truncf %tmp28_32 : tensor<1x1024xf32> to tensor<1x1024xbf16> loc(#loc90)
    %tmp28_34 = tt.load %tmp28_30, %r0_mask_9, %tmp28_33 evictionPolicy = evict_last : tensor<1x1024x!tt.ptr<bf16>> loc(#loc90)
    %tmp28_35 = arith.extf %tmp28_34 : tensor<1x1024xbf16> to tensor<1x1024xf32> loc(#loc91)
    %tmp4 = tt.broadcast %xmask_7 : tensor<1x1xi1> -> tensor<1x1024xi1> loc(#loc92)
    %tmp4_36 = arith.andi %r0_mask_9, %tmp4 : tensor<1x1024xi1> loc(#loc92)
    %tmp4_37 = arith.constant 0 : i32 loc(#loc93)
    %tmp4_38 = arith.constant 0.000000e+00 : f32 loc(#loc93)
    %tmp4_39 = arith.constant dense<0.000000e+00> : tensor<1x1024xf32> loc(#loc93)
    %tmp4_40 = arith.select %tmp4_36, %tmp0_23, %tmp4_39 : tensor<1x1024xi1>, tensor<1x1024xf32> loc(#loc93)
    %tmp7 = tt.broadcast %xmask_7 : tensor<1x1xi1> -> tensor<1x1024xi1> loc(#loc94)
    %tmp7_41 = arith.andi %r0_mask_9, %tmp7 : tensor<1x1024xi1> loc(#loc94)
    %tmp7_42 = arith.constant 0 : i32 loc(#loc95)
    %tmp7_43 = arith.constant 0.000000e+00 : f32 loc(#loc95)
    %tmp7_44 = arith.constant dense<0.000000e+00> : tensor<1x1024xf32> loc(#loc95)
    %tmp7_45 = arith.select %tmp7_41, %tmp0_23, %tmp7_44 : tensor<1x1024xi1>, tensor<1x1024xf32> loc(#loc95)
    %tmp8 = tt.call @"triton.language.standard.sum__fp32S1_1024S__(1,)cconstexpr_1__(2,)cconstexpr_False__(3,)cNone"(%tmp7_45) : (tensor<1x1024xf32>) -> tensor<1xf32> loc(#loc96)
    %tmp8_46 = tt.expand_dims %tmp8 {axis = 1 : i32} : tensor<1xf32> -> tensor<1x1xf32> loc(#loc97)
    %tmp9 = arith.constant 768 : i32 loc(#loc98)
    %tmp9_47 = arith.constant dense<768> : tensor<1x1xi32> loc(#loc98)
    %tmp10 = arith.sitofp %tmp9_47 : tensor<1x1xi32> to tensor<1x1xf32> loc(#loc99)
    %tmp11 = arith.divf %tmp8_46, %tmp10 : tensor<1x1xf32> loc(#loc100)
    %tmp12 = tt.broadcast %tmp11 : tensor<1x1xf32> -> tensor<1x1024xf32> loc(#loc101)
    %tmp12_48 = arith.subf %tmp0_23, %tmp12 : tensor<1x1024xf32> loc(#loc101)
    %tmp13 = arith.mulf %tmp12_48, %tmp12_48 : tensor<1x1024xf32> loc(#loc102)
    %tmp16 = tt.broadcast %xmask_7 : tensor<1x1xi1> -> tensor<1x1024xi1> loc(#loc103)
    %tmp16_49 = arith.andi %r0_mask_9, %tmp16 : tensor<1x1024xi1> loc(#loc103)
    %tmp16_50 = arith.constant 0 : i32 loc(#loc104)
    %tmp16_51 = arith.constant 0.000000e+00 : f32 loc(#loc104)
    %tmp16_52 = arith.constant dense<0.000000e+00> : tensor<1x1024xf32> loc(#loc104)
    %tmp16_53 = arith.select %tmp16_49, %tmp13, %tmp16_52 : tensor<1x1024xi1>, tensor<1x1024xf32> loc(#loc104)
    %tmp17 = tt.call @"triton.language.standard.sum__fp32S1_1024S__(1,)cconstexpr_1__(2,)cconstexpr_False__(3,)cNone"(%tmp16_53) : (tensor<1x1024xf32>) -> tensor<1xf32> loc(#loc105)
    %tmp17_54 = tt.expand_dims %tmp17 {axis = 1 : i32} : tensor<1xf32> -> tensor<1x1xf32> loc(#loc106)
    %tmp18 = tt.broadcast %tmp11 : tensor<1x1xf32> -> tensor<1x1024xf32> loc(#loc107)
    %tmp18_55 = arith.subf %tmp0_23, %tmp18 : tensor<1x1024xf32> loc(#loc107)
    %tmp19 = arith.constant 7.680000e+02 : f32 loc(#loc108)
    %tmp19_56 = arith.constant dense<7.680000e+02> : tensor<1x1xf32> loc(#loc108)
    %tmp20 = arith.divf %tmp17_54, %tmp19_56 : tensor<1x1xf32> loc(#loc109)
    %tmp21 = arith.constant 9.99999974E-6 : f32 loc(#loc110)
    %tmp21_57 = arith.constant dense<9.99999974E-6> : tensor<1x1xf32> loc(#loc110)
    %tmp22 = arith.addf %tmp20, %tmp21_57 : tensor<1x1xf32> loc(#loc111)
    %tmp23 = tt.extern_elementwise %tmp22 {libname = "", libpath = "", pure = true, symbol = "__nv_rsqrtf"} : (tensor<1x1xf32>) -> tensor<1x1xf32> loc(#loc112)
    %tmp24 = tt.broadcast %tmp23 : tensor<1x1xf32> -> tensor<1x1024xf32> loc(#loc113)
    %tmp24_58 = arith.mulf %tmp18_55, %tmp24 : tensor<1x1024xf32> loc(#loc113)
    %tmp27 = arith.mulf %tmp24_58, %tmp25_29 : tensor<1x1024xf32> loc(#loc114)
    %tmp30 = arith.addf %tmp27, %tmp28_35 : tensor<1x1024xf32> loc(#loc115)
    %c768_i32 = arith.constant 768 : i32 loc(#loc48)
    %c768_i32_59 = arith.constant 768 : i32 loc(#loc48)
    %cst = arith.constant dense<768> : tensor<1x1xi32> loc(#loc48)
    %0 = arith.muli %cst, %xindex_6 : tensor<1x1xi32> loc(#loc48)
    %1 = tt.broadcast %0 : tensor<1x1xi32> -> tensor<1x1024xi32> loc(#loc49)
    %2 = arith.addi %r0_index_8, %1 : tensor<1x1024xi32> loc(#loc49)
    %3 = tt.splat %out_ptr2 : !tt.ptr<bf16> -> tensor<1x1024x!tt.ptr<bf16>> loc(#loc50)
    %4 = tt.addptr %3, %2 : tensor<1x1024x!tt.ptr<bf16>>, tensor<1x1024xi32> loc(#loc50)
    %5 = tt.broadcast %xmask_7 : tensor<1x1xi1> -> tensor<1x1024xi1> loc(#loc51)
    %6 = arith.andi %r0_mask_9, %5 : tensor<1x1024xi1> loc(#loc51)
    %7 = arith.truncf %tmp30 : tensor<1x1024xf32> to tensor<1x1024xbf16> loc(#loc52)
    tt.store %4, %7, %6 : tensor<1x1024x!tt.ptr<bf16>> loc(#loc52)
    tt.return loc(#loc53)
  } loc(#loc)
  tt.func private @"triton.language.standard.sum__fp32S1_1024S__(1,)cconstexpr_1__(2,)cconstexpr_False__(3,)cNone"(%input: tensor<1x1024xf32> loc("input"(#loc54))) -> tensor<1xf32> attributes {noinline = false} {
    %0 = "tt.reduce"(%input) <{axis = 1 : i32}> ({
    ^bb0(%arg1: f32 loc(unknown), %arg2: f32 loc(unknown)):
      %2 = tt.call @triton.language.standard._sum_combine__fp32_fp32__(%arg1, %arg2) : (f32, f32) -> f32 loc(#loc55)
      tt.reduce.return %2 : f32 loc(#loc55)
    }) : (tensor<1x1024xf32>) -> tensor<1xf32> loc(#loc55)
    tt.return %0 : tensor<1xf32> loc(#loc57)
  ^bb1:  // no predecessors
    %1 = ub.poison : tensor<1xf32> loc(#loc58)
    tt.return %1 : tensor<1xf32> loc(#loc58)
  } loc(#loc54)
  tt.func private @triton.language.standard._sum_combine__fp32_fp32__(%a: f32 loc("a"(#loc59)), %b: f32 loc("b"(#loc59))) -> f32 attributes {noinline = false} {
    %0 = arith.addf %a, %b : f32 loc(#loc60)
    tt.return %0 : f32 loc(#loc61)
  ^bb1:  // no predecessors
    %1 = ub.poison : f32 loc(#loc62)
    tt.return %1 : f32 loc(#loc62)
  } loc(#loc59)
} loc(#loc)
#loc1 = loc("/root/Profiler/gpt2_optimized_inductor_debug/yj/cyjbaju5io2nhgdrhy7lwa3nwioreke5tlblqzy6jrtpom3zbbpb.py":19:15)
#loc2 = loc("/root/Profiler/gpt2_optimized_inductor_debug/yj/cyjbaju5io2nhgdrhy7lwa3nwioreke5tlblqzy6jrtpom3zbbpb.py":23:28)
#loc3 = loc("/root/Profiler/gpt2_optimized_inductor_debug/yj/cyjbaju5io2nhgdrhy7lwa3nwioreke5tlblqzy6jrtpom3zbbpb.py":23:33)
#loc4 = loc("/root/Profiler/gpt2_optimized_inductor_debug/yj/cyjbaju5io2nhgdrhy7lwa3nwioreke5tlblqzy6jrtpom3zbbpb.py":24:36)
#loc5 = loc("/root/Profiler/gpt2_optimized_inductor_debug/yj/cyjbaju5io2nhgdrhy7lwa3nwioreke5tlblqzy6jrtpom3zbbpb.py":24:44)
#loc6 = loc("/root/Profiler/gpt2_optimized_inductor_debug/yj/cyjbaju5io2nhgdrhy7lwa3nwioreke5tlblqzy6jrtpom3zbbpb.py":24:23)
#loc7 = loc("/root/Profiler/gpt2_optimized_inductor_debug/yj/cyjbaju5io2nhgdrhy7lwa3nwioreke5tlblqzy6jrtpom3zbbpb.py":25:21)
#loc8 = loc("/root/Profiler/gpt2_optimized_inductor_debug/yj/cyjbaju5io2nhgdrhy7lwa3nwioreke5tlblqzy6jrtpom3zbbpb.py":26:28)
#loc9 = loc("/root/Profiler/gpt2_optimized_inductor_debug/yj/cyjbaju5io2nhgdrhy7lwa3nwioreke5tlblqzy6jrtpom3zbbpb.py":26:38)
#loc10 = loc("/root/Profiler/gpt2_optimized_inductor_debug/yj/cyjbaju5io2nhgdrhy7lwa3nwioreke5tlblqzy6jrtpom3zbbpb.py":27:16)
#loc11 = loc("/root/Profiler/gpt2_optimized_inductor_debug/yj/cyjbaju5io2nhgdrhy7lwa3nwioreke5tlblqzy6jrtpom3zbbpb.py":28:25)
#loc12 = loc("/root/Profiler/gpt2_optimized_inductor_debug/yj/cyjbaju5io2nhgdrhy7lwa3nwioreke5tlblqzy6jrtpom3zbbpb.py":33:41)
#loc13 = loc("/root/Profiler/gpt2_optimized_inductor_debug/yj/cyjbaju5io2nhgdrhy7lwa3nwioreke5tlblqzy6jrtpom3zbbpb.py":33:37)
#loc14 = loc("/root/Profiler/gpt2_optimized_inductor_debug/yj/cyjbaju5io2nhgdrhy7lwa3nwioreke5tlblqzy6jrtpom3zbbpb.py":33:30)
#loc15 = loc("/root/Profiler/gpt2_optimized_inductor_debug/yj/cyjbaju5io2nhgdrhy7lwa3nwioreke5tlblqzy6jrtpom3zbbpb.py":33:56)
#loc16 = loc("/root/Profiler/gpt2_optimized_inductor_debug/yj/cyjbaju5io2nhgdrhy7lwa3nwioreke5tlblqzy6jrtpom3zbbpb.py":33:46)
#loc17 = loc("/root/Profiler/gpt2_optimized_inductor_debug/yj/cyjbaju5io2nhgdrhy7lwa3nwioreke5tlblqzy6jrtpom3zbbpb.py":33:77)
#loc18 = loc("/root/Profiler/gpt2_optimized_inductor_debug/yj/cyjbaju5io2nhgdrhy7lwa3nwioreke5tlblqzy6jrtpom3zbbpb.py":34:31)
#loc19 = loc("/root/Profiler/gpt2_optimized_inductor_debug/yj/cyjbaju5io2nhgdrhy7lwa3nwioreke5tlblqzy6jrtpom3zbbpb.py":34:38)
#loc20 = loc("/root/Profiler/gpt2_optimized_inductor_debug/yj/cyjbaju5io2nhgdrhy7lwa3nwioreke5tlblqzy6jrtpom3zbbpb.py":34:91)
#loc21 = loc("/root/Profiler/gpt2_optimized_inductor_debug/yj/cyjbaju5io2nhgdrhy7lwa3nwioreke5tlblqzy6jrtpom3zbbpb.py":35:31)
#loc22 = loc("/root/Profiler/gpt2_optimized_inductor_debug/yj/cyjbaju5io2nhgdrhy7lwa3nwioreke5tlblqzy6jrtpom3zbbpb.py":35:38)
#loc23 = loc("/root/Profiler/gpt2_optimized_inductor_debug/yj/cyjbaju5io2nhgdrhy7lwa3nwioreke5tlblqzy6jrtpom3zbbpb.py":35:91)
#loc24 = loc("/root/Profiler/gpt2_optimized_inductor_debug/yj/cyjbaju5io2nhgdrhy7lwa3nwioreke5tlblqzy6jrtpom3zbbpb.py":38:30)
#loc25 = loc("/root/Profiler/gpt2_optimized_inductor_debug/yj/cyjbaju5io2nhgdrhy7lwa3nwioreke5tlblqzy6jrtpom3zbbpb.py":38:43)
#loc26 = loc("/root/Profiler/gpt2_optimized_inductor_debug/yj/cyjbaju5io2nhgdrhy7lwa3nwioreke5tlblqzy6jrtpom3zbbpb.py":40:30)
#loc27 = loc("/root/Profiler/gpt2_optimized_inductor_debug/yj/cyjbaju5io2nhgdrhy7lwa3nwioreke5tlblqzy6jrtpom3zbbpb.py":40:43)
#loc28 = loc("/root/Profiler/gpt2_optimized_inductor_debug/yj/cyjbaju5io2nhgdrhy7lwa3nwioreke5tlblqzy6jrtpom3zbbpb.py":41:24)
#loc29 = loc("/root/Profiler/gpt2_optimized_inductor_debug/yj/cyjbaju5io2nhgdrhy7lwa3nwioreke5tlblqzy6jrtpom3zbbpb.py":41:27)
#loc30 = loc("/root/Profiler/gpt2_optimized_inductor_debug/yj/cyjbaju5io2nhgdrhy7lwa3nwioreke5tlblqzy6jrtpom3zbbpb.py":42:32)
#loc31 = loc("/root/Profiler/gpt2_optimized_inductor_debug/yj/cyjbaju5io2nhgdrhy7lwa3nwioreke5tlblqzy6jrtpom3zbbpb.py":43:20)
#loc32 = loc("/root/Profiler/gpt2_optimized_inductor_debug/yj/cyjbaju5io2nhgdrhy7lwa3nwioreke5tlblqzy6jrtpom3zbbpb.py":44:20)
#loc33 = loc("/root/Profiler/gpt2_optimized_inductor_debug/yj/cyjbaju5io2nhgdrhy7lwa3nwioreke5tlblqzy6jrtpom3zbbpb.py":45:19)
#loc34 = loc("/root/Profiler/gpt2_optimized_inductor_debug/yj/cyjbaju5io2nhgdrhy7lwa3nwioreke5tlblqzy6jrtpom3zbbpb.py":46:20)
#loc35 = loc("/root/Profiler/gpt2_optimized_inductor_debug/yj/cyjbaju5io2nhgdrhy7lwa3nwioreke5tlblqzy6jrtpom3zbbpb.py":48:31)
#loc36 = loc("/root/Profiler/gpt2_optimized_inductor_debug/yj/cyjbaju5io2nhgdrhy7lwa3nwioreke5tlblqzy6jrtpom3zbbpb.py":48:45)
#loc37 = loc("/root/Profiler/gpt2_optimized_inductor_debug/yj/cyjbaju5io2nhgdrhy7lwa3nwioreke5tlblqzy6jrtpom3zbbpb.py":49:26)
#loc38 = loc("/root/Profiler/gpt2_optimized_inductor_debug/yj/cyjbaju5io2nhgdrhy7lwa3nwioreke5tlblqzy6jrtpom3zbbpb.py":49:29)
#loc39 = loc("/root/Profiler/gpt2_optimized_inductor_debug/yj/cyjbaju5io2nhgdrhy7lwa3nwioreke5tlblqzy6jrtpom3zbbpb.py":50:19)
#loc40 = loc("/root/Profiler/gpt2_optimized_inductor_debug/yj/cyjbaju5io2nhgdrhy7lwa3nwioreke5tlblqzy6jrtpom3zbbpb.py":51:35)
#loc41 = loc("/root/Profiler/gpt2_optimized_inductor_debug/yj/cyjbaju5io2nhgdrhy7lwa3nwioreke5tlblqzy6jrtpom3zbbpb.py":52:21)
#loc42 = loc("/root/Profiler/gpt2_optimized_inductor_debug/yj/cyjbaju5io2nhgdrhy7lwa3nwioreke5tlblqzy6jrtpom3zbbpb.py":53:35)
#loc43 = loc("/root/Profiler/gpt2_optimized_inductor_debug/yj/cyjbaju5io2nhgdrhy7lwa3nwioreke5tlblqzy6jrtpom3zbbpb.py":54:20)
#loc44 = loc("/root/Profiler/gpt2_optimized_inductor_debug/yj/cyjbaju5io2nhgdrhy7lwa3nwioreke5tlblqzy6jrtpom3zbbpb.py":55:28)
#loc45 = loc("/root/Profiler/gpt2_optimized_inductor_debug/yj/cyjbaju5io2nhgdrhy7lwa3nwioreke5tlblqzy6jrtpom3zbbpb.py":56:20)
#loc46 = loc("/root/Profiler/gpt2_optimized_inductor_debug/yj/cyjbaju5io2nhgdrhy7lwa3nwioreke5tlblqzy6jrtpom3zbbpb.py":58:20)
#loc47 = loc("/root/Profiler/gpt2_optimized_inductor_debug/yj/cyjbaju5io2nhgdrhy7lwa3nwioreke5tlblqzy6jrtpom3zbbpb.py":60:20)
#loc48 = loc("/root/Profiler/gpt2_optimized_inductor_debug/yj/cyjbaju5io2nhgdrhy7lwa3nwioreke5tlblqzy6jrtpom3zbbpb.py":62:36)
#loc49 = loc("/root/Profiler/gpt2_optimized_inductor_debug/yj/cyjbaju5io2nhgdrhy7lwa3nwioreke5tlblqzy6jrtpom3zbbpb.py":62:32)
#loc50 = loc("/root/Profiler/gpt2_optimized_inductor_debug/yj/cyjbaju5io2nhgdrhy7lwa3nwioreke5tlblqzy6jrtpom3zbbpb.py":62:25)
#loc51 = loc("/root/Profiler/gpt2_optimized_inductor_debug/yj/cyjbaju5io2nhgdrhy7lwa3nwioreke5tlblqzy6jrtpom3zbbpb.py":62:58)
#loc52 = loc("/root/Profiler/gpt2_optimized_inductor_debug/yj/cyjbaju5io2nhgdrhy7lwa3nwioreke5tlblqzy6jrtpom3zbbpb.py":62:48)
#loc53 = loc("/root/Profiler/gpt2_optimized_inductor_debug/yj/cyjbaju5io2nhgdrhy7lwa3nwioreke5tlblqzy6jrtpom3zbbpb.py":62:4)
#loc55 = loc("/usr/local/lib/python3.10/dist-packages/triton/language/standard.py":293:36)
#loc57 = loc("/usr/local/lib/python3.10/dist-packages/triton/language/standard.py":293:11)
#loc58 = loc("/usr/local/lib/python3.10/dist-packages/triton/language/standard.py":293:4)
#loc60 = loc("/usr/local/lib/python3.10/dist-packages/triton/language/standard.py":263:15)
#loc61 = loc("/usr/local/lib/python3.10/dist-packages/triton/language/standard.py":263:11)
#loc62 = loc("/usr/local/lib/python3.10/dist-packages/triton/language/standard.py":263:4)
#loc69 = loc("r0_numel"(#loc1))
#loc70 = loc("xoffset"(#loc2))
#loc71 = loc("xoffset"(#loc3))
#loc72 = loc("xindex"(#loc4))
#loc73 = loc("xindex"(#loc5))
#loc74 = loc("xindex"(#loc6))
#loc75 = loc("xmask"(#loc7))
#loc76 = loc("r0_index"(#loc8))
#loc77 = loc("r0_index"(#loc9))
#loc78 = loc("r0_offset"(#loc10))
#loc79 = loc("r0_mask"(#loc11))
#loc80 = loc("tmp0"(#loc12))
#loc81 = loc("tmp0"(#loc13))
#loc82 = loc("tmp0"(#loc14))
#loc83 = loc("tmp0"(#loc15))
#loc84 = loc("tmp0"(#loc16))
#loc85 = loc("tmp0"(#loc17))
#loc86 = loc("tmp25"(#loc18))
#loc87 = loc("tmp25"(#loc19))
#loc88 = loc("tmp25"(#loc20))
#loc89 = loc("tmp28"(#loc21))
#loc90 = loc("tmp28"(#loc22))
#loc91 = loc("tmp28"(#loc23))
#loc92 = loc("tmp4"(#loc24))
#loc93 = loc("tmp4"(#loc25))
#loc94 = loc("tmp7"(#loc26))
#loc95 = loc("tmp7"(#loc27))
#loc96 = loc("tmp8"(#loc28))
#loc97 = loc("tmp8"(#loc29))
#loc98 = loc("tmp9"(#loc30))
#loc99 = loc("tmp10"(#loc31))
#loc100 = loc("tmp11"(#loc32))
#loc101 = loc("tmp12"(#loc33))
#loc102 = loc("tmp13"(#loc34))
#loc103 = loc("tmp16"(#loc35))
#loc104 = loc("tmp16"(#loc36))
#loc105 = loc("tmp17"(#loc37))
#loc106 = loc("tmp17"(#loc38))
#loc107 = loc("tmp18"(#loc39))
#loc108 = loc("tmp19"(#loc40))
#loc109 = loc("tmp20"(#loc41))
#loc110 = loc("tmp21"(#loc42))
#loc111 = loc("tmp22"(#loc43))
#loc112 = loc("tmp23"(#loc44))
#loc113 = loc("tmp24"(#loc45))
#loc114 = loc("tmp27"(#loc46))
#loc115 = loc("tmp30"(#loc47))
