#loc = loc("/root/Profiler/examples/transformer_stack/test_run/inductor_debug/pb/cpb2v2xjmyfctxjv4q6qd566ai42duc5fuqhl6zwwrlpb2lpsmsi.py":18:0)
#loc19 = loc("in_out_ptr0"(#loc))
#loc20 = loc("in_ptr0"(#loc))
#loc21 = loc("xnumel"(#loc))
module {
  tt.func public @triton_poi_fused_addmm_gelu_view_6(%in_out_ptr0: !tt.ptr<f32> {tt.divisibility = 16 : i32} loc("in_out_ptr0"(#loc)), %in_ptr0: !tt.ptr<f32> {tt.divisibility = 16 : i32} loc("in_ptr0"(#loc)), %xnumel: i32 {tt.divisibility = 16 : i32} loc("xnumel"(#loc))) attributes {noinline = false} {
    %tmp9 = arith.constant dense<1.000000e+00> : tensor<1024xf32> loc(#loc22)
    %tmp6 = arith.constant dense<0.707106769> : tensor<1024xf32> loc(#loc23)
    %tmp4 = arith.constant dense<5.000000e-01> : tensor<1024xf32> loc(#loc24)
    %x0 = arith.constant dense<2048> : tensor<1024xi32> loc(#loc25)
    %c1024_i32 = arith.constant 1024 : i32 loc(#loc5)
    %xoffset = tt.get_program_id x : i32 loc(#loc26)
    %xoffset_0 = arith.muli %xoffset, %c1024_i32 : i32 loc(#loc27)
    %xindex = tt.make_range {end = 1024 : i32, start = 0 : i32} : tensor<1024xi32> loc(#loc28)
    %xindex_1 = tt.splat %xoffset_0 : i32 -> tensor<1024xi32> loc(#loc29)
    %xindex_2 = arith.addi %xindex_1, %xindex : tensor<1024xi32> loc(#loc29)
    %x0_3 = arith.remsi %xindex_2, %x0 : tensor<1024xi32> loc(#loc25)
    %tmp0 = tt.splat %in_ptr0 : !tt.ptr<f32> -> tensor<1024x!tt.ptr<f32>> loc(#loc30)
    %tmp0_4 = tt.addptr %tmp0, %x0_3 : tensor<1024x!tt.ptr<f32>>, tensor<1024xi32> loc(#loc30)
    %tmp0_5 = tt.load %tmp0_4 evictionPolicy = evict_last : tensor<1024x!tt.ptr<f32>> loc(#loc31)
    %tmp1 = tt.splat %in_out_ptr0 : !tt.ptr<f32> -> tensor<1024x!tt.ptr<f32>> loc(#loc32)
    %tmp1_6 = tt.addptr %tmp1, %xindex_2 : tensor<1024x!tt.ptr<f32>>, tensor<1024xi32> loc(#loc32)
    %tmp1_7 = tt.load %tmp1_6 : tensor<1024x!tt.ptr<f32>> loc(#loc33)
    %tmp2 = arith.addf %tmp0_5, %tmp1_7 : tensor<1024xf32> loc(#loc34)
    %tmp4_8 = arith.mulf %tmp2, %tmp4 : tensor<1024xf32> loc(#loc24)
    %tmp6_9 = arith.mulf %tmp2, %tmp6 : tensor<1024xf32> loc(#loc23)
    %tmp7 = tt.extern_elementwise %tmp6_9 {libname = "", libpath = "", pure = true, symbol = "__nv_erff"} : (tensor<1024xf32>) -> tensor<1024xf32> loc(#loc35)
    %tmp9_10 = arith.addf %tmp7, %tmp9 : tensor<1024xf32> loc(#loc22)
    %tmp10 = arith.mulf %tmp4_8, %tmp9_10 : tensor<1024xf32> loc(#loc36)
    tt.store %tmp1_6, %tmp10 : tensor<1024x!tt.ptr<f32>> loc(#loc17)
    tt.return loc(#loc18)
  } loc(#loc)
} loc(#loc)
#loc1 = loc("/root/Profiler/examples/transformer_stack/test_run/inductor_debug/pb/cpb2v2xjmyfctxjv4q6qd566ai42duc5fuqhl6zwwrlpb2lpsmsi.py":34:18)
#loc2 = loc("/root/Profiler/examples/transformer_stack/test_run/inductor_debug/pb/cpb2v2xjmyfctxjv4q6qd566ai42duc5fuqhl6zwwrlpb2lpsmsi.py":31:18)
#loc3 = loc("/root/Profiler/examples/transformer_stack/test_run/inductor_debug/pb/cpb2v2xjmyfctxjv4q6qd566ai42duc5fuqhl6zwwrlpb2lpsmsi.py":29:18)
#loc4 = loc("/root/Profiler/examples/transformer_stack/test_run/inductor_debug/pb/cpb2v2xjmyfctxjv4q6qd566ai42duc5fuqhl6zwwrlpb2lpsmsi.py":23:19)
#loc5 = loc(unknown)
#loc6 = loc("/root/Profiler/examples/transformer_stack/test_run/inductor_debug/pb/cpb2v2xjmyfctxjv4q6qd566ai42duc5fuqhl6zwwrlpb2lpsmsi.py":20:28)
#loc7 = loc("/root/Profiler/examples/transformer_stack/test_run/inductor_debug/pb/cpb2v2xjmyfctxjv4q6qd566ai42duc5fuqhl6zwwrlpb2lpsmsi.py":20:33)
#loc8 = loc("/root/Profiler/examples/transformer_stack/test_run/inductor_debug/pb/cpb2v2xjmyfctxjv4q6qd566ai42duc5fuqhl6zwwrlpb2lpsmsi.py":21:36)
#loc9 = loc("/root/Profiler/examples/transformer_stack/test_run/inductor_debug/pb/cpb2v2xjmyfctxjv4q6qd566ai42duc5fuqhl6zwwrlpb2lpsmsi.py":21:23)
#loc10 = loc("/root/Profiler/examples/transformer_stack/test_run/inductor_debug/pb/cpb2v2xjmyfctxjv4q6qd566ai42duc5fuqhl6zwwrlpb2lpsmsi.py":25:30)
#loc11 = loc("/root/Profiler/examples/transformer_stack/test_run/inductor_debug/pb/cpb2v2xjmyfctxjv4q6qd566ai42duc5fuqhl6zwwrlpb2lpsmsi.py":25:35)
#loc12 = loc("/root/Profiler/examples/transformer_stack/test_run/inductor_debug/pb/cpb2v2xjmyfctxjv4q6qd566ai42duc5fuqhl6zwwrlpb2lpsmsi.py":26:34)
#loc13 = loc("/root/Profiler/examples/transformer_stack/test_run/inductor_debug/pb/cpb2v2xjmyfctxjv4q6qd566ai42duc5fuqhl6zwwrlpb2lpsmsi.py":26:39)
#loc14 = loc("/root/Profiler/examples/transformer_stack/test_run/inductor_debug/pb/cpb2v2xjmyfctxjv4q6qd566ai42duc5fuqhl6zwwrlpb2lpsmsi.py":27:18)
#loc15 = loc("/root/Profiler/examples/transformer_stack/test_run/inductor_debug/pb/cpb2v2xjmyfctxjv4q6qd566ai42duc5fuqhl6zwwrlpb2lpsmsi.py":32:25)
#loc16 = loc("/root/Profiler/examples/transformer_stack/test_run/inductor_debug/pb/cpb2v2xjmyfctxjv4q6qd566ai42duc5fuqhl6zwwrlpb2lpsmsi.py":35:19)
#loc17 = loc("/root/Profiler/examples/transformer_stack/test_run/inductor_debug/pb/cpb2v2xjmyfctxjv4q6qd566ai42duc5fuqhl6zwwrlpb2lpsmsi.py":36:40)
#loc18 = loc("/root/Profiler/examples/transformer_stack/test_run/inductor_debug/pb/cpb2v2xjmyfctxjv4q6qd566ai42duc5fuqhl6zwwrlpb2lpsmsi.py":36:4)
#loc22 = loc("tmp9"(#loc1))
#loc23 = loc("tmp6"(#loc2))
#loc24 = loc("tmp4"(#loc3))
#loc25 = loc("x0"(#loc4))
#loc26 = loc("xoffset"(#loc6))
#loc27 = loc("xoffset"(#loc7))
#loc28 = loc("xindex"(#loc8))
#loc29 = loc("xindex"(#loc9))
#loc30 = loc("tmp0"(#loc10))
#loc31 = loc("tmp0"(#loc11))
#loc32 = loc("tmp1"(#loc12))
#loc33 = loc("tmp1"(#loc13))
#loc34 = loc("tmp2"(#loc14))
#loc35 = loc("tmp7"(#loc15))
#loc36 = loc("tmp10"(#loc16))
