#loc = loc("/root/Profiler/examples/transformer_stack/test_run/inductor_debug/pb/cpb2v2xjmyfctxjv4q6qd566ai42duc5fuqhl6zwwrlpb2lpsmsi.py":18:0)
#loc24 = loc("in_out_ptr0"(#loc))
#loc25 = loc("in_ptr0"(#loc))
#loc26 = loc("xnumel"(#loc))
module {
  tt.func public @triton_poi_fused_addmm_gelu_view_6(%in_out_ptr0: !tt.ptr<f32> {tt.divisibility = 16 : i32} loc("in_out_ptr0"(#loc)), %in_ptr0: !tt.ptr<f32> {tt.divisibility = 16 : i32} loc("in_ptr0"(#loc)), %xnumel: i32 {tt.divisibility = 16 : i32} loc("xnumel"(#loc))) attributes {noinline = false} {
    %xnumel_0 = arith.constant 1048576 : i32 loc(#loc27)
    %xoffset = tt.get_program_id x : i32 loc(#loc28)
    %xoffset_1 = arith.constant 1024 : i32 loc(#loc29)
    %xoffset_2 = arith.constant 1024 : i32 loc(#loc29)
    %xoffset_3 = arith.muli %xoffset, %xoffset_2 : i32 loc(#loc29)
    %xindex = tt.make_range {end = 1024 : i32, start = 0 : i32} : tensor<1024xi32> loc(#loc30)
    %xindex_4 = tt.splat %xoffset_3 : i32 -> tensor<1024xi32> loc(#loc31)
    %xindex_5 = arith.addi %xindex_4, %xindex : tensor<1024xi32> loc(#loc31)
    %xmask = arith.constant true loc(#loc32)
    %xmask_6 = arith.constant dense<true> : tensor<1024xi1> loc(#loc32)
    %x0 = arith.constant 2048 : i32 loc(#loc33)
    %x0_7 = arith.constant 2048 : i32 loc(#loc33)
    %x0_8 = arith.constant dense<2048> : tensor<1024xi32> loc(#loc33)
    %x0_9 = arith.remsi %xindex_5, %x0_8 : tensor<1024xi32> loc(#loc33)
    %tmp0 = tt.splat %in_ptr0 : !tt.ptr<f32> -> tensor<1024x!tt.ptr<f32>> loc(#loc34)
    %tmp0_10 = tt.addptr %tmp0, %x0_9 : tensor<1024x!tt.ptr<f32>>, tensor<1024xi32> loc(#loc34)
    %tmp0_11 = tt.load %tmp0_10 evictionPolicy = evict_last : tensor<1024x!tt.ptr<f32>> loc(#loc35)
    %tmp1 = tt.splat %in_out_ptr0 : !tt.ptr<f32> -> tensor<1024x!tt.ptr<f32>> loc(#loc36)
    %tmp1_12 = tt.addptr %tmp1, %xindex_5 : tensor<1024x!tt.ptr<f32>>, tensor<1024xi32> loc(#loc36)
    %tmp1_13 = tt.load %tmp1_12 : tensor<1024x!tt.ptr<f32>> loc(#loc37)
    %tmp2 = arith.addf %tmp0_11, %tmp1_13 : tensor<1024xf32> loc(#loc38)
    %tmp3 = arith.constant 5.000000e-01 : f32 loc(#loc39)
    %tmp3_14 = arith.constant dense<5.000000e-01> : tensor<1xf32> loc(#loc39)
    %tmp4 = arith.constant dense<5.000000e-01> : tensor<1024xf32> loc(#loc40)
    %tmp4_15 = arith.mulf %tmp2, %tmp4 : tensor<1024xf32> loc(#loc40)
    %tmp5 = arith.constant 0.707106769 : f32 loc(#loc41)
    %tmp5_16 = arith.constant dense<0.707106769> : tensor<1xf32> loc(#loc41)
    %tmp6 = arith.constant dense<0.707106769> : tensor<1024xf32> loc(#loc42)
    %tmp6_17 = arith.mulf %tmp2, %tmp6 : tensor<1024xf32> loc(#loc42)
    %tmp7 = tt.extern_elementwise %tmp6_17 {libname = "", libpath = "", pure = true, symbol = "__nv_erff"} : (tensor<1024xf32>) -> tensor<1024xf32> loc(#loc43)
    %tmp8 = arith.constant 1.000000e+00 : f32 loc(#loc44)
    %tmp8_18 = arith.constant dense<1.000000e+00> : tensor<1xf32> loc(#loc44)
    %tmp9 = arith.constant dense<1.000000e+00> : tensor<1024xf32> loc(#loc45)
    %tmp9_19 = arith.addf %tmp7, %tmp9 : tensor<1024xf32> loc(#loc45)
    %tmp10 = arith.mulf %tmp4_15, %tmp9_19 : tensor<1024xf32> loc(#loc46)
    %0 = tt.splat %in_out_ptr0 : !tt.ptr<f32> -> tensor<1024x!tt.ptr<f32>> loc(#loc21)
    %1 = tt.addptr %0, %xindex_5 : tensor<1024x!tt.ptr<f32>>, tensor<1024xi32> loc(#loc21)
    tt.store %1, %tmp10 : tensor<1024x!tt.ptr<f32>> loc(#loc22)
    tt.return loc(#loc23)
  } loc(#loc)
} loc(#loc)
#loc1 = loc("/root/Profiler/examples/transformer_stack/test_run/inductor_debug/pb/cpb2v2xjmyfctxjv4q6qd566ai42duc5fuqhl6zwwrlpb2lpsmsi.py":19:13)
#loc2 = loc("/root/Profiler/examples/transformer_stack/test_run/inductor_debug/pb/cpb2v2xjmyfctxjv4q6qd566ai42duc5fuqhl6zwwrlpb2lpsmsi.py":20:28)
#loc3 = loc("/root/Profiler/examples/transformer_stack/test_run/inductor_debug/pb/cpb2v2xjmyfctxjv4q6qd566ai42duc5fuqhl6zwwrlpb2lpsmsi.py":20:33)
#loc4 = loc("/root/Profiler/examples/transformer_stack/test_run/inductor_debug/pb/cpb2v2xjmyfctxjv4q6qd566ai42duc5fuqhl6zwwrlpb2lpsmsi.py":21:36)
#loc5 = loc("/root/Profiler/examples/transformer_stack/test_run/inductor_debug/pb/cpb2v2xjmyfctxjv4q6qd566ai42duc5fuqhl6zwwrlpb2lpsmsi.py":21:23)
#loc6 = loc("/root/Profiler/examples/transformer_stack/test_run/inductor_debug/pb/cpb2v2xjmyfctxjv4q6qd566ai42duc5fuqhl6zwwrlpb2lpsmsi.py":22:36)
#loc7 = loc("/root/Profiler/examples/transformer_stack/test_run/inductor_debug/pb/cpb2v2xjmyfctxjv4q6qd566ai42duc5fuqhl6zwwrlpb2lpsmsi.py":23:19)
#loc8 = loc("/root/Profiler/examples/transformer_stack/test_run/inductor_debug/pb/cpb2v2xjmyfctxjv4q6qd566ai42duc5fuqhl6zwwrlpb2lpsmsi.py":25:30)
#loc9 = loc("/root/Profiler/examples/transformer_stack/test_run/inductor_debug/pb/cpb2v2xjmyfctxjv4q6qd566ai42duc5fuqhl6zwwrlpb2lpsmsi.py":25:35)
#loc10 = loc("/root/Profiler/examples/transformer_stack/test_run/inductor_debug/pb/cpb2v2xjmyfctxjv4q6qd566ai42duc5fuqhl6zwwrlpb2lpsmsi.py":26:34)
#loc11 = loc("/root/Profiler/examples/transformer_stack/test_run/inductor_debug/pb/cpb2v2xjmyfctxjv4q6qd566ai42duc5fuqhl6zwwrlpb2lpsmsi.py":26:39)
#loc12 = loc("/root/Profiler/examples/transformer_stack/test_run/inductor_debug/pb/cpb2v2xjmyfctxjv4q6qd566ai42duc5fuqhl6zwwrlpb2lpsmsi.py":27:18)
#loc13 = loc("/root/Profiler/examples/transformer_stack/test_run/inductor_debug/pb/cpb2v2xjmyfctxjv4q6qd566ai42duc5fuqhl6zwwrlpb2lpsmsi.py":28:29)
#loc14 = loc("/root/Profiler/examples/transformer_stack/test_run/inductor_debug/pb/cpb2v2xjmyfctxjv4q6qd566ai42duc5fuqhl6zwwrlpb2lpsmsi.py":29:18)
#loc15 = loc("/root/Profiler/examples/transformer_stack/test_run/inductor_debug/pb/cpb2v2xjmyfctxjv4q6qd566ai42duc5fuqhl6zwwrlpb2lpsmsi.py":30:44)
#loc16 = loc("/root/Profiler/examples/transformer_stack/test_run/inductor_debug/pb/cpb2v2xjmyfctxjv4q6qd566ai42duc5fuqhl6zwwrlpb2lpsmsi.py":31:18)
#loc17 = loc("/root/Profiler/examples/transformer_stack/test_run/inductor_debug/pb/cpb2v2xjmyfctxjv4q6qd566ai42duc5fuqhl6zwwrlpb2lpsmsi.py":32:25)
#loc18 = loc("/root/Profiler/examples/transformer_stack/test_run/inductor_debug/pb/cpb2v2xjmyfctxjv4q6qd566ai42duc5fuqhl6zwwrlpb2lpsmsi.py":33:29)
#loc19 = loc("/root/Profiler/examples/transformer_stack/test_run/inductor_debug/pb/cpb2v2xjmyfctxjv4q6qd566ai42duc5fuqhl6zwwrlpb2lpsmsi.py":34:18)
#loc20 = loc("/root/Profiler/examples/transformer_stack/test_run/inductor_debug/pb/cpb2v2xjmyfctxjv4q6qd566ai42duc5fuqhl6zwwrlpb2lpsmsi.py":35:19)
#loc21 = loc("/root/Profiler/examples/transformer_stack/test_run/inductor_debug/pb/cpb2v2xjmyfctxjv4q6qd566ai42duc5fuqhl6zwwrlpb2lpsmsi.py":36:28)
#loc22 = loc("/root/Profiler/examples/transformer_stack/test_run/inductor_debug/pb/cpb2v2xjmyfctxjv4q6qd566ai42duc5fuqhl6zwwrlpb2lpsmsi.py":36:40)
#loc23 = loc("/root/Profiler/examples/transformer_stack/test_run/inductor_debug/pb/cpb2v2xjmyfctxjv4q6qd566ai42duc5fuqhl6zwwrlpb2lpsmsi.py":36:4)
#loc27 = loc("xnumel"(#loc1))
#loc28 = loc("xoffset"(#loc2))
#loc29 = loc("xoffset"(#loc3))
#loc30 = loc("xindex"(#loc4))
#loc31 = loc("xindex"(#loc5))
#loc32 = loc("xmask"(#loc6))
#loc33 = loc("x0"(#loc7))
#loc34 = loc("tmp0"(#loc8))
#loc35 = loc("tmp0"(#loc9))
#loc36 = loc("tmp1"(#loc10))
#loc37 = loc("tmp1"(#loc11))
#loc38 = loc("tmp2"(#loc12))
#loc39 = loc("tmp3"(#loc13))
#loc40 = loc("tmp4"(#loc14))
#loc41 = loc("tmp5"(#loc15))
#loc42 = loc("tmp6"(#loc16))
#loc43 = loc("tmp7"(#loc17))
#loc44 = loc("tmp8"(#loc18))
#loc45 = loc("tmp9"(#loc19))
#loc46 = loc("tmp10"(#loc20))
