#loc = loc("/root/Profiler/examples/sdpa_attention/test_run/inductor_debug/nw/cnw2kz2jvxw3bxs2o4vv5ddhn7duxztss7rkgb77e746qoyfmd3h.py":18:0)
#loc2 = loc(unknown)
#loc19 = loc("/root/Profiler/examples/sdpa_attention/test_run/inductor_debug/nw/cnw2kz2jvxw3bxs2o4vv5ddhn7duxztss7rkgb77e746qoyfmd3h.py":39:24)
#loc25 = loc("/root/Profiler/examples/sdpa_attention/test_run/inductor_debug/nw/cnw2kz2jvxw3bxs2o4vv5ddhn7duxztss7rkgb77e746qoyfmd3h.py":46:26)
#loc35 = loc("in_ptr0"(#loc))
#loc36 = loc("in_ptr1"(#loc))
#loc37 = loc("in_ptr2"(#loc))
#loc38 = loc("out_ptr2"(#loc))
#loc39 = loc("xnumel"(#loc))
#loc40 = loc("r0_numel"(#loc))
#loc57 = loc("tmp5"(#loc19))
#loc62 = loc("tmp13"(#loc25))
#loc70 = loc(callsite(#loc2 at #loc57))
#loc72 = loc(callsite(#loc2 at #loc62))
module {
  tt.func public @triton_per_fused_native_layer_norm_0(%in_ptr0: !tt.ptr<f32> {tt.divisibility = 16 : i32} loc("in_ptr0"(#loc)), %in_ptr1: !tt.ptr<f32> {tt.divisibility = 16 : i32} loc("in_ptr1"(#loc)), %in_ptr2: !tt.ptr<f32> {tt.divisibility = 16 : i32} loc("in_ptr2"(#loc)), %out_ptr2: !tt.ptr<f32> {tt.divisibility = 16 : i32} loc("out_ptr2"(#loc)), %xnumel: i32 {tt.divisibility = 16 : i32} loc("xnumel"(#loc)), %r0_numel: i32 {tt.divisibility = 16 : i32} loc("r0_numel"(#loc))) attributes {noinline = false} {
    %tmp18 = arith.constant dense<9.99999974E-6> : tensor<2x1xf32> loc(#loc41)
    %cst = arith.constant dense<5.120000e+02> : tensor<2x1xf32> loc(#loc2)
    %cst_0 = arith.constant dense<512> : tensor<2x1xi32> loc(#loc2)
    %c2_i32 = arith.constant 2 : i32 loc(#loc2)
    %xoffset = tt.get_program_id x : i32 loc(#loc42)
    %xoffset_1 = arith.muli %xoffset, %c2_i32 : i32 loc(#loc43)
    %xindex = tt.make_range {end = 2 : i32, start = 0 : i32} : tensor<2xi32> loc(#loc44)
    %xindex_2 = tt.expand_dims %xindex {axis = 1 : i32} : tensor<2xi32> -> tensor<2x1xi32> loc(#loc45)
    %xindex_3 = tt.splat %xoffset_1 : i32 -> tensor<2x1xi32> loc(#loc46)
    %xindex_4 = arith.addi %xindex_3, %xindex_2 : tensor<2x1xi32> loc(#loc46)
    %r0_index = tt.make_range {end = 512 : i32, start = 0 : i32} : tensor<512xi32> loc(#loc47)
    %r0_index_5 = tt.expand_dims %r0_index {axis = 0 : i32} : tensor<512xi32> -> tensor<1x512xi32> loc(#loc48)
    %tmp0 = arith.muli %xindex_4, %cst_0 : tensor<2x1xi32> loc(#loc49)
    %tmp0_6 = tt.broadcast %r0_index_5 : tensor<1x512xi32> -> tensor<2x512xi32> loc(#loc50)
    %tmp0_7 = tt.broadcast %tmp0 : tensor<2x1xi32> -> tensor<2x512xi32> loc(#loc50)
    %tmp0_8 = arith.addi %tmp0_6, %tmp0_7 : tensor<2x512xi32> loc(#loc50)
    %tmp0_9 = tt.splat %in_ptr0 : !tt.ptr<f32> -> tensor<2x512x!tt.ptr<f32>> loc(#loc51)
    %tmp0_10 = tt.addptr %tmp0_9, %tmp0_8 : tensor<2x512x!tt.ptr<f32>>, tensor<2x512xi32> loc(#loc51)
    %tmp0_11 = tt.load %tmp0_10 : tensor<2x512x!tt.ptr<f32>> loc(#loc52)
    %tmp21 = tt.splat %in_ptr1 : !tt.ptr<f32> -> tensor<1x512x!tt.ptr<f32>> loc(#loc53)
    %tmp21_12 = tt.addptr %tmp21, %r0_index_5 : tensor<1x512x!tt.ptr<f32>>, tensor<1x512xi32> loc(#loc53)
    %tmp21_13 = tt.load %tmp21_12 evictionPolicy = evict_last : tensor<1x512x!tt.ptr<f32>> loc(#loc54)
    %tmp23 = tt.splat %in_ptr2 : !tt.ptr<f32> -> tensor<1x512x!tt.ptr<f32>> loc(#loc55)
    %tmp23_14 = tt.addptr %tmp23, %r0_index_5 : tensor<1x512x!tt.ptr<f32>>, tensor<1x512xi32> loc(#loc55)
    %tmp23_15 = tt.load %tmp23_14 evictionPolicy = evict_last : tensor<1x512x!tt.ptr<f32>> loc(#loc56)
    %tmp5 = "tt.reduce"(%tmp0_11) <{axis = 1 : i32}> ({
    ^bb0(%tmp5_23: f32 loc(callsite(#loc2 at #loc57)), %tmp5_24: f32 loc(callsite(#loc2 at #loc57))):
      %tmp5_25 = arith.addf %tmp5_23, %tmp5_24 : f32 loc(#loc73)
      tt.reduce.return %tmp5_25 : f32 loc(#loc69)
    }) : (tensor<2x512xf32>) -> tensor<2xf32> loc(#loc69)
    %tmp5_16 = tt.expand_dims %tmp5 {axis = 1 : i32} : tensor<2xf32> -> tensor<2x1xf32> loc(#loc58)
    %tmp8 = arith.divf %tmp5_16, %cst : tensor<2x1xf32> loc(#loc59)
    %tmp9 = tt.broadcast %tmp8 : tensor<2x1xf32> -> tensor<2x512xf32> loc(#loc60)
    %tmp9_17 = arith.subf %tmp0_11, %tmp9 : tensor<2x512xf32> loc(#loc60)
    %tmp10 = arith.mulf %tmp9_17, %tmp9_17 : tensor<2x512xf32> loc(#loc61)
    %tmp13 = "tt.reduce"(%tmp10) <{axis = 1 : i32}> ({
    ^bb0(%tmp13_23: f32 loc(callsite(#loc2 at #loc62)), %tmp13_24: f32 loc(callsite(#loc2 at #loc62))):
      %tmp13_25 = arith.addf %tmp13_23, %tmp13_24 : f32 loc(#loc74)
      tt.reduce.return %tmp13_25 : f32 loc(#loc71)
    }) : (tensor<2x512xf32>) -> tensor<2xf32> loc(#loc71)
    %tmp13_18 = tt.expand_dims %tmp13 {axis = 1 : i32} : tensor<2xf32> -> tensor<2x1xf32> loc(#loc63)
    %tmp16 = arith.divf %tmp13_18, %cst : tensor<2x1xf32> loc(#loc64)
    %tmp18_19 = arith.addf %tmp16, %tmp18 : tensor<2x1xf32> loc(#loc41)
    %tmp19 = tt.extern_elementwise %tmp18_19 {libname = "", libpath = "", pure = true, symbol = "__nv_rsqrtf"} : (tensor<2x1xf32>) -> tensor<2x1xf32> loc(#loc65)
    %tmp20 = tt.broadcast %tmp19 : tensor<2x1xf32> -> tensor<2x512xf32> loc(#loc66)
    %tmp20_20 = arith.mulf %tmp9_17, %tmp20 : tensor<2x512xf32> loc(#loc66)
    %tmp22 = tt.broadcast %tmp21_13 : tensor<1x512xf32> -> tensor<2x512xf32> loc(#loc67)
    %tmp22_21 = arith.mulf %tmp20_20, %tmp22 : tensor<2x512xf32> loc(#loc67)
    %tmp24 = tt.broadcast %tmp23_15 : tensor<1x512xf32> -> tensor<2x512xf32> loc(#loc68)
    %tmp24_22 = arith.addf %tmp22_21, %tmp24 : tensor<2x512xf32> loc(#loc68)
    %0 = tt.splat %out_ptr2 : !tt.ptr<f32> -> tensor<2x512x!tt.ptr<f32>> loc(#loc32)
    %1 = tt.addptr %0, %tmp0_8 : tensor<2x512x!tt.ptr<f32>>, tensor<2x512xi32> loc(#loc32)
    tt.store %1, %tmp24_22 : tensor<2x512x!tt.ptr<f32>> loc(#loc33)
    tt.return loc(#loc34)
  } loc(#loc)
} loc(#loc)
#loc1 = loc("/root/Profiler/examples/sdpa_attention/test_run/inductor_debug/nw/cnw2kz2jvxw3bxs2o4vv5ddhn7duxztss7rkgb77e746qoyfmd3h.py":51:20)
#loc3 = loc("/root/Profiler/examples/sdpa_attention/test_run/inductor_debug/nw/cnw2kz2jvxw3bxs2o4vv5ddhn7duxztss7rkgb77e746qoyfmd3h.py":24:28)
#loc4 = loc("/root/Profiler/examples/sdpa_attention/test_run/inductor_debug/nw/cnw2kz2jvxw3bxs2o4vv5ddhn7duxztss7rkgb77e746qoyfmd3h.py":24:33)
#loc5 = loc("/root/Profiler/examples/sdpa_attention/test_run/inductor_debug/nw/cnw2kz2jvxw3bxs2o4vv5ddhn7duxztss7rkgb77e746qoyfmd3h.py":25:36)
#loc6 = loc("/root/Profiler/examples/sdpa_attention/test_run/inductor_debug/nw/cnw2kz2jvxw3bxs2o4vv5ddhn7duxztss7rkgb77e746qoyfmd3h.py":25:44)
#loc7 = loc("/root/Profiler/examples/sdpa_attention/test_run/inductor_debug/nw/cnw2kz2jvxw3bxs2o4vv5ddhn7duxztss7rkgb77e746qoyfmd3h.py":25:23)
#loc8 = loc("/root/Profiler/examples/sdpa_attention/test_run/inductor_debug/nw/cnw2kz2jvxw3bxs2o4vv5ddhn7duxztss7rkgb77e746qoyfmd3h.py":27:28)
#loc9 = loc("/root/Profiler/examples/sdpa_attention/test_run/inductor_debug/nw/cnw2kz2jvxw3bxs2o4vv5ddhn7duxztss7rkgb77e746qoyfmd3h.py":27:38)
#loc10 = loc("/root/Profiler/examples/sdpa_attention/test_run/inductor_debug/nw/cnw2kz2jvxw3bxs2o4vv5ddhn7duxztss7rkgb77e746qoyfmd3h.py":34:41)
#loc11 = loc("/root/Profiler/examples/sdpa_attention/test_run/inductor_debug/nw/cnw2kz2jvxw3bxs2o4vv5ddhn7duxztss7rkgb77e746qoyfmd3h.py":34:37)
#loc12 = loc("/root/Profiler/examples/sdpa_attention/test_run/inductor_debug/nw/cnw2kz2jvxw3bxs2o4vv5ddhn7duxztss7rkgb77e746qoyfmd3h.py":34:30)
#loc13 = loc("/root/Profiler/examples/sdpa_attention/test_run/inductor_debug/nw/cnw2kz2jvxw3bxs2o4vv5ddhn7duxztss7rkgb77e746qoyfmd3h.py":34:46)
#loc14 = loc("/root/Profiler/examples/sdpa_attention/test_run/inductor_debug/nw/cnw2kz2jvxw3bxs2o4vv5ddhn7duxztss7rkgb77e746qoyfmd3h.py":35:31)
#loc15 = loc("/root/Profiler/examples/sdpa_attention/test_run/inductor_debug/nw/cnw2kz2jvxw3bxs2o4vv5ddhn7duxztss7rkgb77e746qoyfmd3h.py":35:38)
#loc16 = loc("/root/Profiler/examples/sdpa_attention/test_run/inductor_debug/nw/cnw2kz2jvxw3bxs2o4vv5ddhn7duxztss7rkgb77e746qoyfmd3h.py":36:31)
#loc17 = loc("/root/Profiler/examples/sdpa_attention/test_run/inductor_debug/nw/cnw2kz2jvxw3bxs2o4vv5ddhn7duxztss7rkgb77e746qoyfmd3h.py":36:38)
#loc18 = loc("/usr/local/lib/python3.10/dist-packages/triton/language/standard.py":293:36)
#loc20 = loc("/usr/local/lib/python3.10/dist-packages/triton/language/standard.py":263:15)
#loc21 = loc("/root/Profiler/examples/sdpa_attention/test_run/inductor_debug/nw/cnw2kz2jvxw3bxs2o4vv5ddhn7duxztss7rkgb77e746qoyfmd3h.py":39:27)
#loc22 = loc("/root/Profiler/examples/sdpa_attention/test_run/inductor_debug/nw/cnw2kz2jvxw3bxs2o4vv5ddhn7duxztss7rkgb77e746qoyfmd3h.py":42:19)
#loc23 = loc("/root/Profiler/examples/sdpa_attention/test_run/inductor_debug/nw/cnw2kz2jvxw3bxs2o4vv5ddhn7duxztss7rkgb77e746qoyfmd3h.py":43:18)
#loc24 = loc("/root/Profiler/examples/sdpa_attention/test_run/inductor_debug/nw/cnw2kz2jvxw3bxs2o4vv5ddhn7duxztss7rkgb77e746qoyfmd3h.py":44:19)
#loc26 = loc("/root/Profiler/examples/sdpa_attention/test_run/inductor_debug/nw/cnw2kz2jvxw3bxs2o4vv5ddhn7duxztss7rkgb77e746qoyfmd3h.py":46:29)
#loc27 = loc("/root/Profiler/examples/sdpa_attention/test_run/inductor_debug/nw/cnw2kz2jvxw3bxs2o4vv5ddhn7duxztss7rkgb77e746qoyfmd3h.py":49:21)
#loc28 = loc("/root/Profiler/examples/sdpa_attention/test_run/inductor_debug/nw/cnw2kz2jvxw3bxs2o4vv5ddhn7duxztss7rkgb77e746qoyfmd3h.py":52:28)
#loc29 = loc("/root/Profiler/examples/sdpa_attention/test_run/inductor_debug/nw/cnw2kz2jvxw3bxs2o4vv5ddhn7duxztss7rkgb77e746qoyfmd3h.py":53:20)
#loc30 = loc("/root/Profiler/examples/sdpa_attention/test_run/inductor_debug/nw/cnw2kz2jvxw3bxs2o4vv5ddhn7duxztss7rkgb77e746qoyfmd3h.py":54:20)
#loc31 = loc("/root/Profiler/examples/sdpa_attention/test_run/inductor_debug/nw/cnw2kz2jvxw3bxs2o4vv5ddhn7duxztss7rkgb77e746qoyfmd3h.py":55:20)
#loc32 = loc("/root/Profiler/examples/sdpa_attention/test_run/inductor_debug/nw/cnw2kz2jvxw3bxs2o4vv5ddhn7duxztss7rkgb77e746qoyfmd3h.py":56:25)
#loc33 = loc("/root/Profiler/examples/sdpa_attention/test_run/inductor_debug/nw/cnw2kz2jvxw3bxs2o4vv5ddhn7duxztss7rkgb77e746qoyfmd3h.py":56:48)
#loc34 = loc("/root/Profiler/examples/sdpa_attention/test_run/inductor_debug/nw/cnw2kz2jvxw3bxs2o4vv5ddhn7duxztss7rkgb77e746qoyfmd3h.py":56:4)
#loc41 = loc("tmp18"(#loc1))
#loc42 = loc("xoffset"(#loc3))
#loc43 = loc("xoffset"(#loc4))
#loc44 = loc("xindex"(#loc5))
#loc45 = loc("xindex"(#loc6))
#loc46 = loc("xindex"(#loc7))
#loc47 = loc("r0_index"(#loc8))
#loc48 = loc("r0_index"(#loc9))
#loc49 = loc("tmp0"(#loc10))
#loc50 = loc("tmp0"(#loc11))
#loc51 = loc("tmp0"(#loc12))
#loc52 = loc("tmp0"(#loc13))
#loc53 = loc("tmp21"(#loc14))
#loc54 = loc("tmp21"(#loc15))
#loc55 = loc("tmp23"(#loc16))
#loc56 = loc("tmp23"(#loc17))
#loc58 = loc("tmp5"(#loc21))
#loc59 = loc("tmp8"(#loc22))
#loc60 = loc("tmp9"(#loc23))
#loc61 = loc("tmp10"(#loc24))
#loc63 = loc("tmp13"(#loc26))
#loc64 = loc("tmp16"(#loc27))
#loc65 = loc("tmp19"(#loc28))
#loc66 = loc("tmp20"(#loc29))
#loc67 = loc("tmp22"(#loc30))
#loc68 = loc("tmp24"(#loc31))
#loc69 = loc(callsite(#loc18 at #loc57))
#loc71 = loc(callsite(#loc18 at #loc62))
#loc73 = loc(callsite(#loc20 at #loc69))
#loc74 = loc(callsite(#loc20 at #loc71))
