#loc = loc("/root/Profiler/examples/sdpa_attention/test_run/inductor_debug/nw/cnw2kz2jvxw3bxs2o4vv5ddhn7duxztss7rkgb77e746qoyfmd3h.py":18:0)
#loc46 = loc("/usr/local/lib/python3.10/dist-packages/triton/language/standard.py":287:0)
#loc48 = loc(unknown)
#loc51 = loc("/usr/local/lib/python3.10/dist-packages/triton/language/standard.py":262:0)
#loc55 = loc("in_ptr0"(#loc))
#loc56 = loc("in_ptr1"(#loc))
#loc57 = loc("in_ptr2"(#loc))
#loc58 = loc("out_ptr2"(#loc))
#loc59 = loc("xnumel"(#loc))
#loc60 = loc("r0_numel"(#loc))
#loc101 = loc("input"(#loc46))
#loc102 = loc("a"(#loc51))
#loc103 = loc("b"(#loc51))
module {
  tt.func public @triton_per_fused_native_layer_norm_0(%in_ptr0: !tt.ptr<f32> {tt.divisibility = 16 : i32} loc("in_ptr0"(#loc)), %in_ptr1: !tt.ptr<f32> {tt.divisibility = 16 : i32} loc("in_ptr1"(#loc)), %in_ptr2: !tt.ptr<f32> {tt.divisibility = 16 : i32} loc("in_ptr2"(#loc)), %out_ptr2: !tt.ptr<f32> {tt.divisibility = 16 : i32} loc("out_ptr2"(#loc)), %xnumel: i32 {tt.divisibility = 16 : i32} loc("xnumel"(#loc)), %r0_numel: i32 {tt.divisibility = 16 : i32} loc("r0_numel"(#loc))) attributes {noinline = false} {
    %xnumel_0 = arith.constant 4096 : i32 loc(#loc61)
    %r0_numel_1 = arith.constant 512 : i32 loc(#loc62)
    %xoffset = tt.get_program_id x : i32 loc(#loc63)
    %xoffset_2 = arith.constant 2 : i32 loc(#loc64)
    %xoffset_3 = arith.constant 2 : i32 loc(#loc64)
    %xoffset_4 = arith.muli %xoffset, %xoffset_3 : i32 loc(#loc64)
    %xindex = tt.make_range {end = 2 : i32, start = 0 : i32} : tensor<2xi32> loc(#loc65)
    %xindex_5 = tt.expand_dims %xindex {axis = 1 : i32} : tensor<2xi32> -> tensor<2x1xi32> loc(#loc66)
    %xindex_6 = tt.splat %xoffset_4 : i32 -> tensor<2x1xi32> loc(#loc67)
    %xindex_7 = arith.addi %xindex_6, %xindex_5 : tensor<2x1xi32> loc(#loc67)
    %xmask = arith.constant true loc(#loc68)
    %xmask_8 = arith.constant dense<true> : tensor<2xi1> loc(#loc68)
    %xmask_9 = tt.expand_dims %xmask_8 {axis = 1 : i32} : tensor<2xi1> -> tensor<2x1xi1> loc(#loc69)
    %r0_index = tt.make_range {end = 512 : i32, start = 0 : i32} : tensor<512xi32> loc(#loc70)
    %r0_index_10 = tt.expand_dims %r0_index {axis = 0 : i32} : tensor<512xi32> -> tensor<1x512xi32> loc(#loc71)
    %r0_offset = arith.constant 0 : i32 loc(#loc72)
    %r0_mask = arith.constant true loc(#loc73)
    %r0_mask_11 = arith.constant dense<true> : tensor<512xi1> loc(#loc73)
    %r0_mask_12 = tt.expand_dims %r0_mask_11 {axis = 0 : i32} : tensor<512xi1> -> tensor<1x512xi1> loc(#loc74)
    %tmp0 = arith.constant 512 : i32 loc(#loc75)
    %tmp0_13 = arith.constant 512 : i32 loc(#loc75)
    %tmp0_14 = arith.constant dense<512> : tensor<2x1xi32> loc(#loc75)
    %tmp0_15 = arith.muli %tmp0_14, %xindex_7 : tensor<2x1xi32> loc(#loc75)
    %tmp0_16 = tt.broadcast %r0_index_10 : tensor<1x512xi32> -> tensor<2x512xi32> loc(#loc76)
    %tmp0_17 = tt.broadcast %tmp0_15 : tensor<2x1xi32> -> tensor<2x512xi32> loc(#loc76)
    %tmp0_18 = arith.addi %tmp0_16, %tmp0_17 : tensor<2x512xi32> loc(#loc76)
    %tmp0_19 = tt.splat %in_ptr0 : !tt.ptr<f32> -> tensor<2x512x!tt.ptr<f32>> loc(#loc77)
    %tmp0_20 = tt.addptr %tmp0_19, %tmp0_18 : tensor<2x512x!tt.ptr<f32>>, tensor<2x512xi32> loc(#loc77)
    %tmp0_21 = tt.load %tmp0_20 : tensor<2x512x!tt.ptr<f32>> loc(#loc78)
    %tmp21 = tt.splat %in_ptr1 : !tt.ptr<f32> -> tensor<1x512x!tt.ptr<f32>> loc(#loc79)
    %tmp21_22 = tt.addptr %tmp21, %r0_index_10 : tensor<1x512x!tt.ptr<f32>>, tensor<1x512xi32> loc(#loc79)
    %tmp21_23 = tt.load %tmp21_22 evictionPolicy = evict_last : tensor<1x512x!tt.ptr<f32>> loc(#loc80)
    %tmp23 = tt.splat %in_ptr2 : !tt.ptr<f32> -> tensor<1x512x!tt.ptr<f32>> loc(#loc81)
    %tmp23_24 = tt.addptr %tmp23, %r0_index_10 : tensor<1x512x!tt.ptr<f32>>, tensor<1x512xi32> loc(#loc81)
    %tmp23_25 = tt.load %tmp23_24 evictionPolicy = evict_last : tensor<1x512x!tt.ptr<f32>> loc(#loc82)
    %tmp5 = tt.call @"triton.language.standard.sum__fp32S2_512S__(1,)cconstexpr_1__(2,)cconstexpr_False__(3,)cNone"(%tmp0_21) : (tensor<2x512xf32>) -> tensor<2xf32> loc(#loc83)
    %tmp5_26 = tt.expand_dims %tmp5 {axis = 1 : i32} : tensor<2xf32> -> tensor<2x1xf32> loc(#loc84)
    %tmp6 = arith.constant 512 : i32 loc(#loc85)
    %tmp6_27 = arith.constant dense<512> : tensor<1x1xi32> loc(#loc85)
    %tmp7 = arith.sitofp %tmp6_27 : tensor<1x1xi32> to tensor<1x1xf32> loc(#loc86)
    %tmp8 = tt.broadcast %tmp7 : tensor<1x1xf32> -> tensor<2x1xf32> loc(#loc87)
    %tmp8_28 = arith.divf %tmp5_26, %tmp8 : tensor<2x1xf32> loc(#loc87)
    %tmp9 = tt.broadcast %tmp8_28 : tensor<2x1xf32> -> tensor<2x512xf32> loc(#loc88)
    %tmp9_29 = arith.subf %tmp0_21, %tmp9 : tensor<2x512xf32> loc(#loc88)
    %tmp10 = arith.mulf %tmp9_29, %tmp9_29 : tensor<2x512xf32> loc(#loc89)
    %tmp13 = tt.call @"triton.language.standard.sum__fp32S2_512S__(1,)cconstexpr_1__(2,)cconstexpr_False__(3,)cNone"(%tmp10) : (tensor<2x512xf32>) -> tensor<2xf32> loc(#loc90)
    %tmp13_30 = tt.expand_dims %tmp13 {axis = 1 : i32} : tensor<2xf32> -> tensor<2x1xf32> loc(#loc91)
    %tmp14 = tt.broadcast %tmp8_28 : tensor<2x1xf32> -> tensor<2x512xf32> loc(#loc92)
    %tmp14_31 = arith.subf %tmp0_21, %tmp14 : tensor<2x512xf32> loc(#loc92)
    %tmp15 = arith.constant 5.120000e+02 : f32 loc(#loc93)
    %tmp15_32 = arith.constant dense<5.120000e+02> : tensor<1x1xf32> loc(#loc93)
    %tmp16 = arith.constant dense<5.120000e+02> : tensor<2x1xf32> loc(#loc94)
    %tmp16_33 = arith.divf %tmp13_30, %tmp16 : tensor<2x1xf32> loc(#loc94)
    %tmp17 = arith.constant 9.99999974E-6 : f32 loc(#loc95)
    %tmp17_34 = arith.constant dense<9.99999974E-6> : tensor<1x1xf32> loc(#loc95)
    %tmp18 = arith.constant dense<9.99999974E-6> : tensor<2x1xf32> loc(#loc96)
    %tmp18_35 = arith.addf %tmp16_33, %tmp18 : tensor<2x1xf32> loc(#loc96)
    %tmp19 = tt.extern_elementwise %tmp18_35 {libname = "", libpath = "", pure = true, symbol = "__nv_rsqrtf"} : (tensor<2x1xf32>) -> tensor<2x1xf32> loc(#loc97)
    %tmp20 = tt.broadcast %tmp19 : tensor<2x1xf32> -> tensor<2x512xf32> loc(#loc98)
    %tmp20_36 = arith.mulf %tmp14_31, %tmp20 : tensor<2x512xf32> loc(#loc98)
    %tmp22 = tt.broadcast %tmp21_23 : tensor<1x512xf32> -> tensor<2x512xf32> loc(#loc99)
    %tmp22_37 = arith.mulf %tmp20_36, %tmp22 : tensor<2x512xf32> loc(#loc99)
    %tmp24 = tt.broadcast %tmp23_25 : tensor<1x512xf32> -> tensor<2x512xf32> loc(#loc100)
    %tmp24_38 = arith.addf %tmp22_37, %tmp24 : tensor<2x512xf32> loc(#loc100)
    %c512_i32 = arith.constant 512 : i32 loc(#loc41)
    %c512_i32_39 = arith.constant 512 : i32 loc(#loc41)
    %cst = arith.constant dense<512> : tensor<2x1xi32> loc(#loc41)
    %0 = arith.muli %cst, %xindex_7 : tensor<2x1xi32> loc(#loc41)
    %1 = tt.broadcast %r0_index_10 : tensor<1x512xi32> -> tensor<2x512xi32> loc(#loc42)
    %2 = tt.broadcast %0 : tensor<2x1xi32> -> tensor<2x512xi32> loc(#loc42)
    %3 = arith.addi %1, %2 : tensor<2x512xi32> loc(#loc42)
    %4 = tt.splat %out_ptr2 : !tt.ptr<f32> -> tensor<2x512x!tt.ptr<f32>> loc(#loc43)
    %5 = tt.addptr %4, %3 : tensor<2x512x!tt.ptr<f32>>, tensor<2x512xi32> loc(#loc43)
    tt.store %5, %tmp24_38 : tensor<2x512x!tt.ptr<f32>> loc(#loc44)
    tt.return loc(#loc45)
  } loc(#loc)
  tt.func private @"triton.language.standard.sum__fp32S2_512S__(1,)cconstexpr_1__(2,)cconstexpr_False__(3,)cNone"(%input: tensor<2x512xf32> loc("input"(#loc46))) -> tensor<2xf32> attributes {noinline = false} {
    %0 = "tt.reduce"(%input) <{axis = 1 : i32}> ({
    ^bb0(%arg1: f32 loc(unknown), %arg2: f32 loc(unknown)):
      %2 = tt.call @triton.language.standard._sum_combine__fp32_fp32__(%arg1, %arg2) : (f32, f32) -> f32 loc(#loc47)
      tt.reduce.return %2 : f32 loc(#loc47)
    }) : (tensor<2x512xf32>) -> tensor<2xf32> loc(#loc47)
    tt.return %0 : tensor<2xf32> loc(#loc49)
  ^bb1:  // no predecessors
    %1 = ub.poison : tensor<2xf32> loc(#loc50)
    tt.return %1 : tensor<2xf32> loc(#loc50)
  } loc(#loc46)
  tt.func private @triton.language.standard._sum_combine__fp32_fp32__(%a: f32 loc("a"(#loc51)), %b: f32 loc("b"(#loc51))) -> f32 attributes {noinline = false} {
    %0 = arith.addf %a, %b : f32 loc(#loc52)
    tt.return %0 : f32 loc(#loc53)
  ^bb1:  // no predecessors
    %1 = ub.poison : f32 loc(#loc54)
    tt.return %1 : f32 loc(#loc54)
  } loc(#loc51)
} loc(#loc)
#loc1 = loc("/root/Profiler/examples/sdpa_attention/test_run/inductor_debug/nw/cnw2kz2jvxw3bxs2o4vv5ddhn7duxztss7rkgb77e746qoyfmd3h.py":19:13)
#loc2 = loc("/root/Profiler/examples/sdpa_attention/test_run/inductor_debug/nw/cnw2kz2jvxw3bxs2o4vv5ddhn7duxztss7rkgb77e746qoyfmd3h.py":20:15)
#loc3 = loc("/root/Profiler/examples/sdpa_attention/test_run/inductor_debug/nw/cnw2kz2jvxw3bxs2o4vv5ddhn7duxztss7rkgb77e746qoyfmd3h.py":24:28)
#loc4 = loc("/root/Profiler/examples/sdpa_attention/test_run/inductor_debug/nw/cnw2kz2jvxw3bxs2o4vv5ddhn7duxztss7rkgb77e746qoyfmd3h.py":24:33)
#loc5 = loc("/root/Profiler/examples/sdpa_attention/test_run/inductor_debug/nw/cnw2kz2jvxw3bxs2o4vv5ddhn7duxztss7rkgb77e746qoyfmd3h.py":25:36)
#loc6 = loc("/root/Profiler/examples/sdpa_attention/test_run/inductor_debug/nw/cnw2kz2jvxw3bxs2o4vv5ddhn7duxztss7rkgb77e746qoyfmd3h.py":25:44)
#loc7 = loc("/root/Profiler/examples/sdpa_attention/test_run/inductor_debug/nw/cnw2kz2jvxw3bxs2o4vv5ddhn7duxztss7rkgb77e746qoyfmd3h.py":25:23)
#loc8 = loc("/root/Profiler/examples/sdpa_attention/test_run/inductor_debug/nw/cnw2kz2jvxw3bxs2o4vv5ddhn7duxztss7rkgb77e746qoyfmd3h.py":26:36)
#loc9 = loc("/root/Profiler/examples/sdpa_attention/test_run/inductor_debug/nw/cnw2kz2jvxw3bxs2o4vv5ddhn7duxztss7rkgb77e746qoyfmd3h.py":26:45)
#loc10 = loc("/root/Profiler/examples/sdpa_attention/test_run/inductor_debug/nw/cnw2kz2jvxw3bxs2o4vv5ddhn7duxztss7rkgb77e746qoyfmd3h.py":27:28)
#loc11 = loc("/root/Profiler/examples/sdpa_attention/test_run/inductor_debug/nw/cnw2kz2jvxw3bxs2o4vv5ddhn7duxztss7rkgb77e746qoyfmd3h.py":27:38)
#loc12 = loc("/root/Profiler/examples/sdpa_attention/test_run/inductor_debug/nw/cnw2kz2jvxw3bxs2o4vv5ddhn7duxztss7rkgb77e746qoyfmd3h.py":28:16)
#loc13 = loc("/root/Profiler/examples/sdpa_attention/test_run/inductor_debug/nw/cnw2kz2jvxw3bxs2o4vv5ddhn7duxztss7rkgb77e746qoyfmd3h.py":29:40)
#loc14 = loc("/root/Profiler/examples/sdpa_attention/test_run/inductor_debug/nw/cnw2kz2jvxw3bxs2o4vv5ddhn7duxztss7rkgb77e746qoyfmd3h.py":29:49)
#loc15 = loc("/root/Profiler/examples/sdpa_attention/test_run/inductor_debug/nw/cnw2kz2jvxw3bxs2o4vv5ddhn7duxztss7rkgb77e746qoyfmd3h.py":34:41)
#loc16 = loc("/root/Profiler/examples/sdpa_attention/test_run/inductor_debug/nw/cnw2kz2jvxw3bxs2o4vv5ddhn7duxztss7rkgb77e746qoyfmd3h.py":34:37)
#loc17 = loc("/root/Profiler/examples/sdpa_attention/test_run/inductor_debug/nw/cnw2kz2jvxw3bxs2o4vv5ddhn7duxztss7rkgb77e746qoyfmd3h.py":34:30)
#loc18 = loc("/root/Profiler/examples/sdpa_attention/test_run/inductor_debug/nw/cnw2kz2jvxw3bxs2o4vv5ddhn7duxztss7rkgb77e746qoyfmd3h.py":34:46)
#loc19 = loc("/root/Profiler/examples/sdpa_attention/test_run/inductor_debug/nw/cnw2kz2jvxw3bxs2o4vv5ddhn7duxztss7rkgb77e746qoyfmd3h.py":35:31)
#loc20 = loc("/root/Profiler/examples/sdpa_attention/test_run/inductor_debug/nw/cnw2kz2jvxw3bxs2o4vv5ddhn7duxztss7rkgb77e746qoyfmd3h.py":35:38)
#loc21 = loc("/root/Profiler/examples/sdpa_attention/test_run/inductor_debug/nw/cnw2kz2jvxw3bxs2o4vv5ddhn7duxztss7rkgb77e746qoyfmd3h.py":36:31)
#loc22 = loc("/root/Profiler/examples/sdpa_attention/test_run/inductor_debug/nw/cnw2kz2jvxw3bxs2o4vv5ddhn7duxztss7rkgb77e746qoyfmd3h.py":36:38)
#loc23 = loc("/root/Profiler/examples/sdpa_attention/test_run/inductor_debug/nw/cnw2kz2jvxw3bxs2o4vv5ddhn7duxztss7rkgb77e746qoyfmd3h.py":39:24)
#loc24 = loc("/root/Profiler/examples/sdpa_attention/test_run/inductor_debug/nw/cnw2kz2jvxw3bxs2o4vv5ddhn7duxztss7rkgb77e746qoyfmd3h.py":39:27)
#loc25 = loc("/root/Profiler/examples/sdpa_attention/test_run/inductor_debug/nw/cnw2kz2jvxw3bxs2o4vv5ddhn7duxztss7rkgb77e746qoyfmd3h.py":40:32)
#loc26 = loc("/root/Profiler/examples/sdpa_attention/test_run/inductor_debug/nw/cnw2kz2jvxw3bxs2o4vv5ddhn7duxztss7rkgb77e746qoyfmd3h.py":41:19)
#loc27 = loc("/root/Profiler/examples/sdpa_attention/test_run/inductor_debug/nw/cnw2kz2jvxw3bxs2o4vv5ddhn7duxztss7rkgb77e746qoyfmd3h.py":42:19)
#loc28 = loc("/root/Profiler/examples/sdpa_attention/test_run/inductor_debug/nw/cnw2kz2jvxw3bxs2o4vv5ddhn7duxztss7rkgb77e746qoyfmd3h.py":43:18)
#loc29 = loc("/root/Profiler/examples/sdpa_attention/test_run/inductor_debug/nw/cnw2kz2jvxw3bxs2o4vv5ddhn7duxztss7rkgb77e746qoyfmd3h.py":44:19)
#loc30 = loc("/root/Profiler/examples/sdpa_attention/test_run/inductor_debug/nw/cnw2kz2jvxw3bxs2o4vv5ddhn7duxztss7rkgb77e746qoyfmd3h.py":46:26)
#loc31 = loc("/root/Profiler/examples/sdpa_attention/test_run/inductor_debug/nw/cnw2kz2jvxw3bxs2o4vv5ddhn7duxztss7rkgb77e746qoyfmd3h.py":46:29)
#loc32 = loc("/root/Profiler/examples/sdpa_attention/test_run/inductor_debug/nw/cnw2kz2jvxw3bxs2o4vv5ddhn7duxztss7rkgb77e746qoyfmd3h.py":47:19)
#loc33 = loc("/root/Profiler/examples/sdpa_attention/test_run/inductor_debug/nw/cnw2kz2jvxw3bxs2o4vv5ddhn7duxztss7rkgb77e746qoyfmd3h.py":48:35)
#loc34 = loc("/root/Profiler/examples/sdpa_attention/test_run/inductor_debug/nw/cnw2kz2jvxw3bxs2o4vv5ddhn7duxztss7rkgb77e746qoyfmd3h.py":49:21)
#loc35 = loc("/root/Profiler/examples/sdpa_attention/test_run/inductor_debug/nw/cnw2kz2jvxw3bxs2o4vv5ddhn7duxztss7rkgb77e746qoyfmd3h.py":50:35)
#loc36 = loc("/root/Profiler/examples/sdpa_attention/test_run/inductor_debug/nw/cnw2kz2jvxw3bxs2o4vv5ddhn7duxztss7rkgb77e746qoyfmd3h.py":51:20)
#loc37 = loc("/root/Profiler/examples/sdpa_attention/test_run/inductor_debug/nw/cnw2kz2jvxw3bxs2o4vv5ddhn7duxztss7rkgb77e746qoyfmd3h.py":52:28)
#loc38 = loc("/root/Profiler/examples/sdpa_attention/test_run/inductor_debug/nw/cnw2kz2jvxw3bxs2o4vv5ddhn7duxztss7rkgb77e746qoyfmd3h.py":53:20)
#loc39 = loc("/root/Profiler/examples/sdpa_attention/test_run/inductor_debug/nw/cnw2kz2jvxw3bxs2o4vv5ddhn7duxztss7rkgb77e746qoyfmd3h.py":54:20)
#loc40 = loc("/root/Profiler/examples/sdpa_attention/test_run/inductor_debug/nw/cnw2kz2jvxw3bxs2o4vv5ddhn7duxztss7rkgb77e746qoyfmd3h.py":55:20)
#loc41 = loc("/root/Profiler/examples/sdpa_attention/test_run/inductor_debug/nw/cnw2kz2jvxw3bxs2o4vv5ddhn7duxztss7rkgb77e746qoyfmd3h.py":56:36)
#loc42 = loc("/root/Profiler/examples/sdpa_attention/test_run/inductor_debug/nw/cnw2kz2jvxw3bxs2o4vv5ddhn7duxztss7rkgb77e746qoyfmd3h.py":56:32)
#loc43 = loc("/root/Profiler/examples/sdpa_attention/test_run/inductor_debug/nw/cnw2kz2jvxw3bxs2o4vv5ddhn7duxztss7rkgb77e746qoyfmd3h.py":56:25)
#loc44 = loc("/root/Profiler/examples/sdpa_attention/test_run/inductor_debug/nw/cnw2kz2jvxw3bxs2o4vv5ddhn7duxztss7rkgb77e746qoyfmd3h.py":56:48)
#loc45 = loc("/root/Profiler/examples/sdpa_attention/test_run/inductor_debug/nw/cnw2kz2jvxw3bxs2o4vv5ddhn7duxztss7rkgb77e746qoyfmd3h.py":56:4)
#loc47 = loc("/usr/local/lib/python3.10/dist-packages/triton/language/standard.py":293:36)
#loc49 = loc("/usr/local/lib/python3.10/dist-packages/triton/language/standard.py":293:11)
#loc50 = loc("/usr/local/lib/python3.10/dist-packages/triton/language/standard.py":293:4)
#loc52 = loc("/usr/local/lib/python3.10/dist-packages/triton/language/standard.py":263:15)
#loc53 = loc("/usr/local/lib/python3.10/dist-packages/triton/language/standard.py":263:11)
#loc54 = loc("/usr/local/lib/python3.10/dist-packages/triton/language/standard.py":263:4)
#loc61 = loc("xnumel"(#loc1))
#loc62 = loc("r0_numel"(#loc2))
#loc63 = loc("xoffset"(#loc3))
#loc64 = loc("xoffset"(#loc4))
#loc65 = loc("xindex"(#loc5))
#loc66 = loc("xindex"(#loc6))
#loc67 = loc("xindex"(#loc7))
#loc68 = loc("xmask"(#loc8))
#loc69 = loc("xmask"(#loc9))
#loc70 = loc("r0_index"(#loc10))
#loc71 = loc("r0_index"(#loc11))
#loc72 = loc("r0_offset"(#loc12))
#loc73 = loc("r0_mask"(#loc13))
#loc74 = loc("r0_mask"(#loc14))
#loc75 = loc("tmp0"(#loc15))
#loc76 = loc("tmp0"(#loc16))
#loc77 = loc("tmp0"(#loc17))
#loc78 = loc("tmp0"(#loc18))
#loc79 = loc("tmp21"(#loc19))
#loc80 = loc("tmp21"(#loc20))
#loc81 = loc("tmp23"(#loc21))
#loc82 = loc("tmp23"(#loc22))
#loc83 = loc("tmp5"(#loc23))
#loc84 = loc("tmp5"(#loc24))
#loc85 = loc("tmp6"(#loc25))
#loc86 = loc("tmp7"(#loc26))
#loc87 = loc("tmp8"(#loc27))
#loc88 = loc("tmp9"(#loc28))
#loc89 = loc("tmp10"(#loc29))
#loc90 = loc("tmp13"(#loc30))
#loc91 = loc("tmp13"(#loc31))
#loc92 = loc("tmp14"(#loc32))
#loc93 = loc("tmp15"(#loc33))
#loc94 = loc("tmp16"(#loc34))
#loc95 = loc("tmp17"(#loc35))
#loc96 = loc("tmp18"(#loc36))
#loc97 = loc("tmp19"(#loc37))
#loc98 = loc("tmp20"(#loc38))
#loc99 = loc("tmp22"(#loc39))
#loc100 = loc("tmp24"(#loc40))
