#loc = loc("/root/Profiler/gpt2_optimized_inductor_debug/h7/ch7pitewebddyefiyz3t5u3omn274wqib3xhmtu5kmrqdwqc2kbq.py":18:0)
#loc29 = loc("in_ptr0"(#loc))
#loc30 = loc("in_ptr1"(#loc))
#loc31 = loc("in_ptr2"(#loc))
#loc32 = loc("out_ptr0"(#loc))
#loc33 = loc("ks0"(#loc))
#loc34 = loc("xnumel"(#loc))
module {
  tt.func public @triton_poi_fused_add_view_6(%in_ptr0: !tt.ptr<bf16> {tt.divisibility = 16 : i32} loc("in_ptr0"(#loc)), %in_ptr1: !tt.ptr<bf16> {tt.divisibility = 16 : i32} loc("in_ptr1"(#loc)), %in_ptr2: !tt.ptr<bf16> {tt.divisibility = 16 : i32} loc("in_ptr2"(#loc)), %out_ptr0: !tt.ptr<bf16> {tt.divisibility = 16 : i32} loc("out_ptr0"(#loc)), %ks0: i64 loc("ks0"(#loc)), %xnumel: i32 {tt.divisibility = 16 : i32} loc("xnumel"(#loc))) attributes {noinline = false} {
    %xnumel_0 = arith.constant 393216 : i32 loc(#loc35)
    %xoffset = tt.get_program_id x : i32 loc(#loc36)
    %xoffset_1 = arith.constant 1024 : i32 loc(#loc37)
    %xoffset_2 = arith.constant 1024 : i32 loc(#loc37)
    %xoffset_3 = arith.muli %xoffset, %xoffset_2 : i32 loc(#loc37)
    %xindex = tt.make_range {end = 1024 : i32, start = 0 : i32} : tensor<1024xi32> loc(#loc38)
    %xindex_4 = tt.splat %xoffset_3 : i32 -> tensor<1024xi32> loc(#loc39)
    %xindex_5 = arith.addi %xindex_4, %xindex : tensor<1024xi32> loc(#loc39)
    %xmask = arith.constant true loc(#loc40)
    %xmask_6 = arith.constant dense<true> : tensor<1024xi1> loc(#loc40)
    %x0 = arith.constant 98304 : i32 loc(#loc41)
    %x0_7 = arith.constant 98304 : i32 loc(#loc41)
    %x0_8 = arith.constant dense<98304> : tensor<1024xi32> loc(#loc41)
    %x0_9 = arith.remsi %xindex_5, %x0_8 : tensor<1024xi32> loc(#loc41)
    %x1 = arith.constant 98304 : i32 loc(#loc42)
    %x1_10 = arith.constant 98304 : i32 loc(#loc42)
    %x1_11 = arith.constant dense<98304> : tensor<1024xi32> loc(#loc42)
    %x1_12 = arith.divsi %xindex_5, %x1_11 : tensor<1024xi32> loc(#loc42)
    %tmp0 = tt.splat %in_ptr0 : !tt.ptr<bf16> -> tensor<1024x!tt.ptr<bf16>> loc(#loc43)
    %tmp0_13 = tt.addptr %tmp0, %xindex_5 : tensor<1024x!tt.ptr<bf16>>, tensor<1024xi32> loc(#loc43)
    %tmp0_14 = tt.load %tmp0_13 : tensor<1024x!tt.ptr<bf16>> loc(#loc44)
    %tmp0_15 = arith.extf %tmp0_14 : tensor<1024xbf16> to tensor<1024xf32> loc(#loc45)
    %tmp1 = arith.constant 768 : i32 loc(#loc46)
    %tmp1_16 = arith.constant 768 : i64 loc(#loc46)
    %tmp1_17 = arith.muli %tmp1_16, %ks0 : i64 loc(#loc46)
    %tmp1_18 = arith.extsi %x1_12 : tensor<1024xi32> to tensor<1024xi64> loc(#loc47)
    %tmp1_19 = tt.splat %tmp1_17 : i64 -> tensor<1024xi64> loc(#loc47)
    %tmp1_20 = arith.muli %tmp1_19, %tmp1_18 : tensor<1024xi64> loc(#loc47)
    %tmp1_21 = arith.extsi %x0_9 : tensor<1024xi32> to tensor<1024xi64> loc(#loc48)
    %tmp1_22 = arith.addi %tmp1_21, %tmp1_20 : tensor<1024xi64> loc(#loc48)
    %tmp1_23 = tt.splat %in_ptr1 : !tt.ptr<bf16> -> tensor<1024x!tt.ptr<bf16>> loc(#loc49)
    %tmp1_24 = tt.addptr %tmp1_23, %tmp1_22 : tensor<1024x!tt.ptr<bf16>>, tensor<1024xi64> loc(#loc49)
    %tmp1_25 = tt.load %tmp1_24 : tensor<1024x!tt.ptr<bf16>> loc(#loc50)
    %tmp1_26 = arith.extf %tmp1_25 : tensor<1024xbf16> to tensor<1024xf32> loc(#loc51)
    %tmp3 = tt.splat %in_ptr2 : !tt.ptr<bf16> -> tensor<1024x!tt.ptr<bf16>> loc(#loc52)
    %tmp3_27 = tt.addptr %tmp3, %xindex_5 : tensor<1024x!tt.ptr<bf16>>, tensor<1024xi32> loc(#loc52)
    %tmp3_28 = tt.load %tmp3_27 : tensor<1024x!tt.ptr<bf16>> loc(#loc53)
    %tmp3_29 = arith.extf %tmp3_28 : tensor<1024xbf16> to tensor<1024xf32> loc(#loc54)
    %tmp2 = arith.addf %tmp0_15, %tmp1_26 : tensor<1024xf32> loc(#loc55)
    %tmp4 = arith.addf %tmp2, %tmp3_29 : tensor<1024xf32> loc(#loc56)
    %c768_i32 = arith.constant 768 : i32 loc(#loc23)
    %c768_i64 = arith.constant 768 : i64 loc(#loc23)
    %0 = arith.muli %c768_i64, %ks0 : i64 loc(#loc23)
    %1 = arith.extsi %x1_12 : tensor<1024xi32> to tensor<1024xi64> loc(#loc24)
    %2 = tt.splat %0 : i64 -> tensor<1024xi64> loc(#loc24)
    %3 = arith.muli %2, %1 : tensor<1024xi64> loc(#loc24)
    %4 = arith.extsi %x0_9 : tensor<1024xi32> to tensor<1024xi64> loc(#loc25)
    %5 = arith.addi %4, %3 : tensor<1024xi64> loc(#loc25)
    %6 = tt.splat %out_ptr0 : !tt.ptr<bf16> -> tensor<1024x!tt.ptr<bf16>> loc(#loc26)
    %7 = tt.addptr %6, %5 : tensor<1024x!tt.ptr<bf16>>, tensor<1024xi64> loc(#loc26)
    %8 = arith.truncf %tmp4 : tensor<1024xf32> to tensor<1024xbf16> loc(#loc27)
    tt.store %7, %8 : tensor<1024x!tt.ptr<bf16>> loc(#loc27)
    tt.return loc(#loc28)
  } loc(#loc)
} loc(#loc)
#loc1 = loc("/root/Profiler/gpt2_optimized_inductor_debug/h7/ch7pitewebddyefiyz3t5u3omn274wqib3xhmtu5kmrqdwqc2kbq.py":19:13)
#loc2 = loc("/root/Profiler/gpt2_optimized_inductor_debug/h7/ch7pitewebddyefiyz3t5u3omn274wqib3xhmtu5kmrqdwqc2kbq.py":20:28)
#loc3 = loc("/root/Profiler/gpt2_optimized_inductor_debug/h7/ch7pitewebddyefiyz3t5u3omn274wqib3xhmtu5kmrqdwqc2kbq.py":20:33)
#loc4 = loc("/root/Profiler/gpt2_optimized_inductor_debug/h7/ch7pitewebddyefiyz3t5u3omn274wqib3xhmtu5kmrqdwqc2kbq.py":21:36)
#loc5 = loc("/root/Profiler/gpt2_optimized_inductor_debug/h7/ch7pitewebddyefiyz3t5u3omn274wqib3xhmtu5kmrqdwqc2kbq.py":21:23)
#loc6 = loc("/root/Profiler/gpt2_optimized_inductor_debug/h7/ch7pitewebddyefiyz3t5u3omn274wqib3xhmtu5kmrqdwqc2kbq.py":22:36)
#loc7 = loc("/root/Profiler/gpt2_optimized_inductor_debug/h7/ch7pitewebddyefiyz3t5u3omn274wqib3xhmtu5kmrqdwqc2kbq.py":24:19)
#loc8 = loc("/root/Profiler/gpt2_optimized_inductor_debug/h7/ch7pitewebddyefiyz3t5u3omn274wqib3xhmtu5kmrqdwqc2kbq.py":25:19)
#loc9 = loc("/root/Profiler/gpt2_optimized_inductor_debug/h7/ch7pitewebddyefiyz3t5u3omn274wqib3xhmtu5kmrqdwqc2kbq.py":26:30)
#loc10 = loc("/root/Profiler/gpt2_optimized_inductor_debug/h7/ch7pitewebddyefiyz3t5u3omn274wqib3xhmtu5kmrqdwqc2kbq.py":26:35)
#loc11 = loc("/root/Profiler/gpt2_optimized_inductor_debug/h7/ch7pitewebddyefiyz3t5u3omn274wqib3xhmtu5kmrqdwqc2kbq.py":26:44)
#loc12 = loc("/root/Profiler/gpt2_optimized_inductor_debug/h7/ch7pitewebddyefiyz3t5u3omn274wqib3xhmtu5kmrqdwqc2kbq.py":27:39)
#loc13 = loc("/root/Profiler/gpt2_optimized_inductor_debug/h7/ch7pitewebddyefiyz3t5u3omn274wqib3xhmtu5kmrqdwqc2kbq.py":27:43)
#loc14 = loc("/root/Profiler/gpt2_optimized_inductor_debug/h7/ch7pitewebddyefiyz3t5u3omn274wqib3xhmtu5kmrqdwqc2kbq.py":27:35)
#loc15 = loc("/root/Profiler/gpt2_optimized_inductor_debug/h7/ch7pitewebddyefiyz3t5u3omn274wqib3xhmtu5kmrqdwqc2kbq.py":27:30)
#loc16 = loc("/root/Profiler/gpt2_optimized_inductor_debug/h7/ch7pitewebddyefiyz3t5u3omn274wqib3xhmtu5kmrqdwqc2kbq.py":27:48)
#loc17 = loc("/root/Profiler/gpt2_optimized_inductor_debug/h7/ch7pitewebddyefiyz3t5u3omn274wqib3xhmtu5kmrqdwqc2kbq.py":27:57)
#loc18 = loc("/root/Profiler/gpt2_optimized_inductor_debug/h7/ch7pitewebddyefiyz3t5u3omn274wqib3xhmtu5kmrqdwqc2kbq.py":28:30)
#loc19 = loc("/root/Profiler/gpt2_optimized_inductor_debug/h7/ch7pitewebddyefiyz3t5u3omn274wqib3xhmtu5kmrqdwqc2kbq.py":28:35)
#loc20 = loc("/root/Profiler/gpt2_optimized_inductor_debug/h7/ch7pitewebddyefiyz3t5u3omn274wqib3xhmtu5kmrqdwqc2kbq.py":28:44)
#loc21 = loc("/root/Profiler/gpt2_optimized_inductor_debug/h7/ch7pitewebddyefiyz3t5u3omn274wqib3xhmtu5kmrqdwqc2kbq.py":29:18)
#loc22 = loc("/root/Profiler/gpt2_optimized_inductor_debug/h7/ch7pitewebddyefiyz3t5u3omn274wqib3xhmtu5kmrqdwqc2kbq.py":30:18)
#loc23 = loc("/root/Profiler/gpt2_optimized_inductor_debug/h7/ch7pitewebddyefiyz3t5u3omn274wqib3xhmtu5kmrqdwqc2kbq.py":31:34)
#loc24 = loc("/root/Profiler/gpt2_optimized_inductor_debug/h7/ch7pitewebddyefiyz3t5u3omn274wqib3xhmtu5kmrqdwqc2kbq.py":31:38)
#loc25 = loc("/root/Profiler/gpt2_optimized_inductor_debug/h7/ch7pitewebddyefiyz3t5u3omn274wqib3xhmtu5kmrqdwqc2kbq.py":31:30)
#loc26 = loc("/root/Profiler/gpt2_optimized_inductor_debug/h7/ch7pitewebddyefiyz3t5u3omn274wqib3xhmtu5kmrqdwqc2kbq.py":31:25)
#loc27 = loc("/root/Profiler/gpt2_optimized_inductor_debug/h7/ch7pitewebddyefiyz3t5u3omn274wqib3xhmtu5kmrqdwqc2kbq.py":31:49)
#loc28 = loc("/root/Profiler/gpt2_optimized_inductor_debug/h7/ch7pitewebddyefiyz3t5u3omn274wqib3xhmtu5kmrqdwqc2kbq.py":31:4)
#loc35 = loc("xnumel"(#loc1))
#loc36 = loc("xoffset"(#loc2))
#loc37 = loc("xoffset"(#loc3))
#loc38 = loc("xindex"(#loc4))
#loc39 = loc("xindex"(#loc5))
#loc40 = loc("xmask"(#loc6))
#loc41 = loc("x0"(#loc7))
#loc42 = loc("x1"(#loc8))
#loc43 = loc("tmp0"(#loc9))
#loc44 = loc("tmp0"(#loc10))
#loc45 = loc("tmp0"(#loc11))
#loc46 = loc("tmp1"(#loc12))
#loc47 = loc("tmp1"(#loc13))
#loc48 = loc("tmp1"(#loc14))
#loc49 = loc("tmp1"(#loc15))
#loc50 = loc("tmp1"(#loc16))
#loc51 = loc("tmp1"(#loc17))
#loc52 = loc("tmp3"(#loc18))
#loc53 = loc("tmp3"(#loc19))
#loc54 = loc("tmp3"(#loc20))
#loc55 = loc("tmp2"(#loc21))
#loc56 = loc("tmp4"(#loc22))
