#loc = loc("/root/Profiler/examples/sdpa_attention/test_run/inductor_debug_opt/dp/cdpe62dgsmu6qbwm7zeqevs2erq6ioh7ywfpramo7dkskjdfkvvi.py":18:0)
#loc111 = loc("/usr/local/lib/python3.10/dist-packages/triton/language/standard.py":34:0)
#loc116 = loc("arg_A"(#loc))
#loc117 = loc("arg_B"(#loc))
#loc118 = loc("out_ptr0"(#loc))
#loc189 = loc("x"(#loc111))
module {
  tt.func public @triton_mm(%arg_A: !tt.ptr<bf16> {tt.divisibility = 16 : i32} loc("arg_A"(#loc)), %arg_B: !tt.ptr<bf16> {tt.divisibility = 16 : i32} loc("arg_B"(#loc)), %out_ptr0: !tt.ptr<bf16> {tt.divisibility = 16 : i32} loc("out_ptr0"(#loc))) attributes {noinline = false} {
    %M = arith.constant 4096 : i32 loc(#loc119)
    %N = arith.constant 512 : i32 loc(#loc120)
    %K = arith.constant 512 : i32 loc(#loc121)
    %0 = arith.muli %M, %N : i32 loc(#loc4)
    %c0_i32 = arith.constant 0 : i32 loc(#loc5)
    %1 = arith.cmpi eq, %0, %c0_i32 : i32 loc(#loc5)
    cf.cond_br %1, ^bb1, ^bb2 loc(#loc5)
  ^bb1:  // pred: ^bb0
    tt.return loc(#loc6)
  ^bb2:  // pred: ^bb0
    cf.br ^bb4 loc(#loc)
  ^bb3:  // no predecessors
    cf.br ^bb4 loc(#loc)
  ^bb4:  // 2 preds: ^bb2, ^bb3
    %stride_am = arith.constant 512 : i32 loc(#loc122)
    %stride_ak = arith.constant 1 : i32 loc(#loc123)
    %stride_bk = arith.constant 1 : i32 loc(#loc124)
    %stride_bn = arith.constant 512 : i32 loc(#loc125)
    %pid = tt.get_program_id x : i32 loc(#loc126)
    %grid_m = arith.constant 64 : i32 loc(#loc127)
    %grid_m_0 = arith.constant 64 : i32 loc(#loc127)
    %grid_m_1 = arith.addi %M, %grid_m_0 : i32 loc(#loc127)
    %grid_m_2 = arith.constant 1 : i32 loc(#loc128)
    %grid_m_3 = arith.constant 1 : i32 loc(#loc128)
    %grid_m_4 = arith.subi %grid_m_1, %grid_m_3 : i32 loc(#loc128)
    %grid_m_5 = arith.constant 64 : i32 loc(#loc129)
    %grid_m_6 = arith.constant 64 : i32 loc(#loc129)
    %grid_m_7 = arith.divsi %grid_m_4, %grid_m_6 : i32 loc(#loc129)
    %grid_n = arith.constant 64 : i32 loc(#loc130)
    %grid_n_8 = arith.constant 64 : i32 loc(#loc130)
    %grid_n_9 = arith.addi %N, %grid_n_8 : i32 loc(#loc130)
    %grid_n_10 = arith.constant 1 : i32 loc(#loc131)
    %grid_n_11 = arith.constant 1 : i32 loc(#loc131)
    %grid_n_12 = arith.subi %grid_n_9, %grid_n_11 : i32 loc(#loc131)
    %grid_n_13 = arith.constant 64 : i32 loc(#loc132)
    %grid_n_14 = arith.constant 64 : i32 loc(#loc132)
    %grid_n_15 = arith.divsi %grid_n_12, %grid_n_14 : i32 loc(#loc132)
    %width = arith.constant 8 : i32 loc(#loc133)
    %width_16 = arith.constant 8 : i32 loc(#loc133)
    %width_17 = arith.muli %width_16, %grid_n_15 : i32 loc(#loc133)
    %group_id = arith.divsi %pid, %width_17 : i32 loc(#loc134)
    %group_size = arith.constant 8 : i32 loc(#loc135)
    %group_size_18 = arith.constant 8 : i32 loc(#loc135)
    %group_size_19 = arith.muli %group_id, %group_size_18 : i32 loc(#loc135)
    %group_size_20 = arith.subi %grid_m_7, %group_size_19 : i32 loc(#loc136)
    %group_size_21 = arith.constant 8 : i32 loc(#loc137)
    %group_size_22 = arith.minsi %group_size_20, %group_size_21 : i32 loc(#loc137)
    %pid_m = arith.constant 8 : i32 loc(#loc138)
    %pid_m_23 = arith.constant 8 : i32 loc(#loc138)
    %pid_m_24 = arith.muli %group_id, %pid_m_23 : i32 loc(#loc138)
    %pid_m_25 = arith.remsi %pid, %group_size_22 : i32 loc(#loc139)
    %pid_m_26 = arith.addi %pid_m_24, %pid_m_25 : i32 loc(#loc140)
    %pid_n = arith.remsi %pid, %width_17 : i32 loc(#loc141)
    %pid_n_27 = arith.divsi %pid_n, %group_size_22 : i32 loc(#loc142)
    %c0_i32_28 = arith.constant 0 : i32 loc(#loc28)
    %2 = arith.cmpi sge, %pid_m_26, %c0_i32_28 : i32 loc(#loc28)
    llvm.intr.assume %2 : i1 loc(#loc29)
    %c0_i32_29 = arith.constant 0 : i32 loc(#loc30)
    %3 = arith.cmpi sge, %pid_n_27, %c0_i32_29 : i32 loc(#loc30)
    llvm.intr.assume %3 : i1 loc(#loc31)
    %rm = arith.constant 64 : i32 loc(#loc143)
    %rm_30 = arith.constant 64 : i32 loc(#loc143)
    %rm_31 = arith.muli %pid_m_26, %rm_30 : i32 loc(#loc143)
    %rm_32 = tt.make_range {end = 64 : i32, start = 0 : i32} : tensor<64xi32> loc(#loc144)
    %rm_33 = tt.splat %rm_31 : i32 -> tensor<64xi32> loc(#loc145)
    %rm_34 = arith.addi %rm_33, %rm_32 : tensor<64xi32> loc(#loc145)
    %rn = arith.constant 64 : i32 loc(#loc146)
    %rn_35 = arith.constant 64 : i32 loc(#loc146)
    %rn_36 = arith.muli %pid_n_27, %rn_35 : i32 loc(#loc146)
    %rn_37 = tt.make_range {end = 64 : i32, start = 0 : i32} : tensor<64xi32> loc(#loc147)
    %rn_38 = tt.splat %rn_36 : i32 -> tensor<64xi32> loc(#loc148)
    %rn_39 = arith.addi %rn_38, %rn_37 : tensor<64xi32> loc(#loc148)
    %c1_i32 = arith.constant 1 : i32 loc(#loc38)
    %4 = arith.cmpi eq, %stride_am, %c1_i32 : i32 loc(#loc38)
    %5 = arith.cmpi eq, %stride_ak, %M : i32 loc(#loc39)
    %6 = arith.andi %4, %5 : i1 loc(#loc40)
    %7 = arith.cmpi eq, %stride_am, %K : i32 loc(#loc41)
    %c1_i32_40 = arith.constant 1 : i32 loc(#loc42)
    %8 = arith.cmpi eq, %stride_ak, %c1_i32_40 : i32 loc(#loc42)
    %9 = arith.andi %7, %8 : i1 loc(#loc43)
    %10 = arith.ori %6, %9 : i1 loc(#loc44)
    %c64_i32 = arith.constant 64 : i32 loc(#loc45)
    %11 = arith.cmpi sge, %M, %c64_i32 : i32 loc(#loc45)
    %c1_i32_41 = arith.constant 1 : i32 loc(#loc46)
    %12 = arith.cmpi sgt, %K, %c1_i32_41 : i32 loc(#loc46)
    %13 = arith.andi %11, %12 : i1 loc(#loc47)
    %14 = arith.andi %10, %13 : i1 loc(#loc48)
    %15 = scf.if %14 -> (tensor<64xi32>) {
      %offs_a_m = arith.constant dense<4096> : tensor<64xi32> loc(#loc149)
      %offs_a_m_73 = arith.remsi %rm_34, %offs_a_m {tt.contiguity = dense<64> : tensor<1xi32>, tt.divisibility = dense<64> : tensor<1xi32>} : tensor<64xi32> loc(#loc190)
      scf.yield %offs_a_m_73 : tensor<64xi32> loc(#loc190)
    } else {
      %offs_a_m = arith.constant dense<4096> : tensor<64xi32> loc(#loc150)
      %offs_a_m_73 = arith.remsi %rm_34, %offs_a_m : tensor<64xi32> loc(#loc191)
      scf.yield %offs_a_m_73 : tensor<64xi32> loc(#loc150)
    } loc(#loc49)
    %c1_i32_42 = arith.constant 1 : i32 loc(#loc52)
    %16 = arith.cmpi eq, %stride_bk, %c1_i32_42 : i32 loc(#loc52)
    %17 = arith.cmpi eq, %stride_bn, %K : i32 loc(#loc53)
    %18 = arith.andi %16, %17 : i1 loc(#loc54)
    %19 = arith.cmpi eq, %stride_bk, %N : i32 loc(#loc55)
    %c1_i32_43 = arith.constant 1 : i32 loc(#loc56)
    %20 = arith.cmpi eq, %stride_bn, %c1_i32_43 : i32 loc(#loc56)
    %21 = arith.andi %19, %20 : i1 loc(#loc57)
    %22 = arith.ori %18, %21 : i1 loc(#loc58)
    %c64_i32_44 = arith.constant 64 : i32 loc(#loc59)
    %23 = arith.cmpi sge, %N, %c64_i32_44 : i32 loc(#loc59)
    %c1_i32_45 = arith.constant 1 : i32 loc(#loc60)
    %24 = arith.cmpi sgt, %K, %c1_i32_45 : i32 loc(#loc60)
    %25 = arith.andi %23, %24 : i1 loc(#loc61)
    %26 = arith.andi %22, %25 : i1 loc(#loc62)
    %27 = scf.if %26 -> (tensor<64xi32>) {
      %offs_b_n = arith.constant dense<512> : tensor<64xi32> loc(#loc151)
      %offs_b_n_73 = arith.remsi %rn_39, %offs_b_n {tt.contiguity = dense<64> : tensor<1xi32>, tt.divisibility = dense<64> : tensor<1xi32>} : tensor<64xi32> loc(#loc192)
      scf.yield %offs_b_n_73 : tensor<64xi32> loc(#loc192)
    } else {
      %offs_b_n = arith.constant dense<512> : tensor<64xi32> loc(#loc152)
      %offs_b_n_73 = arith.remsi %rn_39, %offs_b_n : tensor<64xi32> loc(#loc193)
      scf.yield %offs_b_n_73 : tensor<64xi32> loc(#loc152)
    } loc(#loc63)
    %offs_k = tt.make_range {end = 32 : i32, start = 0 : i32} : tensor<32xi32> loc(#loc153)
    %acc = tt.call @"triton.language.standard.zeros____(0, 0)cconstexpr_64__(0, 1)cconstexpr_64__(1,)cconstexpr_fp32_"() : () -> tensor<64x64xf32> loc(#loc154)
    %28 = tt.call @"triton.language.standard.cdiv__i32__(1,)cconstexpr_32_"(%K) : (i32) -> i32 loc(#loc68)
    %c0_i32_46 = arith.constant 0 : i32 loc(#loc69)
    %c1_i32_47 = arith.constant 1 : i32 loc(#loc69)
    %29 = arith.bitcast %c0_i32_46 : i32 to i32 loc(#loc69)
    %30 = arith.bitcast %28 : i32 to i32 loc(#loc69)
    %31 = arith.bitcast %c1_i32_47 : i32 to i32 loc(#loc69)
    %32 = ub.poison : i32 loc(#loc69)
    %acc_48 = scf.for %k_idx = %29 to %30 step %31 iter_args(%acc_73 = %acc) -> (tensor<64x64xf32>)  : i32 {
      %a_k_idx_vals = tt.expand_dims %offs_k {axis = 0 : i32} : tensor<32xi32> -> tensor<1x32xi32> loc(#loc156)
      %a_k_idx_vals_74 = arith.constant 32 : i32 loc(#loc157)
      %a_k_idx_vals_75 = arith.constant 32 : i32 loc(#loc157)
      %a_k_idx_vals_76 = arith.muli %k_idx, %a_k_idx_vals_75 : i32 loc(#loc157)
      %a_k_idx_vals_77 = tt.splat %a_k_idx_vals_76 : i32 -> tensor<1x32xi32> loc(#loc158)
      %a_k_idx_vals_78 = arith.addi %a_k_idx_vals, %a_k_idx_vals_77 : tensor<1x32xi32> loc(#loc158)
      %b_k_idx_vals = tt.expand_dims %offs_k {axis = 1 : i32} : tensor<32xi32> -> tensor<32x1xi32> loc(#loc159)
      %b_k_idx_vals_79 = arith.constant 32 : i32 loc(#loc160)
      %b_k_idx_vals_80 = arith.constant 32 : i32 loc(#loc160)
      %b_k_idx_vals_81 = arith.muli %k_idx, %b_k_idx_vals_80 : i32 loc(#loc160)
      %b_k_idx_vals_82 = tt.splat %b_k_idx_vals_81 : i32 -> tensor<32x1xi32> loc(#loc161)
      %b_k_idx_vals_83 = arith.addi %b_k_idx_vals, %b_k_idx_vals_82 : tensor<32x1xi32> loc(#loc161)
      %idx_m_84 = tt.expand_dims %15 {axis = 1 : i32} : tensor<64xi32> -> tensor<64x1xi32> loc(#loc162)
      %xindex_85 = arith.constant 512 : i32 loc(#loc163)
      %xindex_86 = arith.constant 512 : i32 loc(#loc163)
      %xindex_87 = arith.constant dense<512> : tensor<64x1xi32> loc(#loc163)
      %xindex_88 = arith.muli %xindex_87, %idx_m_84 : tensor<64x1xi32> loc(#loc163)
      %xindex_89 = tt.broadcast %a_k_idx_vals_78 : tensor<1x32xi32> -> tensor<64x32xi32> loc(#loc164)
      %xindex_90 = tt.broadcast %xindex_88 : tensor<64x1xi32> -> tensor<64x32xi32> loc(#loc164)
      %xindex_91 = arith.addi %xindex_89, %xindex_90 : tensor<64x32xi32> loc(#loc164)
      %a = tt.splat %arg_A : !tt.ptr<bf16> -> tensor<64x32x!tt.ptr<bf16>> loc(#loc165)
      %a_92 = tt.addptr %a, %xindex_91 : tensor<64x32x!tt.ptr<bf16>>, tensor<64x32xi32> loc(#loc165)
      %a_93 = tt.load %a_92 : tensor<64x32x!tt.ptr<bf16>> loc(#loc166)
      %idx_n_94 = tt.expand_dims %27 {axis = 0 : i32} : tensor<64xi32> -> tensor<1x64xi32> loc(#loc167)
      %xindex_95 = arith.constant 512 : i32 loc(#loc168)
      %xindex_96 = arith.constant 512 : i32 loc(#loc168)
      %xindex_97 = arith.constant dense<512> : tensor<32x1xi32> loc(#loc168)
      %xindex_98 = arith.muli %xindex_97, %b_k_idx_vals_83 : tensor<32x1xi32> loc(#loc168)
      %xindex_99 = tt.broadcast %idx_n_94 : tensor<1x64xi32> -> tensor<32x64xi32> loc(#loc169)
      %xindex_100 = tt.broadcast %xindex_98 : tensor<32x1xi32> -> tensor<32x64xi32> loc(#loc169)
      %xindex_101 = arith.addi %xindex_99, %xindex_100 : tensor<32x64xi32> loc(#loc169)
      %b = arith.constant 512 : i32 loc(#loc170)
      %b_102 = arith.constant 512 : i32 loc(#loc170)
      %b_103 = arith.constant dense<512> : tensor<1x64xi32> loc(#loc170)
      %b_104 = arith.muli %b_103, %idx_n_94 : tensor<1x64xi32> loc(#loc170)
      %b_105 = tt.broadcast %b_k_idx_vals_83 : tensor<32x1xi32> -> tensor<32x64xi32> loc(#loc171)
      %b_106 = tt.broadcast %b_104 : tensor<1x64xi32> -> tensor<32x64xi32> loc(#loc171)
      %b_107 = arith.addi %b_105, %b_106 : tensor<32x64xi32> loc(#loc171)
      %b_108 = tt.splat %arg_B : !tt.ptr<bf16> -> tensor<32x64x!tt.ptr<bf16>> loc(#loc172)
      %b_109 = tt.addptr %b_108, %b_107 : tensor<32x64x!tt.ptr<bf16>>, tensor<32x64xi32> loc(#loc172)
      %b_110 = tt.load %b_109 : tensor<32x64x!tt.ptr<bf16>> loc(#loc173)
      %acc_111 = arith.constant 0.000000e+00 : f32 loc(#loc174)
      %acc_112 = arith.constant dense<0.000000e+00> : tensor<64x64xf32> loc(#loc174)
      %acc_113 = tt.dot %a_93, %b_110, %acc_112 : tensor<64x32xbf16> * tensor<32x64xbf16> -> tensor<64x64xf32> loc(#loc174)
      %acc_114 = arith.addf %acc_73, %acc_113 : tensor<64x64xf32> loc(#loc175)
      scf.yield %acc_114 : tensor<64x64xf32> loc(#loc90)
    } loc(#loc155)
    %rm_49 = arith.constant 64 : i32 loc(#loc176)
    %rm_50 = arith.constant 64 : i32 loc(#loc176)
    %rm_51 = arith.muli %pid_m_26, %rm_50 : i32 loc(#loc176)
    %rm_52 = tt.make_range {end = 64 : i32, start = 0 : i32} : tensor<64xi32> loc(#loc177)
    %rm_53 = tt.splat %rm_51 : i32 -> tensor<64xi32> loc(#loc178)
    %rm_54 = arith.addi %rm_53, %rm_52 : tensor<64xi32> loc(#loc178)
    %rn_55 = arith.constant 64 : i32 loc(#loc179)
    %rn_56 = arith.constant 64 : i32 loc(#loc179)
    %rn_57 = arith.muli %pid_n_27, %rn_56 : i32 loc(#loc179)
    %rn_58 = tt.make_range {end = 64 : i32, start = 0 : i32} : tensor<64xi32> loc(#loc180)
    %rn_59 = tt.splat %rn_57 : i32 -> tensor<64xi32> loc(#loc181)
    %rn_60 = arith.addi %rn_59, %rn_58 : tensor<64xi32> loc(#loc181)
    %idx_m = tt.expand_dims %rm_54 {axis = 1 : i32} : tensor<64xi32> -> tensor<64x1xi32> loc(#loc182)
    %idx_n = tt.expand_dims %rn_60 {axis = 0 : i32} : tensor<64xi32> -> tensor<1x64xi32> loc(#loc183)
    %mask = arith.constant dense<4096> : tensor<64x1xi32> loc(#loc184)
    %mask_61 = arith.cmpi slt, %idx_m, %mask : tensor<64x1xi32> loc(#loc184)
    %mask_62 = arith.constant dense<512> : tensor<1x64xi32> loc(#loc185)
    %mask_63 = arith.cmpi slt, %idx_n, %mask_62 : tensor<1x64xi32> loc(#loc185)
    %mask_64 = tt.broadcast %mask_61 : tensor<64x1xi1> -> tensor<64x64xi1> loc(#loc186)
    %mask_65 = tt.broadcast %mask_63 : tensor<1x64xi1> -> tensor<64x64xi1> loc(#loc186)
    %mask_66 = arith.andi %mask_64, %mask_65 : tensor<64x64xi1> loc(#loc186)
    %xindex = arith.constant 512 : i32 loc(#loc187)
    %xindex_67 = arith.constant 512 : i32 loc(#loc187)
    %xindex_68 = arith.constant dense<512> : tensor<64x1xi32> loc(#loc187)
    %xindex_69 = arith.muli %xindex_68, %idx_m : tensor<64x1xi32> loc(#loc187)
    %xindex_70 = tt.broadcast %idx_n : tensor<1x64xi32> -> tensor<64x64xi32> loc(#loc188)
    %xindex_71 = tt.broadcast %xindex_69 : tensor<64x1xi32> -> tensor<64x64xi32> loc(#loc188)
    %xindex_72 = arith.addi %xindex_70, %xindex_71 : tensor<64x64xi32> loc(#loc188)
    %33 = tt.splat %out_ptr0 : !tt.ptr<bf16> -> tensor<64x64x!tt.ptr<bf16>> loc(#loc104)
    %34 = tt.addptr %33, %xindex_72 : tensor<64x64x!tt.ptr<bf16>>, tensor<64x64xi32> loc(#loc104)
    %35 = arith.truncf %acc_48 : tensor<64x64xf32> to tensor<64x64xbf16> loc(#loc105)
    tt.store %34, %35, %mask_66 : tensor<64x64x!tt.ptr<bf16>> loc(#loc105)
    tt.return loc(#loc106)
  } loc(#loc)
  tt.func private @"triton.language.standard.zeros____(0, 0)cconstexpr_64__(0, 1)cconstexpr_64__(1,)cconstexpr_fp32_"() -> tensor<64x64xf32> attributes {noinline = false} {
    %cst = arith.constant 0.000000e+00 : f32 loc(#loc108)
    %cst_0 = arith.constant dense<0.000000e+00> : tensor<64x64xf32> loc(#loc108)
    tt.return %cst_0 : tensor<64x64xf32> loc(#loc109)
  ^bb1:  // no predecessors
    %0 = ub.poison : tensor<64x64xf32> loc(#loc110)
    tt.return %0 : tensor<64x64xf32> loc(#loc110)
  } loc(#loc107)
  tt.func private @"triton.language.standard.cdiv__i32__(1,)cconstexpr_32_"(%x: i32 loc("x"(#loc111))) -> i32 attributes {noinline = false} {
    %c31_i32 = arith.constant 31 : i32 loc(#loc112)
    %c31_i32_0 = arith.constant 31 : i32 loc(#loc112)
    %0 = arith.addi %x, %c31_i32_0 : i32 loc(#loc112)
    %c32_i32 = arith.constant 32 : i32 loc(#loc113)
    %c32_i32_1 = arith.constant 32 : i32 loc(#loc113)
    %1 = arith.divsi %0, %c32_i32_1 : i32 loc(#loc113)
    tt.return %1 : i32 loc(#loc114)
  ^bb1:  // no predecessors
    %2 = ub.poison : i32 loc(#loc115)
    tt.return %2 : i32 loc(#loc115)
  } loc(#loc111)
} loc(#loc)
#loc1 = loc("/root/Profiler/examples/sdpa_attention/test_run/inductor_debug_opt/dp/cdpe62dgsmu6qbwm7zeqevs2erq6ioh7ywfpramo7dkskjdfkvvi.py":31:8)
#loc2 = loc("/root/Profiler/examples/sdpa_attention/test_run/inductor_debug_opt/dp/cdpe62dgsmu6qbwm7zeqevs2erq6ioh7ywfpramo7dkskjdfkvvi.py":32:8)
#loc3 = loc("/root/Profiler/examples/sdpa_attention/test_run/inductor_debug_opt/dp/cdpe62dgsmu6qbwm7zeqevs2erq6ioh7ywfpramo7dkskjdfkvvi.py":33:8)
#loc4 = loc("/root/Profiler/examples/sdpa_attention/test_run/inductor_debug_opt/dp/cdpe62dgsmu6qbwm7zeqevs2erq6ioh7ywfpramo7dkskjdfkvvi.py":34:11)
#loc5 = loc("/root/Profiler/examples/sdpa_attention/test_run/inductor_debug_opt/dp/cdpe62dgsmu6qbwm7zeqevs2erq6ioh7ywfpramo7dkskjdfkvvi.py":34:16)
#loc6 = loc("/root/Profiler/examples/sdpa_attention/test_run/inductor_debug_opt/dp/cdpe62dgsmu6qbwm7zeqevs2erq6ioh7ywfpramo7dkskjdfkvvi.py":36:8)
#loc7 = loc("/root/Profiler/examples/sdpa_attention/test_run/inductor_debug_opt/dp/cdpe62dgsmu6qbwm7zeqevs2erq6ioh7ywfpramo7dkskjdfkvvi.py":37:16)
#loc8 = loc("/root/Profiler/examples/sdpa_attention/test_run/inductor_debug_opt/dp/cdpe62dgsmu6qbwm7zeqevs2erq6ioh7ywfpramo7dkskjdfkvvi.py":38:16)
#loc9 = loc("/root/Profiler/examples/sdpa_attention/test_run/inductor_debug_opt/dp/cdpe62dgsmu6qbwm7zeqevs2erq6ioh7ywfpramo7dkskjdfkvvi.py":39:16)
#loc10 = loc("/root/Profiler/examples/sdpa_attention/test_run/inductor_debug_opt/dp/cdpe62dgsmu6qbwm7zeqevs2erq6ioh7ywfpramo7dkskjdfkvvi.py":40:16)
#loc11 = loc("/root/Profiler/examples/sdpa_attention/test_run/inductor_debug_opt/dp/cdpe62dgsmu6qbwm7zeqevs2erq6ioh7ywfpramo7dkskjdfkvvi.py":43:24)
#loc12 = loc("/root/Profiler/examples/sdpa_attention/test_run/inductor_debug_opt/dp/cdpe62dgsmu6qbwm7zeqevs2erq6ioh7ywfpramo7dkskjdfkvvi.py":44:18)
#loc13 = loc("/root/Profiler/examples/sdpa_attention/test_run/inductor_debug_opt/dp/cdpe62dgsmu6qbwm7zeqevs2erq6ioh7ywfpramo7dkskjdfkvvi.py":44:28)
#loc14 = loc("/root/Profiler/examples/sdpa_attention/test_run/inductor_debug_opt/dp/cdpe62dgsmu6qbwm7zeqevs2erq6ioh7ywfpramo7dkskjdfkvvi.py":44:34)
#loc15 = loc("/root/Profiler/examples/sdpa_attention/test_run/inductor_debug_opt/dp/cdpe62dgsmu6qbwm7zeqevs2erq6ioh7ywfpramo7dkskjdfkvvi.py":45:18)
#loc16 = loc("/root/Profiler/examples/sdpa_attention/test_run/inductor_debug_opt/dp/cdpe62dgsmu6qbwm7zeqevs2erq6ioh7ywfpramo7dkskjdfkvvi.py":45:28)
#loc17 = loc("/root/Profiler/examples/sdpa_attention/test_run/inductor_debug_opt/dp/cdpe62dgsmu6qbwm7zeqevs2erq6ioh7ywfpramo7dkskjdfkvvi.py":45:34)
#loc18 = loc("/root/Profiler/examples/sdpa_attention/test_run/inductor_debug_opt/dp/cdpe62dgsmu6qbwm7zeqevs2erq6ioh7ywfpramo7dkskjdfkvvi.py":48:22)
#loc19 = loc("/root/Profiler/examples/sdpa_attention/test_run/inductor_debug_opt/dp/cdpe62dgsmu6qbwm7zeqevs2erq6ioh7ywfpramo7dkskjdfkvvi.py":49:22)
#loc20 = loc("/root/Profiler/examples/sdpa_attention/test_run/inductor_debug_opt/dp/cdpe62dgsmu6qbwm7zeqevs2erq6ioh7ywfpramo7dkskjdfkvvi.py":50:41)
#loc21 = loc("/root/Profiler/examples/sdpa_attention/test_run/inductor_debug_opt/dp/cdpe62dgsmu6qbwm7zeqevs2erq6ioh7ywfpramo7dkskjdfkvvi.py":50:30)
#loc22 = loc("/root/Profiler/examples/sdpa_attention/test_run/inductor_debug_opt/dp/cdpe62dgsmu6qbwm7zeqevs2erq6ioh7ywfpramo7dkskjdfkvvi.py":50:50)
#loc23 = loc("/root/Profiler/examples/sdpa_attention/test_run/inductor_debug_opt/dp/cdpe62dgsmu6qbwm7zeqevs2erq6ioh7ywfpramo7dkskjdfkvvi.py":51:23)
#loc24 = loc("/root/Profiler/examples/sdpa_attention/test_run/inductor_debug_opt/dp/cdpe62dgsmu6qbwm7zeqevs2erq6ioh7ywfpramo7dkskjdfkvvi.py":51:40)
#loc25 = loc("/root/Profiler/examples/sdpa_attention/test_run/inductor_debug_opt/dp/cdpe62dgsmu6qbwm7zeqevs2erq6ioh7ywfpramo7dkskjdfkvvi.py":51:34)
#loc26 = loc("/root/Profiler/examples/sdpa_attention/test_run/inductor_debug_opt/dp/cdpe62dgsmu6qbwm7zeqevs2erq6ioh7ywfpramo7dkskjdfkvvi.py":52:19)
#loc27 = loc("/root/Profiler/examples/sdpa_attention/test_run/inductor_debug_opt/dp/cdpe62dgsmu6qbwm7zeqevs2erq6ioh7ywfpramo7dkskjdfkvvi.py":52:30)
#loc28 = loc("/root/Profiler/examples/sdpa_attention/test_run/inductor_debug_opt/dp/cdpe62dgsmu6qbwm7zeqevs2erq6ioh7ywfpramo7dkskjdfkvvi.py":53:23)
#loc29 = loc("/root/Profiler/examples/sdpa_attention/test_run/inductor_debug_opt/dp/cdpe62dgsmu6qbwm7zeqevs2erq6ioh7ywfpramo7dkskjdfkvvi.py":53:14)
#loc30 = loc("/root/Profiler/examples/sdpa_attention/test_run/inductor_debug_opt/dp/cdpe62dgsmu6qbwm7zeqevs2erq6ioh7ywfpramo7dkskjdfkvvi.py":54:23)
#loc31 = loc("/root/Profiler/examples/sdpa_attention/test_run/inductor_debug_opt/dp/cdpe62dgsmu6qbwm7zeqevs2erq6ioh7ywfpramo7dkskjdfkvvi.py":54:14)
#loc32 = loc("/root/Profiler/examples/sdpa_attention/test_run/inductor_debug_opt/dp/cdpe62dgsmu6qbwm7zeqevs2erq6ioh7ywfpramo7dkskjdfkvvi.py":56:17)
#loc33 = loc("/root/Profiler/examples/sdpa_attention/test_run/inductor_debug_opt/dp/cdpe62dgsmu6qbwm7zeqevs2erq6ioh7ywfpramo7dkskjdfkvvi.py":56:40)
#loc34 = loc("/root/Profiler/examples/sdpa_attention/test_run/inductor_debug_opt/dp/cdpe62dgsmu6qbwm7zeqevs2erq6ioh7ywfpramo7dkskjdfkvvi.py":56:27)
#loc35 = loc("/root/Profiler/examples/sdpa_attention/test_run/inductor_debug_opt/dp/cdpe62dgsmu6qbwm7zeqevs2erq6ioh7ywfpramo7dkskjdfkvvi.py":57:17)
#loc36 = loc("/root/Profiler/examples/sdpa_attention/test_run/inductor_debug_opt/dp/cdpe62dgsmu6qbwm7zeqevs2erq6ioh7ywfpramo7dkskjdfkvvi.py":57:40)
#loc37 = loc("/root/Profiler/examples/sdpa_attention/test_run/inductor_debug_opt/dp/cdpe62dgsmu6qbwm7zeqevs2erq6ioh7ywfpramo7dkskjdfkvvi.py":57:27)
#loc38 = loc("/root/Profiler/examples/sdpa_attention/test_run/inductor_debug_opt/dp/cdpe62dgsmu6qbwm7zeqevs2erq6ioh7ywfpramo7dkskjdfkvvi.py":58:22)
#loc39 = loc("/root/Profiler/examples/sdpa_attention/test_run/inductor_debug_opt/dp/cdpe62dgsmu6qbwm7zeqevs2erq6ioh7ywfpramo7dkskjdfkvvi.py":58:41)
#loc40 = loc("/root/Profiler/examples/sdpa_attention/test_run/inductor_debug_opt/dp/cdpe62dgsmu6qbwm7zeqevs2erq6ioh7ywfpramo7dkskjdfkvvi.py":58:28)
#loc41 = loc("/root/Profiler/examples/sdpa_attention/test_run/inductor_debug_opt/dp/cdpe62dgsmu6qbwm7zeqevs2erq6ioh7ywfpramo7dkskjdfkvvi.py":58:61)
#loc42 = loc("/root/Profiler/examples/sdpa_attention/test_run/inductor_debug_opt/dp/cdpe62dgsmu6qbwm7zeqevs2erq6ioh7ywfpramo7dkskjdfkvvi.py":58:80)
#loc43 = loc("/root/Profiler/examples/sdpa_attention/test_run/inductor_debug_opt/dp/cdpe62dgsmu6qbwm7zeqevs2erq6ioh7ywfpramo7dkskjdfkvvi.py":58:67)
#loc44 = loc("/root/Profiler/examples/sdpa_attention/test_run/inductor_debug_opt/dp/cdpe62dgsmu6qbwm7zeqevs2erq6ioh7ywfpramo7dkskjdfkvvi.py":58:48)
#loc45 = loc("/root/Profiler/examples/sdpa_attention/test_run/inductor_debug_opt/dp/cdpe62dgsmu6qbwm7zeqevs2erq6ioh7ywfpramo7dkskjdfkvvi.py":58:94)
#loc46 = loc("/root/Profiler/examples/sdpa_attention/test_run/inductor_debug_opt/dp/cdpe62dgsmu6qbwm7zeqevs2erq6ioh7ywfpramo7dkskjdfkvvi.py":58:110)
#loc47 = loc("/root/Profiler/examples/sdpa_attention/test_run/inductor_debug_opt/dp/cdpe62dgsmu6qbwm7zeqevs2erq6ioh7ywfpramo7dkskjdfkvvi.py":58:106)
#loc48 = loc("/root/Profiler/examples/sdpa_attention/test_run/inductor_debug_opt/dp/cdpe62dgsmu6qbwm7zeqevs2erq6ioh7ywfpramo7dkskjdfkvvi.py":58:89)
#loc49 = loc("/root/Profiler/examples/sdpa_attention/test_run/inductor_debug_opt/dp/cdpe62dgsmu6qbwm7zeqevs2erq6ioh7ywfpramo7dkskjdfkvvi.py":58:7)
#loc50 = loc("/root/Profiler/examples/sdpa_attention/test_run/inductor_debug_opt/dp/cdpe62dgsmu6qbwm7zeqevs2erq6ioh7ywfpramo7dkskjdfkvvi.py":59:57)
#loc51 = loc("/root/Profiler/examples/sdpa_attention/test_run/inductor_debug_opt/dp/cdpe62dgsmu6qbwm7zeqevs2erq6ioh7ywfpramo7dkskjdfkvvi.py":61:24)
#loc52 = loc("/root/Profiler/examples/sdpa_attention/test_run/inductor_debug_opt/dp/cdpe62dgsmu6qbwm7zeqevs2erq6ioh7ywfpramo7dkskjdfkvvi.py":62:22)
#loc53 = loc("/root/Profiler/examples/sdpa_attention/test_run/inductor_debug_opt/dp/cdpe62dgsmu6qbwm7zeqevs2erq6ioh7ywfpramo7dkskjdfkvvi.py":62:41)
#loc54 = loc("/root/Profiler/examples/sdpa_attention/test_run/inductor_debug_opt/dp/cdpe62dgsmu6qbwm7zeqevs2erq6ioh7ywfpramo7dkskjdfkvvi.py":62:28)
#loc55 = loc("/root/Profiler/examples/sdpa_attention/test_run/inductor_debug_opt/dp/cdpe62dgsmu6qbwm7zeqevs2erq6ioh7ywfpramo7dkskjdfkvvi.py":62:61)
#loc56 = loc("/root/Profiler/examples/sdpa_attention/test_run/inductor_debug_opt/dp/cdpe62dgsmu6qbwm7zeqevs2erq6ioh7ywfpramo7dkskjdfkvvi.py":62:80)
#loc57 = loc("/root/Profiler/examples/sdpa_attention/test_run/inductor_debug_opt/dp/cdpe62dgsmu6qbwm7zeqevs2erq6ioh7ywfpramo7dkskjdfkvvi.py":62:67)
#loc58 = loc("/root/Profiler/examples/sdpa_attention/test_run/inductor_debug_opt/dp/cdpe62dgsmu6qbwm7zeqevs2erq6ioh7ywfpramo7dkskjdfkvvi.py":62:48)
#loc59 = loc("/root/Profiler/examples/sdpa_attention/test_run/inductor_debug_opt/dp/cdpe62dgsmu6qbwm7zeqevs2erq6ioh7ywfpramo7dkskjdfkvvi.py":62:94)
#loc60 = loc("/root/Profiler/examples/sdpa_attention/test_run/inductor_debug_opt/dp/cdpe62dgsmu6qbwm7zeqevs2erq6ioh7ywfpramo7dkskjdfkvvi.py":62:110)
#loc61 = loc("/root/Profiler/examples/sdpa_attention/test_run/inductor_debug_opt/dp/cdpe62dgsmu6qbwm7zeqevs2erq6ioh7ywfpramo7dkskjdfkvvi.py":62:106)
#loc62 = loc("/root/Profiler/examples/sdpa_attention/test_run/inductor_debug_opt/dp/cdpe62dgsmu6qbwm7zeqevs2erq6ioh7ywfpramo7dkskjdfkvvi.py":62:89)
#loc63 = loc("/root/Profiler/examples/sdpa_attention/test_run/inductor_debug_opt/dp/cdpe62dgsmu6qbwm7zeqevs2erq6ioh7ywfpramo7dkskjdfkvvi.py":62:7)
#loc64 = loc("/root/Profiler/examples/sdpa_attention/test_run/inductor_debug_opt/dp/cdpe62dgsmu6qbwm7zeqevs2erq6ioh7ywfpramo7dkskjdfkvvi.py":63:57)
#loc65 = loc("/root/Profiler/examples/sdpa_attention/test_run/inductor_debug_opt/dp/cdpe62dgsmu6qbwm7zeqevs2erq6ioh7ywfpramo7dkskjdfkvvi.py":65:24)
#loc66 = loc("/root/Profiler/examples/sdpa_attention/test_run/inductor_debug_opt/dp/cdpe62dgsmu6qbwm7zeqevs2erq6ioh7ywfpramo7dkskjdfkvvi.py":66:26)
#loc67 = loc("/root/Profiler/examples/sdpa_attention/test_run/inductor_debug_opt/dp/cdpe62dgsmu6qbwm7zeqevs2erq6ioh7ywfpramo7dkskjdfkvvi.py":67:19)
#loc68 = loc("/root/Profiler/examples/sdpa_attention/test_run/inductor_debug_opt/dp/cdpe62dgsmu6qbwm7zeqevs2erq6ioh7ywfpramo7dkskjdfkvvi.py":69:37)
#loc69 = loc("/root/Profiler/examples/sdpa_attention/test_run/inductor_debug_opt/dp/cdpe62dgsmu6qbwm7zeqevs2erq6ioh7ywfpramo7dkskjdfkvvi.py":69:26)
#loc70 = loc("/root/Profiler/examples/sdpa_attention/test_run/inductor_debug_opt/dp/cdpe62dgsmu6qbwm7zeqevs2erq6ioh7ywfpramo7dkskjdfkvvi.py":71:30)
#loc71 = loc("/root/Profiler/examples/sdpa_attention/test_run/inductor_debug_opt/dp/cdpe62dgsmu6qbwm7zeqevs2erq6ioh7ywfpramo7dkskjdfkvvi.py":71:50)
#loc72 = loc("/root/Profiler/examples/sdpa_attention/test_run/inductor_debug_opt/dp/cdpe62dgsmu6qbwm7zeqevs2erq6ioh7ywfpramo7dkskjdfkvvi.py":71:42)
#loc73 = loc("/root/Profiler/examples/sdpa_attention/test_run/inductor_debug_opt/dp/cdpe62dgsmu6qbwm7zeqevs2erq6ioh7ywfpramo7dkskjdfkvvi.py":72:30)
#loc74 = loc("/root/Profiler/examples/sdpa_attention/test_run/inductor_debug_opt/dp/cdpe62dgsmu6qbwm7zeqevs2erq6ioh7ywfpramo7dkskjdfkvvi.py":72:50)
#loc75 = loc("/root/Profiler/examples/sdpa_attention/test_run/inductor_debug_opt/dp/cdpe62dgsmu6qbwm7zeqevs2erq6ioh7ywfpramo7dkskjdfkvvi.py":72:42)
#loc76 = loc("/root/Profiler/examples/sdpa_attention/test_run/inductor_debug_opt/dp/cdpe62dgsmu6qbwm7zeqevs2erq6ioh7ywfpramo7dkskjdfkvvi.py":74:25)
#loc77 = loc("/root/Profiler/examples/sdpa_attention/test_run/inductor_debug_opt/dp/cdpe62dgsmu6qbwm7zeqevs2erq6ioh7ywfpramo7dkskjdfkvvi.py":76:29)
#loc78 = loc("/root/Profiler/examples/sdpa_attention/test_run/inductor_debug_opt/dp/cdpe62dgsmu6qbwm7zeqevs2erq6ioh7ywfpramo7dkskjdfkvvi.py":76:25)
#loc79 = loc("/root/Profiler/examples/sdpa_attention/test_run/inductor_debug_opt/dp/cdpe62dgsmu6qbwm7zeqevs2erq6ioh7ywfpramo7dkskjdfkvvi.py":77:25)
#loc80 = loc("/root/Profiler/examples/sdpa_attention/test_run/inductor_debug_opt/dp/cdpe62dgsmu6qbwm7zeqevs2erq6ioh7ywfpramo7dkskjdfkvvi.py":77:20)
#loc81 = loc("/root/Profiler/examples/sdpa_attention/test_run/inductor_debug_opt/dp/cdpe62dgsmu6qbwm7zeqevs2erq6ioh7ywfpramo7dkskjdfkvvi.py":80:25)
#loc82 = loc("/root/Profiler/examples/sdpa_attention/test_run/inductor_debug_opt/dp/cdpe62dgsmu6qbwm7zeqevs2erq6ioh7ywfpramo7dkskjdfkvvi.py":81:29)
#loc83 = loc("/root/Profiler/examples/sdpa_attention/test_run/inductor_debug_opt/dp/cdpe62dgsmu6qbwm7zeqevs2erq6ioh7ywfpramo7dkskjdfkvvi.py":81:25)
#loc84 = loc("/root/Profiler/examples/sdpa_attention/test_run/inductor_debug_opt/dp/cdpe62dgsmu6qbwm7zeqevs2erq6ioh7ywfpramo7dkskjdfkvvi.py":82:54)
#loc85 = loc("/root/Profiler/examples/sdpa_attention/test_run/inductor_debug_opt/dp/cdpe62dgsmu6qbwm7zeqevs2erq6ioh7ywfpramo7dkskjdfkvvi.py":82:50)
#loc86 = loc("/root/Profiler/examples/sdpa_attention/test_run/inductor_debug_opt/dp/cdpe62dgsmu6qbwm7zeqevs2erq6ioh7ywfpramo7dkskjdfkvvi.py":82:25)
#loc87 = loc("/root/Profiler/examples/sdpa_attention/test_run/inductor_debug_opt/dp/cdpe62dgsmu6qbwm7zeqevs2erq6ioh7ywfpramo7dkskjdfkvvi.py":82:20)
#loc88 = loc("/root/Profiler/examples/sdpa_attention/test_run/inductor_debug_opt/dp/cdpe62dgsmu6qbwm7zeqevs2erq6ioh7ywfpramo7dkskjdfkvvi.py":85:25)
#loc89 = loc("/root/Profiler/examples/sdpa_attention/test_run/inductor_debug_opt/dp/cdpe62dgsmu6qbwm7zeqevs2erq6ioh7ywfpramo7dkskjdfkvvi.py":85:15)
#loc90 = loc("/root/Profiler/examples/sdpa_attention/test_run/inductor_debug_opt/dp/cdpe62dgsmu6qbwm7zeqevs2erq6ioh7ywfpramo7dkskjdfkvvi.py":85:8)
#loc91 = loc("/root/Profiler/examples/sdpa_attention/test_run/inductor_debug_opt/dp/cdpe62dgsmu6qbwm7zeqevs2erq6ioh7ywfpramo7dkskjdfkvvi.py":89:17)
#loc92 = loc("/root/Profiler/examples/sdpa_attention/test_run/inductor_debug_opt/dp/cdpe62dgsmu6qbwm7zeqevs2erq6ioh7ywfpramo7dkskjdfkvvi.py":89:40)
#loc93 = loc("/root/Profiler/examples/sdpa_attention/test_run/inductor_debug_opt/dp/cdpe62dgsmu6qbwm7zeqevs2erq6ioh7ywfpramo7dkskjdfkvvi.py":89:27)
#loc94 = loc("/root/Profiler/examples/sdpa_attention/test_run/inductor_debug_opt/dp/cdpe62dgsmu6qbwm7zeqevs2erq6ioh7ywfpramo7dkskjdfkvvi.py":90:17)
#loc95 = loc("/root/Profiler/examples/sdpa_attention/test_run/inductor_debug_opt/dp/cdpe62dgsmu6qbwm7zeqevs2erq6ioh7ywfpramo7dkskjdfkvvi.py":90:40)
#loc96 = loc("/root/Profiler/examples/sdpa_attention/test_run/inductor_debug_opt/dp/cdpe62dgsmu6qbwm7zeqevs2erq6ioh7ywfpramo7dkskjdfkvvi.py":90:27)
#loc97 = loc("/root/Profiler/examples/sdpa_attention/test_run/inductor_debug_opt/dp/cdpe62dgsmu6qbwm7zeqevs2erq6ioh7ywfpramo7dkskjdfkvvi.py":91:15)
#loc98 = loc("/root/Profiler/examples/sdpa_attention/test_run/inductor_debug_opt/dp/cdpe62dgsmu6qbwm7zeqevs2erq6ioh7ywfpramo7dkskjdfkvvi.py":92:15)
#loc99 = loc("/root/Profiler/examples/sdpa_attention/test_run/inductor_debug_opt/dp/cdpe62dgsmu6qbwm7zeqevs2erq6ioh7ywfpramo7dkskjdfkvvi.py":93:20)
#loc100 = loc("/root/Profiler/examples/sdpa_attention/test_run/inductor_debug_opt/dp/cdpe62dgsmu6qbwm7zeqevs2erq6ioh7ywfpramo7dkskjdfkvvi.py":93:34)
#loc101 = loc("/root/Profiler/examples/sdpa_attention/test_run/inductor_debug_opt/dp/cdpe62dgsmu6qbwm7zeqevs2erq6ioh7ywfpramo7dkskjdfkvvi.py":93:26)
#loc102 = loc("/root/Profiler/examples/sdpa_attention/test_run/inductor_debug_opt/dp/cdpe62dgsmu6qbwm7zeqevs2erq6ioh7ywfpramo7dkskjdfkvvi.py":96:25)
#loc103 = loc("/root/Profiler/examples/sdpa_attention/test_run/inductor_debug_opt/dp/cdpe62dgsmu6qbwm7zeqevs2erq6ioh7ywfpramo7dkskjdfkvvi.py":96:21)
#loc104 = loc("/root/Profiler/examples/sdpa_attention/test_run/inductor_debug_opt/dp/cdpe62dgsmu6qbwm7zeqevs2erq6ioh7ywfpramo7dkskjdfkvvi.py":97:25)
#loc105 = loc("/root/Profiler/examples/sdpa_attention/test_run/inductor_debug_opt/dp/cdpe62dgsmu6qbwm7zeqevs2erq6ioh7ywfpramo7dkskjdfkvvi.py":97:76)
#loc106 = loc("/root/Profiler/examples/sdpa_attention/test_run/inductor_debug_opt/dp/cdpe62dgsmu6qbwm7zeqevs2erq6ioh7ywfpramo7dkskjdfkvvi.py":97:4)
#loc107 = loc("/usr/local/lib/python3.10/dist-packages/triton/language/standard.py":120:0)
#loc108 = loc("/usr/local/lib/python3.10/dist-packages/triton/language/standard.py":129:31)
#loc109 = loc("/usr/local/lib/python3.10/dist-packages/triton/language/standard.py":129:11)
#loc110 = loc("/usr/local/lib/python3.10/dist-packages/triton/language/standard.py":129:4)
#loc112 = loc("/usr/local/lib/python3.10/dist-packages/triton/language/standard.py":43:17)
#loc113 = loc("/usr/local/lib/python3.10/dist-packages/triton/language/standard.py":43:30)
#loc114 = loc("/usr/local/lib/python3.10/dist-packages/triton/language/standard.py":43:11)
#loc115 = loc("/usr/local/lib/python3.10/dist-packages/triton/language/standard.py":43:4)
#loc119 = loc("M"(#loc1))
#loc120 = loc("N"(#loc2))
#loc121 = loc("K"(#loc3))
#loc122 = loc("stride_am"(#loc7))
#loc123 = loc("stride_ak"(#loc8))
#loc124 = loc("stride_bk"(#loc9))
#loc125 = loc("stride_bn"(#loc10))
#loc126 = loc("pid"(#loc11))
#loc127 = loc("grid_m"(#loc12))
#loc128 = loc("grid_m"(#loc13))
#loc129 = loc("grid_m"(#loc14))
#loc130 = loc("grid_n"(#loc15))
#loc131 = loc("grid_n"(#loc16))
#loc132 = loc("grid_n"(#loc17))
#loc133 = loc("width"(#loc18))
#loc134 = loc("group_id"(#loc19))
#loc135 = loc("group_size"(#loc20))
#loc136 = loc("group_size"(#loc21))
#loc137 = loc("group_size"(#loc22))
#loc138 = loc("pid_m"(#loc23))
#loc139 = loc("pid_m"(#loc24))
#loc140 = loc("pid_m"(#loc25))
#loc141 = loc("pid_n"(#loc26))
#loc142 = loc("pid_n"(#loc27))
#loc143 = loc("rm"(#loc32))
#loc144 = loc("rm"(#loc33))
#loc145 = loc("rm"(#loc34))
#loc146 = loc("rn"(#loc35))
#loc147 = loc("rn"(#loc36))
#loc148 = loc("rn"(#loc37))
#loc149 = loc("offs_a_m"(#loc50))
#loc150 = loc("offs_a_m"(#loc51))
#loc151 = loc("offs_b_n"(#loc64))
#loc152 = loc("offs_b_n"(#loc65))
#loc153 = loc("offs_k"(#loc66))
#loc154 = loc("acc"(#loc67))
#loc155 = loc("acc"(#loc69))
#loc156 = loc("a_k_idx_vals"(#loc70))
#loc157 = loc("a_k_idx_vals"(#loc71))
#loc158 = loc("a_k_idx_vals"(#loc72))
#loc159 = loc("b_k_idx_vals"(#loc73))
#loc160 = loc("b_k_idx_vals"(#loc74))
#loc161 = loc("b_k_idx_vals"(#loc75))
#loc162 = loc("idx_m"(#loc76))
#loc163 = loc("xindex"(#loc77))
#loc164 = loc("xindex"(#loc78))
#loc165 = loc("a"(#loc79))
#loc166 = loc("a"(#loc80))
#loc167 = loc("idx_n"(#loc81))
#loc168 = loc("xindex"(#loc82))
#loc169 = loc("xindex"(#loc83))
#loc170 = loc("b"(#loc84))
#loc171 = loc("b"(#loc85))
#loc172 = loc("b"(#loc86))
#loc173 = loc("b"(#loc87))
#loc174 = loc("acc"(#loc88))
#loc175 = loc("acc"(#loc89))
#loc176 = loc("rm"(#loc91))
#loc177 = loc("rm"(#loc92))
#loc178 = loc("rm"(#loc93))
#loc179 = loc("rn"(#loc94))
#loc180 = loc("rn"(#loc95))
#loc181 = loc("rn"(#loc96))
#loc182 = loc("idx_m"(#loc97))
#loc183 = loc("idx_n"(#loc98))
#loc184 = loc("mask"(#loc99))
#loc185 = loc("mask"(#loc100))
#loc186 = loc("mask"(#loc101))
#loc187 = loc("xindex"(#loc102))
#loc188 = loc("xindex"(#loc103))
#loc190 = loc("offs_a_m"(#loc149))
#loc191 = loc("offs_a_m"(#loc150))
#loc192 = loc("offs_b_n"(#loc151))
#loc193 = loc("offs_b_n"(#loc152))
