#loc = loc("/home/ubuntu/Profiler/profiler_output/inductor_debug/q2/cq2lgkmy4kyvkslxpybjbkq2mcocyv2eakplixptfohogjsb2xbl.py":18:0)
#loc27 = loc("in_out_ptr0"(#loc))
#loc28 = loc("in_ptr0"(#loc))
#loc29 = loc("in_ptr1"(#loc))
#loc30 = loc("xnumel"(#loc))
module {
  tt.func public @triton_poi_fused_add_addmm_gelu_4(%in_out_ptr0: !tt.ptr<f32> {tt.divisibility = 16 : i32} loc("in_out_ptr0"(#loc)), %in_ptr0: !tt.ptr<f32> {tt.divisibility = 16 : i32} loc("in_ptr0"(#loc)), %in_ptr1: !tt.ptr<f32> {tt.divisibility = 16 : i32} loc("in_ptr1"(#loc)), %xnumel: i32 {tt.divisibility = 16 : i32} loc("xnumel"(#loc))) attributes {noinline = false} {
    %xnumel_0 = arith.constant 8192 : i32 loc(#loc31)
    %xoffset = tt.get_program_id x : i32 loc(#loc32)
    %xoffset_1 = arith.constant 256 : i32 loc(#loc33)
    %xoffset_2 = arith.constant 256 : i32 loc(#loc33)
    %xoffset_3 = arith.muli %xoffset, %xoffset_2 : i32 loc(#loc33)
    %xindex = tt.make_range {end = 256 : i32, start = 0 : i32} : tensor<256xi32> loc(#loc34)
    %xindex_4 = tt.splat %xoffset_3 : i32 -> tensor<256xi32> loc(#loc35)
    %xindex_5 = arith.addi %xindex_4, %xindex : tensor<256xi32> loc(#loc35)
    %xmask = arith.constant true loc(#loc36)
    %xmask_6 = arith.constant dense<true> : tensor<256xi1> loc(#loc36)
    %x0 = arith.constant 512 : i32 loc(#loc37)
    %x0_7 = arith.constant 512 : i32 loc(#loc37)
    %x0_8 = arith.constant dense<512> : tensor<256xi32> loc(#loc37)
    %x0_9 = arith.remsi %xindex_5, %x0_8 : tensor<256xi32> loc(#loc37)
    %tmp0 = tt.splat %in_out_ptr0 : !tt.ptr<f32> -> tensor<256x!tt.ptr<f32>> loc(#loc38)
    %tmp0_10 = tt.addptr %tmp0, %xindex_5 : tensor<256x!tt.ptr<f32>>, tensor<256xi32> loc(#loc38)
    %tmp0_11 = tt.load %tmp0_10 : tensor<256x!tt.ptr<f32>> loc(#loc39)
    %tmp1 = tt.splat %in_ptr0 : !tt.ptr<f32> -> tensor<256x!tt.ptr<f32>> loc(#loc40)
    %tmp1_12 = tt.addptr %tmp1, %x0_9 : tensor<256x!tt.ptr<f32>>, tensor<256xi32> loc(#loc40)
    %tmp1_13 = tt.load %tmp1_12 evictionPolicy = evict_last : tensor<256x!tt.ptr<f32>> loc(#loc41)
    %tmp2 = tt.splat %in_ptr1 : !tt.ptr<f32> -> tensor<256x!tt.ptr<f32>> loc(#loc42)
    %tmp2_14 = tt.addptr %tmp2, %xindex_5 : tensor<256x!tt.ptr<f32>>, tensor<256xi32> loc(#loc42)
    %tmp2_15 = tt.load %tmp2_14 : tensor<256x!tt.ptr<f32>> loc(#loc43)
    %tmp3 = arith.addf %tmp1_13, %tmp2_15 : tensor<256xf32> loc(#loc44)
    %tmp4 = arith.constant 5.000000e-01 : f32 loc(#loc45)
    %tmp4_16 = arith.constant dense<5.000000e-01> : tensor<1xf32> loc(#loc45)
    %tmp5 = arith.constant dense<5.000000e-01> : tensor<256xf32> loc(#loc46)
    %tmp5_17 = arith.mulf %tmp3, %tmp5 : tensor<256xf32> loc(#loc46)
    %tmp6 = arith.constant 0.707106769 : f32 loc(#loc47)
    %tmp6_18 = arith.constant dense<0.707106769> : tensor<1xf32> loc(#loc47)
    %tmp7 = arith.constant dense<0.707106769> : tensor<256xf32> loc(#loc48)
    %tmp7_19 = arith.mulf %tmp3, %tmp7 : tensor<256xf32> loc(#loc48)
    %tmp8 = tt.extern_elementwise %tmp7_19 {libname = "", libpath = "", pure = true, symbol = "__nv_erff"} : (tensor<256xf32>) -> tensor<256xf32> loc(#loc49)
    %tmp9 = arith.constant 1.000000e+00 : f32 loc(#loc50)
    %tmp9_20 = arith.constant dense<1.000000e+00> : tensor<1xf32> loc(#loc50)
    %tmp10 = arith.constant dense<1.000000e+00> : tensor<256xf32> loc(#loc51)
    %tmp10_21 = arith.addf %tmp8, %tmp10 : tensor<256xf32> loc(#loc51)
    %tmp11 = arith.mulf %tmp5_17, %tmp10_21 : tensor<256xf32> loc(#loc52)
    %tmp12 = arith.addf %tmp0_11, %tmp11 : tensor<256xf32> loc(#loc53)
    %0 = tt.splat %in_out_ptr0 : !tt.ptr<f32> -> tensor<256x!tt.ptr<f32>> loc(#loc24)
    %1 = tt.addptr %0, %xindex_5 : tensor<256x!tt.ptr<f32>>, tensor<256xi32> loc(#loc24)
    tt.store %1, %tmp12 : tensor<256x!tt.ptr<f32>> loc(#loc25)
    tt.return loc(#loc26)
  } loc(#loc)
} loc(#loc)
#loc1 = loc("/home/ubuntu/Profiler/profiler_output/inductor_debug/q2/cq2lgkmy4kyvkslxpybjbkq2mcocyv2eakplixptfohogjsb2xbl.py":19:13)
#loc2 = loc("/home/ubuntu/Profiler/profiler_output/inductor_debug/q2/cq2lgkmy4kyvkslxpybjbkq2mcocyv2eakplixptfohogjsb2xbl.py":20:28)
#loc3 = loc("/home/ubuntu/Profiler/profiler_output/inductor_debug/q2/cq2lgkmy4kyvkslxpybjbkq2mcocyv2eakplixptfohogjsb2xbl.py":20:33)
#loc4 = loc("/home/ubuntu/Profiler/profiler_output/inductor_debug/q2/cq2lgkmy4kyvkslxpybjbkq2mcocyv2eakplixptfohogjsb2xbl.py":21:36)
#loc5 = loc("/home/ubuntu/Profiler/profiler_output/inductor_debug/q2/cq2lgkmy4kyvkslxpybjbkq2mcocyv2eakplixptfohogjsb2xbl.py":21:23)
#loc6 = loc("/home/ubuntu/Profiler/profiler_output/inductor_debug/q2/cq2lgkmy4kyvkslxpybjbkq2mcocyv2eakplixptfohogjsb2xbl.py":22:36)
#loc7 = loc("/home/ubuntu/Profiler/profiler_output/inductor_debug/q2/cq2lgkmy4kyvkslxpybjbkq2mcocyv2eakplixptfohogjsb2xbl.py":24:19)
#loc8 = loc("/home/ubuntu/Profiler/profiler_output/inductor_debug/q2/cq2lgkmy4kyvkslxpybjbkq2mcocyv2eakplixptfohogjsb2xbl.py":25:34)
#loc9 = loc("/home/ubuntu/Profiler/profiler_output/inductor_debug/q2/cq2lgkmy4kyvkslxpybjbkq2mcocyv2eakplixptfohogjsb2xbl.py":25:39)
#loc10 = loc("/home/ubuntu/Profiler/profiler_output/inductor_debug/q2/cq2lgkmy4kyvkslxpybjbkq2mcocyv2eakplixptfohogjsb2xbl.py":26:30)
#loc11 = loc("/home/ubuntu/Profiler/profiler_output/inductor_debug/q2/cq2lgkmy4kyvkslxpybjbkq2mcocyv2eakplixptfohogjsb2xbl.py":26:35)
#loc12 = loc("/home/ubuntu/Profiler/profiler_output/inductor_debug/q2/cq2lgkmy4kyvkslxpybjbkq2mcocyv2eakplixptfohogjsb2xbl.py":27:30)
#loc13 = loc("/home/ubuntu/Profiler/profiler_output/inductor_debug/q2/cq2lgkmy4kyvkslxpybjbkq2mcocyv2eakplixptfohogjsb2xbl.py":27:35)
#loc14 = loc("/home/ubuntu/Profiler/profiler_output/inductor_debug/q2/cq2lgkmy4kyvkslxpybjbkq2mcocyv2eakplixptfohogjsb2xbl.py":28:18)
#loc15 = loc("/home/ubuntu/Profiler/profiler_output/inductor_debug/q2/cq2lgkmy4kyvkslxpybjbkq2mcocyv2eakplixptfohogjsb2xbl.py":29:29)
#loc16 = loc("/home/ubuntu/Profiler/profiler_output/inductor_debug/q2/cq2lgkmy4kyvkslxpybjbkq2mcocyv2eakplixptfohogjsb2xbl.py":30:18)
#loc17 = loc("/home/ubuntu/Profiler/profiler_output/inductor_debug/q2/cq2lgkmy4kyvkslxpybjbkq2mcocyv2eakplixptfohogjsb2xbl.py":31:44)
#loc18 = loc("/home/ubuntu/Profiler/profiler_output/inductor_debug/q2/cq2lgkmy4kyvkslxpybjbkq2mcocyv2eakplixptfohogjsb2xbl.py":32:18)
#loc19 = loc("/home/ubuntu/Profiler/profiler_output/inductor_debug/q2/cq2lgkmy4kyvkslxpybjbkq2mcocyv2eakplixptfohogjsb2xbl.py":33:25)
#loc20 = loc("/home/ubuntu/Profiler/profiler_output/inductor_debug/q2/cq2lgkmy4kyvkslxpybjbkq2mcocyv2eakplixptfohogjsb2xbl.py":34:29)
#loc21 = loc("/home/ubuntu/Profiler/profiler_output/inductor_debug/q2/cq2lgkmy4kyvkslxpybjbkq2mcocyv2eakplixptfohogjsb2xbl.py":35:19)
#loc22 = loc("/home/ubuntu/Profiler/profiler_output/inductor_debug/q2/cq2lgkmy4kyvkslxpybjbkq2mcocyv2eakplixptfohogjsb2xbl.py":36:19)
#loc23 = loc("/home/ubuntu/Profiler/profiler_output/inductor_debug/q2/cq2lgkmy4kyvkslxpybjbkq2mcocyv2eakplixptfohogjsb2xbl.py":37:19)
#loc24 = loc("/home/ubuntu/Profiler/profiler_output/inductor_debug/q2/cq2lgkmy4kyvkslxpybjbkq2mcocyv2eakplixptfohogjsb2xbl.py":38:28)
#loc25 = loc("/home/ubuntu/Profiler/profiler_output/inductor_debug/q2/cq2lgkmy4kyvkslxpybjbkq2mcocyv2eakplixptfohogjsb2xbl.py":38:40)
#loc26 = loc("/home/ubuntu/Profiler/profiler_output/inductor_debug/q2/cq2lgkmy4kyvkslxpybjbkq2mcocyv2eakplixptfohogjsb2xbl.py":38:4)
#loc31 = loc("xnumel"(#loc1))
#loc32 = loc("xoffset"(#loc2))
#loc33 = loc("xoffset"(#loc3))
#loc34 = loc("xindex"(#loc4))
#loc35 = loc("xindex"(#loc5))
#loc36 = loc("xmask"(#loc6))
#loc37 = loc("x0"(#loc7))
#loc38 = loc("tmp0"(#loc8))
#loc39 = loc("tmp0"(#loc9))
#loc40 = loc("tmp1"(#loc10))
#loc41 = loc("tmp1"(#loc11))
#loc42 = loc("tmp2"(#loc12))
#loc43 = loc("tmp2"(#loc13))
#loc44 = loc("tmp3"(#loc14))
#loc45 = loc("tmp4"(#loc15))
#loc46 = loc("tmp5"(#loc16))
#loc47 = loc("tmp6"(#loc17))
#loc48 = loc("tmp7"(#loc18))
#loc49 = loc("tmp8"(#loc19))
#loc50 = loc("tmp9"(#loc20))
#loc51 = loc("tmp10"(#loc21))
#loc52 = loc("tmp11"(#loc22))
#loc53 = loc("tmp12"(#loc23))
