#loc = loc("/home/ubuntu/Profiler/profiler_output/inductor_debug/q2/cq2lgkmy4kyvkslxpybjbkq2mcocyv2eakplixptfohogjsb2xbl.py":18:0)
#loc22 = loc("in_out_ptr0"(#loc))
#loc23 = loc("in_ptr0"(#loc))
#loc24 = loc("in_ptr1"(#loc))
#loc25 = loc("xnumel"(#loc))
module {
  tt.func public @triton_poi_fused_add_addmm_gelu_4(%in_out_ptr0: !tt.ptr<f32> {tt.divisibility = 16 : i32} loc("in_out_ptr0"(#loc)), %in_ptr0: !tt.ptr<f32> {tt.divisibility = 16 : i32} loc("in_ptr0"(#loc)), %in_ptr1: !tt.ptr<f32> {tt.divisibility = 16 : i32} loc("in_ptr1"(#loc)), %xnumel: i32 {tt.divisibility = 16 : i32} loc("xnumel"(#loc))) attributes {noinline = false} {
    %tmp10 = arith.constant dense<1.000000e+00> : tensor<256xf32> loc(#loc26)
    %tmp7 = arith.constant dense<0.707106769> : tensor<256xf32> loc(#loc27)
    %tmp5 = arith.constant dense<5.000000e-01> : tensor<256xf32> loc(#loc28)
    %x0 = arith.constant dense<512> : tensor<256xi32> loc(#loc29)
    %c256_i32 = arith.constant 256 : i32 loc(#loc5)
    %xoffset = tt.get_program_id x : i32 loc(#loc30)
    %xoffset_0 = arith.muli %xoffset, %c256_i32 : i32 loc(#loc31)
    %xindex = tt.make_range {end = 256 : i32, start = 0 : i32} : tensor<256xi32> loc(#loc32)
    %xindex_1 = tt.splat %xoffset_0 : i32 -> tensor<256xi32> loc(#loc33)
    %xindex_2 = arith.addi %xindex_1, %xindex : tensor<256xi32> loc(#loc33)
    %x0_3 = arith.remsi %xindex_2, %x0 : tensor<256xi32> loc(#loc29)
    %tmp0 = tt.splat %in_out_ptr0 : !tt.ptr<f32> -> tensor<256x!tt.ptr<f32>> loc(#loc34)
    %tmp0_4 = tt.addptr %tmp0, %xindex_2 : tensor<256x!tt.ptr<f32>>, tensor<256xi32> loc(#loc34)
    %tmp0_5 = tt.load %tmp0_4 : tensor<256x!tt.ptr<f32>> loc(#loc35)
    %tmp1 = tt.splat %in_ptr0 : !tt.ptr<f32> -> tensor<256x!tt.ptr<f32>> loc(#loc36)
    %tmp1_6 = tt.addptr %tmp1, %x0_3 : tensor<256x!tt.ptr<f32>>, tensor<256xi32> loc(#loc36)
    %tmp1_7 = tt.load %tmp1_6 evictionPolicy = evict_last : tensor<256x!tt.ptr<f32>> loc(#loc37)
    %tmp2 = tt.splat %in_ptr1 : !tt.ptr<f32> -> tensor<256x!tt.ptr<f32>> loc(#loc38)
    %tmp2_8 = tt.addptr %tmp2, %xindex_2 : tensor<256x!tt.ptr<f32>>, tensor<256xi32> loc(#loc38)
    %tmp2_9 = tt.load %tmp2_8 : tensor<256x!tt.ptr<f32>> loc(#loc39)
    %tmp3 = arith.addf %tmp1_7, %tmp2_9 : tensor<256xf32> loc(#loc40)
    %tmp5_10 = arith.mulf %tmp3, %tmp5 : tensor<256xf32> loc(#loc28)
    %tmp7_11 = arith.mulf %tmp3, %tmp7 : tensor<256xf32> loc(#loc27)
    %tmp8 = tt.extern_elementwise %tmp7_11 {libname = "", libpath = "", pure = true, symbol = "__nv_erff"} : (tensor<256xf32>) -> tensor<256xf32> loc(#loc41)
    %tmp10_12 = arith.addf %tmp8, %tmp10 : tensor<256xf32> loc(#loc26)
    %tmp11 = arith.mulf %tmp5_10, %tmp10_12 : tensor<256xf32> loc(#loc42)
    %tmp12 = arith.addf %tmp0_5, %tmp11 : tensor<256xf32> loc(#loc43)
    tt.store %tmp0_4, %tmp12 : tensor<256x!tt.ptr<f32>> loc(#loc20)
    tt.return loc(#loc21)
  } loc(#loc)
} loc(#loc)
#loc1 = loc("/home/ubuntu/Profiler/profiler_output/inductor_debug/q2/cq2lgkmy4kyvkslxpybjbkq2mcocyv2eakplixptfohogjsb2xbl.py":35:19)
#loc2 = loc("/home/ubuntu/Profiler/profiler_output/inductor_debug/q2/cq2lgkmy4kyvkslxpybjbkq2mcocyv2eakplixptfohogjsb2xbl.py":32:18)
#loc3 = loc("/home/ubuntu/Profiler/profiler_output/inductor_debug/q2/cq2lgkmy4kyvkslxpybjbkq2mcocyv2eakplixptfohogjsb2xbl.py":30:18)
#loc4 = loc("/home/ubuntu/Profiler/profiler_output/inductor_debug/q2/cq2lgkmy4kyvkslxpybjbkq2mcocyv2eakplixptfohogjsb2xbl.py":24:19)
#loc5 = loc(unknown)
#loc6 = loc("/home/ubuntu/Profiler/profiler_output/inductor_debug/q2/cq2lgkmy4kyvkslxpybjbkq2mcocyv2eakplixptfohogjsb2xbl.py":20:28)
#loc7 = loc("/home/ubuntu/Profiler/profiler_output/inductor_debug/q2/cq2lgkmy4kyvkslxpybjbkq2mcocyv2eakplixptfohogjsb2xbl.py":20:33)
#loc8 = loc("/home/ubuntu/Profiler/profiler_output/inductor_debug/q2/cq2lgkmy4kyvkslxpybjbkq2mcocyv2eakplixptfohogjsb2xbl.py":21:36)
#loc9 = loc("/home/ubuntu/Profiler/profiler_output/inductor_debug/q2/cq2lgkmy4kyvkslxpybjbkq2mcocyv2eakplixptfohogjsb2xbl.py":21:23)
#loc10 = loc("/home/ubuntu/Profiler/profiler_output/inductor_debug/q2/cq2lgkmy4kyvkslxpybjbkq2mcocyv2eakplixptfohogjsb2xbl.py":25:34)
#loc11 = loc("/home/ubuntu/Profiler/profiler_output/inductor_debug/q2/cq2lgkmy4kyvkslxpybjbkq2mcocyv2eakplixptfohogjsb2xbl.py":25:39)
#loc12 = loc("/home/ubuntu/Profiler/profiler_output/inductor_debug/q2/cq2lgkmy4kyvkslxpybjbkq2mcocyv2eakplixptfohogjsb2xbl.py":26:30)
#loc13 = loc("/home/ubuntu/Profiler/profiler_output/inductor_debug/q2/cq2lgkmy4kyvkslxpybjbkq2mcocyv2eakplixptfohogjsb2xbl.py":26:35)
#loc14 = loc("/home/ubuntu/Profiler/profiler_output/inductor_debug/q2/cq2lgkmy4kyvkslxpybjbkq2mcocyv2eakplixptfohogjsb2xbl.py":27:30)
#loc15 = loc("/home/ubuntu/Profiler/profiler_output/inductor_debug/q2/cq2lgkmy4kyvkslxpybjbkq2mcocyv2eakplixptfohogjsb2xbl.py":27:35)
#loc16 = loc("/home/ubuntu/Profiler/profiler_output/inductor_debug/q2/cq2lgkmy4kyvkslxpybjbkq2mcocyv2eakplixptfohogjsb2xbl.py":28:18)
#loc17 = loc("/home/ubuntu/Profiler/profiler_output/inductor_debug/q2/cq2lgkmy4kyvkslxpybjbkq2mcocyv2eakplixptfohogjsb2xbl.py":33:25)
#loc18 = loc("/home/ubuntu/Profiler/profiler_output/inductor_debug/q2/cq2lgkmy4kyvkslxpybjbkq2mcocyv2eakplixptfohogjsb2xbl.py":36:19)
#loc19 = loc("/home/ubuntu/Profiler/profiler_output/inductor_debug/q2/cq2lgkmy4kyvkslxpybjbkq2mcocyv2eakplixptfohogjsb2xbl.py":37:19)
#loc20 = loc("/home/ubuntu/Profiler/profiler_output/inductor_debug/q2/cq2lgkmy4kyvkslxpybjbkq2mcocyv2eakplixptfohogjsb2xbl.py":38:40)
#loc21 = loc("/home/ubuntu/Profiler/profiler_output/inductor_debug/q2/cq2lgkmy4kyvkslxpybjbkq2mcocyv2eakplixptfohogjsb2xbl.py":38:4)
#loc26 = loc("tmp10"(#loc1))
#loc27 = loc("tmp7"(#loc2))
#loc28 = loc("tmp5"(#loc3))
#loc29 = loc("x0"(#loc4))
#loc30 = loc("xoffset"(#loc6))
#loc31 = loc("xoffset"(#loc7))
#loc32 = loc("xindex"(#loc8))
#loc33 = loc("xindex"(#loc9))
#loc34 = loc("tmp0"(#loc10))
#loc35 = loc("tmp0"(#loc11))
#loc36 = loc("tmp1"(#loc12))
#loc37 = loc("tmp1"(#loc13))
#loc38 = loc("tmp2"(#loc14))
#loc39 = loc("tmp2"(#loc15))
#loc40 = loc("tmp3"(#loc16))
#loc41 = loc("tmp8"(#loc17))
#loc42 = loc("tmp11"(#loc18))
#loc43 = loc("tmp12"(#loc19))
