#loc = loc("/root/Profiler/gpt2_optimized_inductor_debug/pu/cpuxmuffbp4w3m5mqvgksmqzfmf23m36fngulvdhtqh2xjpaaorr.py":18:0)
#loc32 = loc("in_ptr0"(#loc))
#loc33 = loc("in_ptr1"(#loc))
#loc34 = loc("in_ptr2"(#loc))
#loc35 = loc("out_ptr0"(#loc))
#loc36 = loc("xnumel"(#loc))
module {
  tt.func public @triton_poi_fused_add_arange_embedding_unsqueeze_0(%in_ptr0: !tt.ptr<i64> {tt.divisibility = 16 : i32} loc("in_ptr0"(#loc)), %in_ptr1: !tt.ptr<bf16> {tt.divisibility = 16 : i32} loc("in_ptr1"(#loc)), %in_ptr2: !tt.ptr<bf16> {tt.divisibility = 16 : i32} loc("in_ptr2"(#loc)), %out_ptr0: !tt.ptr<bf16> {tt.divisibility = 16 : i32} loc("out_ptr0"(#loc)), %xnumel: i32 {tt.divisibility = 16 : i32} loc("xnumel"(#loc))) attributes {noinline = false} {
    %xnumel_0 = arith.constant 393216 : i32 loc(#loc37)
    %xoffset = tt.get_program_id x : i32 loc(#loc38)
    %xoffset_1 = arith.constant 512 : i32 loc(#loc39)
    %xoffset_2 = arith.constant 512 : i32 loc(#loc39)
    %xoffset_3 = arith.muli %xoffset, %xoffset_2 : i32 loc(#loc39)
    %xindex = tt.make_range {end = 512 : i32, start = 0 : i32} : tensor<512xi32> loc(#loc40)
    %xindex_4 = tt.splat %xoffset_3 : i32 -> tensor<512xi32> loc(#loc41)
    %xindex_5 = arith.addi %xindex_4, %xindex : tensor<512xi32> loc(#loc41)
    %xmask = arith.constant true loc(#loc42)
    %xmask_6 = arith.constant dense<true> : tensor<512xi1> loc(#loc42)
    %x3 = arith.constant 768 : i32 loc(#loc43)
    %x3_7 = arith.constant 768 : i32 loc(#loc43)
    %x3_8 = arith.constant dense<768> : tensor<512xi32> loc(#loc43)
    %x3_9 = arith.divsi %xindex_5, %x3_8 : tensor<512xi32> loc(#loc43)
    %x0 = arith.constant 768 : i32 loc(#loc44)
    %x0_10 = arith.constant 768 : i32 loc(#loc44)
    %x0_11 = arith.constant dense<768> : tensor<512xi32> loc(#loc44)
    %x0_12 = arith.remsi %xindex_5, %x0_11 : tensor<512xi32> loc(#loc44)
    %x4 = arith.constant 98304 : i32 loc(#loc45)
    %x4_13 = arith.constant 98304 : i32 loc(#loc45)
    %x4_14 = arith.constant dense<98304> : tensor<512xi32> loc(#loc45)
    %x4_15 = arith.remsi %xindex_5, %x4_14 : tensor<512xi32> loc(#loc45)
    %tmp0 = tt.splat %in_ptr0 : !tt.ptr<i64> -> tensor<512x!tt.ptr<i64>> loc(#loc46)
    %tmp0_16 = tt.addptr %tmp0, %x3_9 : tensor<512x!tt.ptr<i64>>, tensor<512xi32> loc(#loc46)
    %tmp0_17 = tt.load %tmp0_16 evictionPolicy = evict_last : tensor<512x!tt.ptr<i64>> loc(#loc47)
    %tmp7 = tt.splat %in_ptr2 : !tt.ptr<bf16> -> tensor<512x!tt.ptr<bf16>> loc(#loc48)
    %tmp7_18 = tt.addptr %tmp7, %x4_15 : tensor<512x!tt.ptr<bf16>>, tensor<512xi32> loc(#loc48)
    %tmp7_19 = tt.load %tmp7_18 evictionPolicy = evict_last : tensor<512x!tt.ptr<bf16>> loc(#loc49)
    %tmp7_20 = arith.extf %tmp7_19 : tensor<512xbf16> to tensor<512xf32> loc(#loc50)
    %tmp1 = arith.constant 50257 : i32 loc(#loc51)
    %tmp1_21 = arith.constant dense<50257> : tensor<512xi32> loc(#loc51)
    %tmp2 = arith.extsi %tmp1_21 : tensor<512xi32> to tensor<512xi64> loc(#loc52)
    %tmp2_22 = arith.addi %tmp0_17, %tmp2 : tensor<512xi64> loc(#loc52)
    %tmp3 = arith.constant 0 : i32 loc(#loc53)
    %tmp3_23 = arith.extsi %tmp3 : i32 to i64 loc(#loc53)
    %tmp3_24 = tt.splat %tmp3_23 : i64 -> tensor<512xi64> loc(#loc53)
    %tmp3_25 = arith.cmpi slt, %tmp0_17, %tmp3_24 : tensor<512xi64> loc(#loc53)
    %tmp4 = arith.select %tmp3_25, %tmp2_22, %tmp0_17 : tensor<512xi1>, tensor<512xi64> loc(#loc54)
    %c0_i32 = arith.constant 0 : i32 loc(#loc19)
    %0 = arith.extsi %c0_i32 : i32 to i64 loc(#loc19)
    %1 = tt.splat %0 : i64 -> tensor<512xi64> loc(#loc19)
    %2 = arith.cmpi sle, %1, %tmp4 : tensor<512xi64> loc(#loc19)
    %c50257_i32 = arith.constant 50257 : i32 loc(#loc20)
    %3 = arith.extsi %c50257_i32 : i32 to i64 loc(#loc20)
    %4 = tt.splat %3 : i64 -> tensor<512xi64> loc(#loc20)
    %5 = arith.cmpi slt, %tmp4, %4 : tensor<512xi64> loc(#loc20)
    %6 = arith.andi %2, %5 : tensor<512xi1> loc(#loc21)
    tt.assert %6, "index out of bounds: 0 <= tmp4 < 50257" : tensor<512xi1> loc(#loc22)
    %tmp6 = arith.constant 768 : i32 loc(#loc55)
    %tmp6_26 = arith.constant 768 : i64 loc(#loc55)
    %tmp6_27 = arith.constant dense<768> : tensor<512xi64> loc(#loc55)
    %tmp6_28 = arith.muli %tmp6_27, %tmp4 : tensor<512xi64> loc(#loc55)
    %tmp6_29 = arith.extsi %x0_12 : tensor<512xi32> to tensor<512xi64> loc(#loc56)
    %tmp6_30 = arith.addi %tmp6_29, %tmp6_28 : tensor<512xi64> loc(#loc56)
    %tmp6_31 = tt.splat %in_ptr1 : !tt.ptr<bf16> -> tensor<512x!tt.ptr<bf16>> loc(#loc57)
    %tmp6_32 = tt.addptr %tmp6_31, %tmp6_30 : tensor<512x!tt.ptr<bf16>>, tensor<512xi64> loc(#loc57)
    %tmp6_33 = tt.load %tmp6_32 : tensor<512x!tt.ptr<bf16>> loc(#loc58)
    %tmp6_34 = arith.extf %tmp6_33 : tensor<512xbf16> to tensor<512xf32> loc(#loc59)
    %tmp8 = arith.addf %tmp6_34, %tmp7_20 : tensor<512xf32> loc(#loc60)
    %7 = tt.splat %out_ptr0 : !tt.ptr<bf16> -> tensor<512x!tt.ptr<bf16>> loc(#loc29)
    %8 = tt.addptr %7, %xindex_5 : tensor<512x!tt.ptr<bf16>>, tensor<512xi32> loc(#loc29)
    %9 = arith.truncf %tmp8 : tensor<512xf32> to tensor<512xbf16> loc(#loc30)
    tt.store %8, %9 : tensor<512x!tt.ptr<bf16>> loc(#loc30)
    tt.return loc(#loc31)
  } loc(#loc)
} loc(#loc)
#loc1 = loc("/root/Profiler/gpt2_optimized_inductor_debug/pu/cpuxmuffbp4w3m5mqvgksmqzfmf23m36fngulvdhtqh2xjpaaorr.py":19:13)
#loc2 = loc("/root/Profiler/gpt2_optimized_inductor_debug/pu/cpuxmuffbp4w3m5mqvgksmqzfmf23m36fngulvdhtqh2xjpaaorr.py":20:28)
#loc3 = loc("/root/Profiler/gpt2_optimized_inductor_debug/pu/cpuxmuffbp4w3m5mqvgksmqzfmf23m36fngulvdhtqh2xjpaaorr.py":20:33)
#loc4 = loc("/root/Profiler/gpt2_optimized_inductor_debug/pu/cpuxmuffbp4w3m5mqvgksmqzfmf23m36fngulvdhtqh2xjpaaorr.py":21:36)
#loc5 = loc("/root/Profiler/gpt2_optimized_inductor_debug/pu/cpuxmuffbp4w3m5mqvgksmqzfmf23m36fngulvdhtqh2xjpaaorr.py":21:23)
#loc6 = loc("/root/Profiler/gpt2_optimized_inductor_debug/pu/cpuxmuffbp4w3m5mqvgksmqzfmf23m36fngulvdhtqh2xjpaaorr.py":22:36)
#loc7 = loc("/root/Profiler/gpt2_optimized_inductor_debug/pu/cpuxmuffbp4w3m5mqvgksmqzfmf23m36fngulvdhtqh2xjpaaorr.py":23:19)
#loc8 = loc("/root/Profiler/gpt2_optimized_inductor_debug/pu/cpuxmuffbp4w3m5mqvgksmqzfmf23m36fngulvdhtqh2xjpaaorr.py":24:19)
#loc9 = loc("/root/Profiler/gpt2_optimized_inductor_debug/pu/cpuxmuffbp4w3m5mqvgksmqzfmf23m36fngulvdhtqh2xjpaaorr.py":25:19)
#loc10 = loc("/root/Profiler/gpt2_optimized_inductor_debug/pu/cpuxmuffbp4w3m5mqvgksmqzfmf23m36fngulvdhtqh2xjpaaorr.py":27:30)
#loc11 = loc("/root/Profiler/gpt2_optimized_inductor_debug/pu/cpuxmuffbp4w3m5mqvgksmqzfmf23m36fngulvdhtqh2xjpaaorr.py":27:35)
#loc12 = loc("/root/Profiler/gpt2_optimized_inductor_debug/pu/cpuxmuffbp4w3m5mqvgksmqzfmf23m36fngulvdhtqh2xjpaaorr.py":28:30)
#loc13 = loc("/root/Profiler/gpt2_optimized_inductor_debug/pu/cpuxmuffbp4w3m5mqvgksmqzfmf23m36fngulvdhtqh2xjpaaorr.py":28:35)
#loc14 = loc("/root/Profiler/gpt2_optimized_inductor_debug/pu/cpuxmuffbp4w3m5mqvgksmqzfmf23m36fngulvdhtqh2xjpaaorr.py":28:74)
#loc15 = loc("/root/Profiler/gpt2_optimized_inductor_debug/pu/cpuxmuffbp4w3m5mqvgksmqzfmf23m36fngulvdhtqh2xjpaaorr.py":29:36)
#loc16 = loc("/root/Profiler/gpt2_optimized_inductor_debug/pu/cpuxmuffbp4w3m5mqvgksmqzfmf23m36fngulvdhtqh2xjpaaorr.py":30:18)
#loc17 = loc("/root/Profiler/gpt2_optimized_inductor_debug/pu/cpuxmuffbp4w3m5mqvgksmqzfmf23m36fngulvdhtqh2xjpaaorr.py":31:18)
#loc18 = loc("/root/Profiler/gpt2_optimized_inductor_debug/pu/cpuxmuffbp4w3m5mqvgksmqzfmf23m36fngulvdhtqh2xjpaaorr.py":32:32)
#loc19 = loc("/root/Profiler/gpt2_optimized_inductor_debug/pu/cpuxmuffbp4w3m5mqvgksmqzfmf23m36fngulvdhtqh2xjpaaorr.py":33:27)
#loc20 = loc("/root/Profiler/gpt2_optimized_inductor_debug/pu/cpuxmuffbp4w3m5mqvgksmqzfmf23m36fngulvdhtqh2xjpaaorr.py":33:43)
#loc21 = loc("/root/Profiler/gpt2_optimized_inductor_debug/pu/cpuxmuffbp4w3m5mqvgksmqzfmf23m36fngulvdhtqh2xjpaaorr.py":33:36)
#loc22 = loc("/root/Profiler/gpt2_optimized_inductor_debug/pu/cpuxmuffbp4w3m5mqvgksmqzfmf23m36fngulvdhtqh2xjpaaorr.py":33:51)
#loc23 = loc("/root/Profiler/gpt2_optimized_inductor_debug/pu/cpuxmuffbp4w3m5mqvgksmqzfmf23m36fngulvdhtqh2xjpaaorr.py":34:39)
#loc24 = loc("/root/Profiler/gpt2_optimized_inductor_debug/pu/cpuxmuffbp4w3m5mqvgksmqzfmf23m36fngulvdhtqh2xjpaaorr.py":34:35)
#loc25 = loc("/root/Profiler/gpt2_optimized_inductor_debug/pu/cpuxmuffbp4w3m5mqvgksmqzfmf23m36fngulvdhtqh2xjpaaorr.py":34:30)
#loc26 = loc("/root/Profiler/gpt2_optimized_inductor_debug/pu/cpuxmuffbp4w3m5mqvgksmqzfmf23m36fngulvdhtqh2xjpaaorr.py":34:46)
#loc27 = loc("/root/Profiler/gpt2_optimized_inductor_debug/pu/cpuxmuffbp4w3m5mqvgksmqzfmf23m36fngulvdhtqh2xjpaaorr.py":34:55)
#loc28 = loc("/root/Profiler/gpt2_optimized_inductor_debug/pu/cpuxmuffbp4w3m5mqvgksmqzfmf23m36fngulvdhtqh2xjpaaorr.py":35:18)
#loc29 = loc("/root/Profiler/gpt2_optimized_inductor_debug/pu/cpuxmuffbp4w3m5mqvgksmqzfmf23m36fngulvdhtqh2xjpaaorr.py":36:25)
#loc30 = loc("/root/Profiler/gpt2_optimized_inductor_debug/pu/cpuxmuffbp4w3m5mqvgksmqzfmf23m36fngulvdhtqh2xjpaaorr.py":36:36)
#loc31 = loc("/root/Profiler/gpt2_optimized_inductor_debug/pu/cpuxmuffbp4w3m5mqvgksmqzfmf23m36fngulvdhtqh2xjpaaorr.py":36:4)
#loc37 = loc("xnumel"(#loc1))
#loc38 = loc("xoffset"(#loc2))
#loc39 = loc("xoffset"(#loc3))
#loc40 = loc("xindex"(#loc4))
#loc41 = loc("xindex"(#loc5))
#loc42 = loc("xmask"(#loc6))
#loc43 = loc("x3"(#loc7))
#loc44 = loc("x0"(#loc8))
#loc45 = loc("x4"(#loc9))
#loc46 = loc("tmp0"(#loc10))
#loc47 = loc("tmp0"(#loc11))
#loc48 = loc("tmp7"(#loc12))
#loc49 = loc("tmp7"(#loc13))
#loc50 = loc("tmp7"(#loc14))
#loc51 = loc("tmp1"(#loc15))
#loc52 = loc("tmp2"(#loc16))
#loc53 = loc("tmp3"(#loc17))
#loc54 = loc("tmp4"(#loc18))
#loc55 = loc("tmp6"(#loc23))
#loc56 = loc("tmp6"(#loc24))
#loc57 = loc("tmp6"(#loc25))
#loc58 = loc("tmp6"(#loc26))
#loc59 = loc("tmp6"(#loc27))
#loc60 = loc("tmp8"(#loc28))
