#loc = loc("/root/Profiler/examples/sdpa_attention/test_run/inductor_debug/c5/cc5k3ymo3yrba2ftqp2ru4by2ld3bssoslntpxzohgh2isd3n5oy.py":18:0)
#loc51 = loc("/usr/local/lib/python3.10/dist-packages/triton/language/standard.py":287:0)
#loc53 = loc(unknown)
#loc56 = loc("/usr/local/lib/python3.10/dist-packages/triton/language/standard.py":262:0)
#loc60 = loc("in_out_ptr0"(#loc))
#loc61 = loc("in_ptr0"(#loc))
#loc62 = loc("in_ptr1"(#loc))
#loc63 = loc("in_ptr2"(#loc))
#loc64 = loc("xnumel"(#loc))
#loc65 = loc("r0_numel"(#loc))
#loc111 = loc("input"(#loc51))
#loc112 = loc("a"(#loc56))
#loc113 = loc("b"(#loc56))
module {
  tt.func public @triton_per_fused__unsafe_view_add_native_layer_norm_1(%in_out_ptr0: !tt.ptr<f32> {tt.divisibility = 16 : i32} loc("in_out_ptr0"(#loc)), %in_ptr0: !tt.ptr<f32> {tt.divisibility = 16 : i32} loc("in_ptr0"(#loc)), %in_ptr1: !tt.ptr<f32> {tt.divisibility = 16 : i32} loc("in_ptr1"(#loc)), %in_ptr2: !tt.ptr<f32> {tt.divisibility = 16 : i32} loc("in_ptr2"(#loc)), %xnumel: i32 {tt.divisibility = 16 : i32} loc("xnumel"(#loc)), %r0_numel: i32 {tt.divisibility = 16 : i32} loc("r0_numel"(#loc))) attributes {noinline = false} {
    %xnumel_0 = arith.constant 4096 : i32 loc(#loc66)
    %r0_numel_1 = arith.constant 512 : i32 loc(#loc67)
    %xoffset = tt.get_program_id x : i32 loc(#loc68)
    %xoffset_2 = arith.constant 2 : i32 loc(#loc69)
    %xoffset_3 = arith.constant 2 : i32 loc(#loc69)
    %xoffset_4 = arith.muli %xoffset, %xoffset_3 : i32 loc(#loc69)
    %xindex = tt.make_range {end = 2 : i32, start = 0 : i32} : tensor<2xi32> loc(#loc70)
    %xindex_5 = tt.expand_dims %xindex {axis = 1 : i32} : tensor<2xi32> -> tensor<2x1xi32> loc(#loc71)
    %xindex_6 = tt.splat %xoffset_4 : i32 -> tensor<2x1xi32> loc(#loc72)
    %xindex_7 = arith.addi %xindex_6, %xindex_5 : tensor<2x1xi32> loc(#loc72)
    %xmask = arith.constant true loc(#loc73)
    %xmask_8 = arith.constant dense<true> : tensor<2xi1> loc(#loc73)
    %xmask_9 = tt.expand_dims %xmask_8 {axis = 1 : i32} : tensor<2xi1> -> tensor<2x1xi1> loc(#loc74)
    %r0_index = tt.make_range {end = 512 : i32, start = 0 : i32} : tensor<512xi32> loc(#loc75)
    %r0_index_10 = tt.expand_dims %r0_index {axis = 0 : i32} : tensor<512xi32> -> tensor<1x512xi32> loc(#loc76)
    %r0_offset = arith.constant 0 : i32 loc(#loc77)
    %r0_mask = arith.constant true loc(#loc78)
    %r0_mask_11 = arith.constant dense<true> : tensor<512xi1> loc(#loc78)
    %r0_mask_12 = tt.expand_dims %r0_mask_11 {axis = 0 : i32} : tensor<512xi1> -> tensor<1x512xi1> loc(#loc79)
    %tmp0 = arith.constant 512 : i32 loc(#loc80)
    %tmp0_13 = arith.constant 512 : i32 loc(#loc80)
    %tmp0_14 = arith.constant dense<512> : tensor<2x1xi32> loc(#loc80)
    %tmp0_15 = arith.muli %tmp0_14, %xindex_7 : tensor<2x1xi32> loc(#loc80)
    %tmp0_16 = tt.broadcast %r0_index_10 : tensor<1x512xi32> -> tensor<2x512xi32> loc(#loc81)
    %tmp0_17 = tt.broadcast %tmp0_15 : tensor<2x1xi32> -> tensor<2x512xi32> loc(#loc81)
    %tmp0_18 = arith.addi %tmp0_16, %tmp0_17 : tensor<2x512xi32> loc(#loc81)
    %tmp0_19 = tt.splat %in_out_ptr0 : !tt.ptr<f32> -> tensor<2x512x!tt.ptr<f32>> loc(#loc82)
    %tmp0_20 = tt.addptr %tmp0_19, %tmp0_18 : tensor<2x512x!tt.ptr<f32>>, tensor<2x512xi32> loc(#loc82)
    %tmp0_21 = tt.load %tmp0_20 : tensor<2x512x!tt.ptr<f32>> loc(#loc83)
    %tmp1 = arith.constant 512 : i32 loc(#loc84)
    %tmp1_22 = arith.constant 512 : i32 loc(#loc84)
    %tmp1_23 = arith.constant dense<512> : tensor<2x1xi32> loc(#loc84)
    %tmp1_24 = arith.muli %tmp1_23, %xindex_7 : tensor<2x1xi32> loc(#loc84)
    %tmp1_25 = tt.broadcast %r0_index_10 : tensor<1x512xi32> -> tensor<2x512xi32> loc(#loc85)
    %tmp1_26 = tt.broadcast %tmp1_24 : tensor<2x1xi32> -> tensor<2x512xi32> loc(#loc85)
    %tmp1_27 = arith.addi %tmp1_25, %tmp1_26 : tensor<2x512xi32> loc(#loc85)
    %tmp1_28 = tt.splat %in_ptr0 : !tt.ptr<f32> -> tensor<2x512x!tt.ptr<f32>> loc(#loc86)
    %tmp1_29 = tt.addptr %tmp1_28, %tmp1_27 : tensor<2x512x!tt.ptr<f32>>, tensor<2x512xi32> loc(#loc86)
    %tmp1_30 = tt.load %tmp1_29 : tensor<2x512x!tt.ptr<f32>> loc(#loc87)
    %tmp23 = tt.splat %in_ptr1 : !tt.ptr<f32> -> tensor<1x512x!tt.ptr<f32>> loc(#loc88)
    %tmp23_31 = tt.addptr %tmp23, %r0_index_10 : tensor<1x512x!tt.ptr<f32>>, tensor<1x512xi32> loc(#loc88)
    %tmp23_32 = tt.load %tmp23_31 evictionPolicy = evict_last : tensor<1x512x!tt.ptr<f32>> loc(#loc89)
    %tmp25 = tt.splat %in_ptr2 : !tt.ptr<f32> -> tensor<1x512x!tt.ptr<f32>> loc(#loc90)
    %tmp25_33 = tt.addptr %tmp25, %r0_index_10 : tensor<1x512x!tt.ptr<f32>>, tensor<1x512xi32> loc(#loc90)
    %tmp25_34 = tt.load %tmp25_33 evictionPolicy = evict_last : tensor<1x512x!tt.ptr<f32>> loc(#loc91)
    %tmp2 = arith.addf %tmp0_21, %tmp1_30 : tensor<2x512xf32> loc(#loc92)
    %tmp7 = tt.call @"triton.language.standard.sum__fp32S2_512S__(1,)cconstexpr_1__(2,)cconstexpr_False__(3,)cNone"(%tmp2) : (tensor<2x512xf32>) -> tensor<2xf32> loc(#loc93)
    %tmp7_35 = tt.expand_dims %tmp7 {axis = 1 : i32} : tensor<2xf32> -> tensor<2x1xf32> loc(#loc94)
    %tmp8 = arith.constant 512 : i32 loc(#loc95)
    %tmp8_36 = arith.constant dense<512> : tensor<1x1xi32> loc(#loc95)
    %tmp9 = arith.sitofp %tmp8_36 : tensor<1x1xi32> to tensor<1x1xf32> loc(#loc96)
    %tmp10 = tt.broadcast %tmp9 : tensor<1x1xf32> -> tensor<2x1xf32> loc(#loc97)
    %tmp10_37 = arith.divf %tmp7_35, %tmp10 : tensor<2x1xf32> loc(#loc97)
    %tmp11 = tt.broadcast %tmp10_37 : tensor<2x1xf32> -> tensor<2x512xf32> loc(#loc98)
    %tmp11_38 = arith.subf %tmp2, %tmp11 : tensor<2x512xf32> loc(#loc98)
    %tmp12 = arith.mulf %tmp11_38, %tmp11_38 : tensor<2x512xf32> loc(#loc99)
    %tmp15 = tt.call @"triton.language.standard.sum__fp32S2_512S__(1,)cconstexpr_1__(2,)cconstexpr_False__(3,)cNone"(%tmp12) : (tensor<2x512xf32>) -> tensor<2xf32> loc(#loc100)
    %tmp15_39 = tt.expand_dims %tmp15 {axis = 1 : i32} : tensor<2xf32> -> tensor<2x1xf32> loc(#loc101)
    %tmp16 = tt.broadcast %tmp10_37 : tensor<2x1xf32> -> tensor<2x512xf32> loc(#loc102)
    %tmp16_40 = arith.subf %tmp2, %tmp16 : tensor<2x512xf32> loc(#loc102)
    %tmp17 = arith.constant 5.120000e+02 : f32 loc(#loc103)
    %tmp17_41 = arith.constant dense<5.120000e+02> : tensor<1x1xf32> loc(#loc103)
    %tmp18 = arith.constant dense<5.120000e+02> : tensor<2x1xf32> loc(#loc104)
    %tmp18_42 = arith.divf %tmp15_39, %tmp18 : tensor<2x1xf32> loc(#loc104)
    %tmp19 = arith.constant 9.99999974E-6 : f32 loc(#loc105)
    %tmp19_43 = arith.constant dense<9.99999974E-6> : tensor<1x1xf32> loc(#loc105)
    %tmp20 = arith.constant dense<9.99999974E-6> : tensor<2x1xf32> loc(#loc106)
    %tmp20_44 = arith.addf %tmp18_42, %tmp20 : tensor<2x1xf32> loc(#loc106)
    %tmp21 = tt.extern_elementwise %tmp20_44 {libname = "", libpath = "", pure = true, symbol = "__nv_rsqrtf"} : (tensor<2x1xf32>) -> tensor<2x1xf32> loc(#loc107)
    %tmp22 = tt.broadcast %tmp21 : tensor<2x1xf32> -> tensor<2x512xf32> loc(#loc108)
    %tmp22_45 = arith.mulf %tmp16_40, %tmp22 : tensor<2x512xf32> loc(#loc108)
    %tmp24 = tt.broadcast %tmp23_32 : tensor<1x512xf32> -> tensor<2x512xf32> loc(#loc109)
    %tmp24_46 = arith.mulf %tmp22_45, %tmp24 : tensor<2x512xf32> loc(#loc109)
    %tmp26 = tt.broadcast %tmp25_34 : tensor<1x512xf32> -> tensor<2x512xf32> loc(#loc110)
    %tmp26_47 = arith.addf %tmp24_46, %tmp26 : tensor<2x512xf32> loc(#loc110)
    %c512_i32 = arith.constant 512 : i32 loc(#loc46)
    %c512_i32_48 = arith.constant 512 : i32 loc(#loc46)
    %cst = arith.constant dense<512> : tensor<2x1xi32> loc(#loc46)
    %0 = arith.muli %cst, %xindex_7 : tensor<2x1xi32> loc(#loc46)
    %1 = tt.broadcast %r0_index_10 : tensor<1x512xi32> -> tensor<2x512xi32> loc(#loc47)
    %2 = tt.broadcast %0 : tensor<2x1xi32> -> tensor<2x512xi32> loc(#loc47)
    %3 = arith.addi %1, %2 : tensor<2x512xi32> loc(#loc47)
    %4 = tt.splat %in_out_ptr0 : !tt.ptr<f32> -> tensor<2x512x!tt.ptr<f32>> loc(#loc48)
    %5 = tt.addptr %4, %3 : tensor<2x512x!tt.ptr<f32>>, tensor<2x512xi32> loc(#loc48)
    tt.store %5, %tmp26_47 : tensor<2x512x!tt.ptr<f32>> loc(#loc49)
    tt.return loc(#loc50)
  } loc(#loc)
  tt.func private @"triton.language.standard.sum__fp32S2_512S__(1,)cconstexpr_1__(2,)cconstexpr_False__(3,)cNone"(%input: tensor<2x512xf32> loc("input"(#loc51))) -> tensor<2xf32> attributes {noinline = false} {
    %0 = "tt.reduce"(%input) <{axis = 1 : i32}> ({
    ^bb0(%arg1: f32 loc(unknown), %arg2: f32 loc(unknown)):
      %2 = tt.call @triton.language.standard._sum_combine__fp32_fp32__(%arg1, %arg2) : (f32, f32) -> f32 loc(#loc52)
      tt.reduce.return %2 : f32 loc(#loc52)
    }) : (tensor<2x512xf32>) -> tensor<2xf32> loc(#loc52)
    tt.return %0 : tensor<2xf32> loc(#loc54)
  ^bb1:  // no predecessors
    %1 = ub.poison : tensor<2xf32> loc(#loc55)
    tt.return %1 : tensor<2xf32> loc(#loc55)
  } loc(#loc51)
  tt.func private @triton.language.standard._sum_combine__fp32_fp32__(%a: f32 loc("a"(#loc56)), %b: f32 loc("b"(#loc56))) -> f32 attributes {noinline = false} {
    %0 = arith.addf %a, %b : f32 loc(#loc57)
    tt.return %0 : f32 loc(#loc58)
  ^bb1:  // no predecessors
    %1 = ub.poison : f32 loc(#loc59)
    tt.return %1 : f32 loc(#loc59)
  } loc(#loc56)
} loc(#loc)
#loc1 = loc("/root/Profiler/examples/sdpa_attention/test_run/inductor_debug/c5/cc5k3ymo3yrba2ftqp2ru4by2ld3bssoslntpxzohgh2isd3n5oy.py":19:13)
#loc2 = loc("/root/Profiler/examples/sdpa_attention/test_run/inductor_debug/c5/cc5k3ymo3yrba2ftqp2ru4by2ld3bssoslntpxzohgh2isd3n5oy.py":20:15)
#loc3 = loc("/root/Profiler/examples/sdpa_attention/test_run/inductor_debug/c5/cc5k3ymo3yrba2ftqp2ru4by2ld3bssoslntpxzohgh2isd3n5oy.py":24:28)
#loc4 = loc("/root/Profiler/examples/sdpa_attention/test_run/inductor_debug/c5/cc5k3ymo3yrba2ftqp2ru4by2ld3bssoslntpxzohgh2isd3n5oy.py":24:33)
#loc5 = loc("/root/Profiler/examples/sdpa_attention/test_run/inductor_debug/c5/cc5k3ymo3yrba2ftqp2ru4by2ld3bssoslntpxzohgh2isd3n5oy.py":25:36)
#loc6 = loc("/root/Profiler/examples/sdpa_attention/test_run/inductor_debug/c5/cc5k3ymo3yrba2ftqp2ru4by2ld3bssoslntpxzohgh2isd3n5oy.py":25:44)
#loc7 = loc("/root/Profiler/examples/sdpa_attention/test_run/inductor_debug/c5/cc5k3ymo3yrba2ftqp2ru4by2ld3bssoslntpxzohgh2isd3n5oy.py":25:23)
#loc8 = loc("/root/Profiler/examples/sdpa_attention/test_run/inductor_debug/c5/cc5k3ymo3yrba2ftqp2ru4by2ld3bssoslntpxzohgh2isd3n5oy.py":26:36)
#loc9 = loc("/root/Profiler/examples/sdpa_attention/test_run/inductor_debug/c5/cc5k3ymo3yrba2ftqp2ru4by2ld3bssoslntpxzohgh2isd3n5oy.py":26:45)
#loc10 = loc("/root/Profiler/examples/sdpa_attention/test_run/inductor_debug/c5/cc5k3ymo3yrba2ftqp2ru4by2ld3bssoslntpxzohgh2isd3n5oy.py":27:28)
#loc11 = loc("/root/Profiler/examples/sdpa_attention/test_run/inductor_debug/c5/cc5k3ymo3yrba2ftqp2ru4by2ld3bssoslntpxzohgh2isd3n5oy.py":27:38)
#loc12 = loc("/root/Profiler/examples/sdpa_attention/test_run/inductor_debug/c5/cc5k3ymo3yrba2ftqp2ru4by2ld3bssoslntpxzohgh2isd3n5oy.py":28:16)
#loc13 = loc("/root/Profiler/examples/sdpa_attention/test_run/inductor_debug/c5/cc5k3ymo3yrba2ftqp2ru4by2ld3bssoslntpxzohgh2isd3n5oy.py":29:40)
#loc14 = loc("/root/Profiler/examples/sdpa_attention/test_run/inductor_debug/c5/cc5k3ymo3yrba2ftqp2ru4by2ld3bssoslntpxzohgh2isd3n5oy.py":29:49)
#loc15 = loc("/root/Profiler/examples/sdpa_attention/test_run/inductor_debug/c5/cc5k3ymo3yrba2ftqp2ru4by2ld3bssoslntpxzohgh2isd3n5oy.py":34:45)
#loc16 = loc("/root/Profiler/examples/sdpa_attention/test_run/inductor_debug/c5/cc5k3ymo3yrba2ftqp2ru4by2ld3bssoslntpxzohgh2isd3n5oy.py":34:41)
#loc17 = loc("/root/Profiler/examples/sdpa_attention/test_run/inductor_debug/c5/cc5k3ymo3yrba2ftqp2ru4by2ld3bssoslntpxzohgh2isd3n5oy.py":34:34)
#loc18 = loc("/root/Profiler/examples/sdpa_attention/test_run/inductor_debug/c5/cc5k3ymo3yrba2ftqp2ru4by2ld3bssoslntpxzohgh2isd3n5oy.py":34:50)
#loc19 = loc("/root/Profiler/examples/sdpa_attention/test_run/inductor_debug/c5/cc5k3ymo3yrba2ftqp2ru4by2ld3bssoslntpxzohgh2isd3n5oy.py":35:41)
#loc20 = loc("/root/Profiler/examples/sdpa_attention/test_run/inductor_debug/c5/cc5k3ymo3yrba2ftqp2ru4by2ld3bssoslntpxzohgh2isd3n5oy.py":35:37)
#loc21 = loc("/root/Profiler/examples/sdpa_attention/test_run/inductor_debug/c5/cc5k3ymo3yrba2ftqp2ru4by2ld3bssoslntpxzohgh2isd3n5oy.py":35:30)
#loc22 = loc("/root/Profiler/examples/sdpa_attention/test_run/inductor_debug/c5/cc5k3ymo3yrba2ftqp2ru4by2ld3bssoslntpxzohgh2isd3n5oy.py":35:46)
#loc23 = loc("/root/Profiler/examples/sdpa_attention/test_run/inductor_debug/c5/cc5k3ymo3yrba2ftqp2ru4by2ld3bssoslntpxzohgh2isd3n5oy.py":36:31)
#loc24 = loc("/root/Profiler/examples/sdpa_attention/test_run/inductor_debug/c5/cc5k3ymo3yrba2ftqp2ru4by2ld3bssoslntpxzohgh2isd3n5oy.py":36:38)
#loc25 = loc("/root/Profiler/examples/sdpa_attention/test_run/inductor_debug/c5/cc5k3ymo3yrba2ftqp2ru4by2ld3bssoslntpxzohgh2isd3n5oy.py":37:31)
#loc26 = loc("/root/Profiler/examples/sdpa_attention/test_run/inductor_debug/c5/cc5k3ymo3yrba2ftqp2ru4by2ld3bssoslntpxzohgh2isd3n5oy.py":37:38)
#loc27 = loc("/root/Profiler/examples/sdpa_attention/test_run/inductor_debug/c5/cc5k3ymo3yrba2ftqp2ru4by2ld3bssoslntpxzohgh2isd3n5oy.py":38:18)
#loc28 = loc("/root/Profiler/examples/sdpa_attention/test_run/inductor_debug/c5/cc5k3ymo3yrba2ftqp2ru4by2ld3bssoslntpxzohgh2isd3n5oy.py":41:24)
#loc29 = loc("/root/Profiler/examples/sdpa_attention/test_run/inductor_debug/c5/cc5k3ymo3yrba2ftqp2ru4by2ld3bssoslntpxzohgh2isd3n5oy.py":41:27)
#loc30 = loc("/root/Profiler/examples/sdpa_attention/test_run/inductor_debug/c5/cc5k3ymo3yrba2ftqp2ru4by2ld3bssoslntpxzohgh2isd3n5oy.py":42:32)
#loc31 = loc("/root/Profiler/examples/sdpa_attention/test_run/inductor_debug/c5/cc5k3ymo3yrba2ftqp2ru4by2ld3bssoslntpxzohgh2isd3n5oy.py":43:19)
#loc32 = loc("/root/Profiler/examples/sdpa_attention/test_run/inductor_debug/c5/cc5k3ymo3yrba2ftqp2ru4by2ld3bssoslntpxzohgh2isd3n5oy.py":44:20)
#loc33 = loc("/root/Profiler/examples/sdpa_attention/test_run/inductor_debug/c5/cc5k3ymo3yrba2ftqp2ru4by2ld3bssoslntpxzohgh2isd3n5oy.py":45:19)
#loc34 = loc("/root/Profiler/examples/sdpa_attention/test_run/inductor_debug/c5/cc5k3ymo3yrba2ftqp2ru4by2ld3bssoslntpxzohgh2isd3n5oy.py":46:20)
#loc35 = loc("/root/Profiler/examples/sdpa_attention/test_run/inductor_debug/c5/cc5k3ymo3yrba2ftqp2ru4by2ld3bssoslntpxzohgh2isd3n5oy.py":48:26)
#loc36 = loc("/root/Profiler/examples/sdpa_attention/test_run/inductor_debug/c5/cc5k3ymo3yrba2ftqp2ru4by2ld3bssoslntpxzohgh2isd3n5oy.py":48:29)
#loc37 = loc("/root/Profiler/examples/sdpa_attention/test_run/inductor_debug/c5/cc5k3ymo3yrba2ftqp2ru4by2ld3bssoslntpxzohgh2isd3n5oy.py":49:19)
#loc38 = loc("/root/Profiler/examples/sdpa_attention/test_run/inductor_debug/c5/cc5k3ymo3yrba2ftqp2ru4by2ld3bssoslntpxzohgh2isd3n5oy.py":50:35)
#loc39 = loc("/root/Profiler/examples/sdpa_attention/test_run/inductor_debug/c5/cc5k3ymo3yrba2ftqp2ru4by2ld3bssoslntpxzohgh2isd3n5oy.py":51:21)
#loc40 = loc("/root/Profiler/examples/sdpa_attention/test_run/inductor_debug/c5/cc5k3ymo3yrba2ftqp2ru4by2ld3bssoslntpxzohgh2isd3n5oy.py":52:35)
#loc41 = loc("/root/Profiler/examples/sdpa_attention/test_run/inductor_debug/c5/cc5k3ymo3yrba2ftqp2ru4by2ld3bssoslntpxzohgh2isd3n5oy.py":53:20)
#loc42 = loc("/root/Profiler/examples/sdpa_attention/test_run/inductor_debug/c5/cc5k3ymo3yrba2ftqp2ru4by2ld3bssoslntpxzohgh2isd3n5oy.py":54:28)
#loc43 = loc("/root/Profiler/examples/sdpa_attention/test_run/inductor_debug/c5/cc5k3ymo3yrba2ftqp2ru4by2ld3bssoslntpxzohgh2isd3n5oy.py":55:20)
#loc44 = loc("/root/Profiler/examples/sdpa_attention/test_run/inductor_debug/c5/cc5k3ymo3yrba2ftqp2ru4by2ld3bssoslntpxzohgh2isd3n5oy.py":56:20)
#loc45 = loc("/root/Profiler/examples/sdpa_attention/test_run/inductor_debug/c5/cc5k3ymo3yrba2ftqp2ru4by2ld3bssoslntpxzohgh2isd3n5oy.py":57:20)
#loc46 = loc("/root/Profiler/examples/sdpa_attention/test_run/inductor_debug/c5/cc5k3ymo3yrba2ftqp2ru4by2ld3bssoslntpxzohgh2isd3n5oy.py":58:39)
#loc47 = loc("/root/Profiler/examples/sdpa_attention/test_run/inductor_debug/c5/cc5k3ymo3yrba2ftqp2ru4by2ld3bssoslntpxzohgh2isd3n5oy.py":58:35)
#loc48 = loc("/root/Profiler/examples/sdpa_attention/test_run/inductor_debug/c5/cc5k3ymo3yrba2ftqp2ru4by2ld3bssoslntpxzohgh2isd3n5oy.py":58:28)
#loc49 = loc("/root/Profiler/examples/sdpa_attention/test_run/inductor_debug/c5/cc5k3ymo3yrba2ftqp2ru4by2ld3bssoslntpxzohgh2isd3n5oy.py":58:51)
#loc50 = loc("/root/Profiler/examples/sdpa_attention/test_run/inductor_debug/c5/cc5k3ymo3yrba2ftqp2ru4by2ld3bssoslntpxzohgh2isd3n5oy.py":58:4)
#loc52 = loc("/usr/local/lib/python3.10/dist-packages/triton/language/standard.py":293:36)
#loc54 = loc("/usr/local/lib/python3.10/dist-packages/triton/language/standard.py":293:11)
#loc55 = loc("/usr/local/lib/python3.10/dist-packages/triton/language/standard.py":293:4)
#loc57 = loc("/usr/local/lib/python3.10/dist-packages/triton/language/standard.py":263:15)
#loc58 = loc("/usr/local/lib/python3.10/dist-packages/triton/language/standard.py":263:11)
#loc59 = loc("/usr/local/lib/python3.10/dist-packages/triton/language/standard.py":263:4)
#loc66 = loc("xnumel"(#loc1))
#loc67 = loc("r0_numel"(#loc2))
#loc68 = loc("xoffset"(#loc3))
#loc69 = loc("xoffset"(#loc4))
#loc70 = loc("xindex"(#loc5))
#loc71 = loc("xindex"(#loc6))
#loc72 = loc("xindex"(#loc7))
#loc73 = loc("xmask"(#loc8))
#loc74 = loc("xmask"(#loc9))
#loc75 = loc("r0_index"(#loc10))
#loc76 = loc("r0_index"(#loc11))
#loc77 = loc("r0_offset"(#loc12))
#loc78 = loc("r0_mask"(#loc13))
#loc79 = loc("r0_mask"(#loc14))
#loc80 = loc("tmp0"(#loc15))
#loc81 = loc("tmp0"(#loc16))
#loc82 = loc("tmp0"(#loc17))
#loc83 = loc("tmp0"(#loc18))
#loc84 = loc("tmp1"(#loc19))
#loc85 = loc("tmp1"(#loc20))
#loc86 = loc("tmp1"(#loc21))
#loc87 = loc("tmp1"(#loc22))
#loc88 = loc("tmp23"(#loc23))
#loc89 = loc("tmp23"(#loc24))
#loc90 = loc("tmp25"(#loc25))
#loc91 = loc("tmp25"(#loc26))
#loc92 = loc("tmp2"(#loc27))
#loc93 = loc("tmp7"(#loc28))
#loc94 = loc("tmp7"(#loc29))
#loc95 = loc("tmp8"(#loc30))
#loc96 = loc("tmp9"(#loc31))
#loc97 = loc("tmp10"(#loc32))
#loc98 = loc("tmp11"(#loc33))
#loc99 = loc("tmp12"(#loc34))
#loc100 = loc("tmp15"(#loc35))
#loc101 = loc("tmp15"(#loc36))
#loc102 = loc("tmp16"(#loc37))
#loc103 = loc("tmp17"(#loc38))
#loc104 = loc("tmp18"(#loc39))
#loc105 = loc("tmp19"(#loc40))
#loc106 = loc("tmp20"(#loc41))
#loc107 = loc("tmp21"(#loc42))
#loc108 = loc("tmp22"(#loc43))
#loc109 = loc("tmp24"(#loc44))
#loc110 = loc("tmp26"(#loc45))
