#loc = loc("/root/Profiler/examples/sdpa_attention/test_run/inductor_debug/c5/cc5k3ymo3yrba2ftqp2ru4by2ld3bssoslntpxzohgh2isd3n5oy.py":18:0)
#loc2 = loc(unknown)
#loc22 = loc("/root/Profiler/examples/sdpa_attention/test_run/inductor_debug/c5/cc5k3ymo3yrba2ftqp2ru4by2ld3bssoslntpxzohgh2isd3n5oy.py":41:24)
#loc28 = loc("/root/Profiler/examples/sdpa_attention/test_run/inductor_debug/c5/cc5k3ymo3yrba2ftqp2ru4by2ld3bssoslntpxzohgh2isd3n5oy.py":48:26)
#loc37 = loc("in_out_ptr0"(#loc))
#loc38 = loc("in_ptr0"(#loc))
#loc39 = loc("in_ptr1"(#loc))
#loc40 = loc("in_ptr2"(#loc))
#loc41 = loc("xnumel"(#loc))
#loc42 = loc("r0_numel"(#loc))
#loc62 = loc("tmp7"(#loc22))
#loc67 = loc("tmp15"(#loc28))
#loc75 = loc(callsite(#loc2 at #loc62))
#loc77 = loc(callsite(#loc2 at #loc67))
module {
  tt.func public @triton_per_fused__unsafe_view_add_native_layer_norm_1(%in_out_ptr0: !tt.ptr<f32> {tt.divisibility = 16 : i32} loc("in_out_ptr0"(#loc)), %in_ptr0: !tt.ptr<f32> {tt.divisibility = 16 : i32} loc("in_ptr0"(#loc)), %in_ptr1: !tt.ptr<f32> {tt.divisibility = 16 : i32} loc("in_ptr1"(#loc)), %in_ptr2: !tt.ptr<f32> {tt.divisibility = 16 : i32} loc("in_ptr2"(#loc)), %xnumel: i32 {tt.divisibility = 16 : i32} loc("xnumel"(#loc)), %r0_numel: i32 {tt.divisibility = 16 : i32} loc("r0_numel"(#loc))) attributes {noinline = false} {
    %tmp20 = arith.constant dense<9.99999974E-6> : tensor<2x1xf32> loc(#loc43)
    %cst = arith.constant dense<5.120000e+02> : tensor<2x1xf32> loc(#loc2)
    %cst_0 = arith.constant dense<512> : tensor<2x1xi32> loc(#loc2)
    %c2_i32 = arith.constant 2 : i32 loc(#loc2)
    %xoffset = tt.get_program_id x : i32 loc(#loc44)
    %xoffset_1 = arith.muli %xoffset, %c2_i32 : i32 loc(#loc45)
    %xindex = tt.make_range {end = 2 : i32, start = 0 : i32} : tensor<2xi32> loc(#loc46)
    %xindex_2 = tt.expand_dims %xindex {axis = 1 : i32} : tensor<2xi32> -> tensor<2x1xi32> loc(#loc47)
    %xindex_3 = tt.splat %xoffset_1 : i32 -> tensor<2x1xi32> loc(#loc48)
    %xindex_4 = arith.addi %xindex_3, %xindex_2 : tensor<2x1xi32> loc(#loc48)
    %r0_index = tt.make_range {end = 512 : i32, start = 0 : i32} : tensor<512xi32> loc(#loc49)
    %r0_index_5 = tt.expand_dims %r0_index {axis = 0 : i32} : tensor<512xi32> -> tensor<1x512xi32> loc(#loc50)
    %tmp0 = arith.muli %xindex_4, %cst_0 : tensor<2x1xi32> loc(#loc51)
    %tmp0_6 = tt.broadcast %r0_index_5 : tensor<1x512xi32> -> tensor<2x512xi32> loc(#loc52)
    %tmp0_7 = tt.broadcast %tmp0 : tensor<2x1xi32> -> tensor<2x512xi32> loc(#loc52)
    %tmp0_8 = arith.addi %tmp0_6, %tmp0_7 : tensor<2x512xi32> loc(#loc52)
    %tmp0_9 = tt.splat %in_out_ptr0 : !tt.ptr<f32> -> tensor<2x512x!tt.ptr<f32>> loc(#loc53)
    %tmp0_10 = tt.addptr %tmp0_9, %tmp0_8 : tensor<2x512x!tt.ptr<f32>>, tensor<2x512xi32> loc(#loc53)
    %tmp0_11 = tt.load %tmp0_10 : tensor<2x512x!tt.ptr<f32>> loc(#loc54)
    %tmp1 = tt.splat %in_ptr0 : !tt.ptr<f32> -> tensor<2x512x!tt.ptr<f32>> loc(#loc55)
    %tmp1_12 = tt.addptr %tmp1, %tmp0_8 : tensor<2x512x!tt.ptr<f32>>, tensor<2x512xi32> loc(#loc55)
    %tmp1_13 = tt.load %tmp1_12 : tensor<2x512x!tt.ptr<f32>> loc(#loc56)
    %tmp23 = tt.splat %in_ptr1 : !tt.ptr<f32> -> tensor<1x512x!tt.ptr<f32>> loc(#loc57)
    %tmp23_14 = tt.addptr %tmp23, %r0_index_5 : tensor<1x512x!tt.ptr<f32>>, tensor<1x512xi32> loc(#loc57)
    %tmp23_15 = tt.load %tmp23_14 evictionPolicy = evict_last : tensor<1x512x!tt.ptr<f32>> loc(#loc58)
    %tmp25 = tt.splat %in_ptr2 : !tt.ptr<f32> -> tensor<1x512x!tt.ptr<f32>> loc(#loc59)
    %tmp25_16 = tt.addptr %tmp25, %r0_index_5 : tensor<1x512x!tt.ptr<f32>>, tensor<1x512xi32> loc(#loc59)
    %tmp25_17 = tt.load %tmp25_16 evictionPolicy = evict_last : tensor<1x512x!tt.ptr<f32>> loc(#loc60)
    %tmp2 = arith.addf %tmp0_11, %tmp1_13 : tensor<2x512xf32> loc(#loc61)
    %tmp7 = "tt.reduce"(%tmp2) <{axis = 1 : i32}> ({
    ^bb0(%tmp7_25: f32 loc(callsite(#loc2 at #loc62)), %tmp7_26: f32 loc(callsite(#loc2 at #loc62))):
      %tmp7_27 = arith.addf %tmp7_25, %tmp7_26 : f32 loc(#loc78)
      tt.reduce.return %tmp7_27 : f32 loc(#loc74)
    }) : (tensor<2x512xf32>) -> tensor<2xf32> loc(#loc74)
    %tmp7_18 = tt.expand_dims %tmp7 {axis = 1 : i32} : tensor<2xf32> -> tensor<2x1xf32> loc(#loc63)
    %tmp10 = arith.divf %tmp7_18, %cst : tensor<2x1xf32> loc(#loc64)
    %tmp11 = tt.broadcast %tmp10 : tensor<2x1xf32> -> tensor<2x512xf32> loc(#loc65)
    %tmp11_19 = arith.subf %tmp2, %tmp11 : tensor<2x512xf32> loc(#loc65)
    %tmp12 = arith.mulf %tmp11_19, %tmp11_19 : tensor<2x512xf32> loc(#loc66)
    %tmp15 = "tt.reduce"(%tmp12) <{axis = 1 : i32}> ({
    ^bb0(%tmp15_25: f32 loc(callsite(#loc2 at #loc67)), %tmp15_26: f32 loc(callsite(#loc2 at #loc67))):
      %tmp15_27 = arith.addf %tmp15_25, %tmp15_26 : f32 loc(#loc79)
      tt.reduce.return %tmp15_27 : f32 loc(#loc76)
    }) : (tensor<2x512xf32>) -> tensor<2xf32> loc(#loc76)
    %tmp15_20 = tt.expand_dims %tmp15 {axis = 1 : i32} : tensor<2xf32> -> tensor<2x1xf32> loc(#loc68)
    %tmp18 = arith.divf %tmp15_20, %cst : tensor<2x1xf32> loc(#loc69)
    %tmp20_21 = arith.addf %tmp18, %tmp20 : tensor<2x1xf32> loc(#loc43)
    %tmp21 = tt.extern_elementwise %tmp20_21 {libname = "", libpath = "", pure = true, symbol = "__nv_rsqrtf"} : (tensor<2x1xf32>) -> tensor<2x1xf32> loc(#loc70)
    %tmp22 = tt.broadcast %tmp21 : tensor<2x1xf32> -> tensor<2x512xf32> loc(#loc71)
    %tmp22_22 = arith.mulf %tmp11_19, %tmp22 : tensor<2x512xf32> loc(#loc71)
    %tmp24 = tt.broadcast %tmp23_15 : tensor<1x512xf32> -> tensor<2x512xf32> loc(#loc72)
    %tmp24_23 = arith.mulf %tmp22_22, %tmp24 : tensor<2x512xf32> loc(#loc72)
    %tmp26 = tt.broadcast %tmp25_17 : tensor<1x512xf32> -> tensor<2x512xf32> loc(#loc73)
    %tmp26_24 = arith.addf %tmp24_23, %tmp26 : tensor<2x512xf32> loc(#loc73)
    tt.store %tmp0_10, %tmp26_24 : tensor<2x512x!tt.ptr<f32>> loc(#loc35)
    tt.return loc(#loc36)
  } loc(#loc)
} loc(#loc)
#loc1 = loc("/root/Profiler/examples/sdpa_attention/test_run/inductor_debug/c5/cc5k3ymo3yrba2ftqp2ru4by2ld3bssoslntpxzohgh2isd3n5oy.py":53:20)
#loc3 = loc("/root/Profiler/examples/sdpa_attention/test_run/inductor_debug/c5/cc5k3ymo3yrba2ftqp2ru4by2ld3bssoslntpxzohgh2isd3n5oy.py":24:28)
#loc4 = loc("/root/Profiler/examples/sdpa_attention/test_run/inductor_debug/c5/cc5k3ymo3yrba2ftqp2ru4by2ld3bssoslntpxzohgh2isd3n5oy.py":24:33)
#loc5 = loc("/root/Profiler/examples/sdpa_attention/test_run/inductor_debug/c5/cc5k3ymo3yrba2ftqp2ru4by2ld3bssoslntpxzohgh2isd3n5oy.py":25:36)
#loc6 = loc("/root/Profiler/examples/sdpa_attention/test_run/inductor_debug/c5/cc5k3ymo3yrba2ftqp2ru4by2ld3bssoslntpxzohgh2isd3n5oy.py":25:44)
#loc7 = loc("/root/Profiler/examples/sdpa_attention/test_run/inductor_debug/c5/cc5k3ymo3yrba2ftqp2ru4by2ld3bssoslntpxzohgh2isd3n5oy.py":25:23)
#loc8 = loc("/root/Profiler/examples/sdpa_attention/test_run/inductor_debug/c5/cc5k3ymo3yrba2ftqp2ru4by2ld3bssoslntpxzohgh2isd3n5oy.py":27:28)
#loc9 = loc("/root/Profiler/examples/sdpa_attention/test_run/inductor_debug/c5/cc5k3ymo3yrba2ftqp2ru4by2ld3bssoslntpxzohgh2isd3n5oy.py":27:38)
#loc10 = loc("/root/Profiler/examples/sdpa_attention/test_run/inductor_debug/c5/cc5k3ymo3yrba2ftqp2ru4by2ld3bssoslntpxzohgh2isd3n5oy.py":34:45)
#loc11 = loc("/root/Profiler/examples/sdpa_attention/test_run/inductor_debug/c5/cc5k3ymo3yrba2ftqp2ru4by2ld3bssoslntpxzohgh2isd3n5oy.py":34:41)
#loc12 = loc("/root/Profiler/examples/sdpa_attention/test_run/inductor_debug/c5/cc5k3ymo3yrba2ftqp2ru4by2ld3bssoslntpxzohgh2isd3n5oy.py":34:34)
#loc13 = loc("/root/Profiler/examples/sdpa_attention/test_run/inductor_debug/c5/cc5k3ymo3yrba2ftqp2ru4by2ld3bssoslntpxzohgh2isd3n5oy.py":34:50)
#loc14 = loc("/root/Profiler/examples/sdpa_attention/test_run/inductor_debug/c5/cc5k3ymo3yrba2ftqp2ru4by2ld3bssoslntpxzohgh2isd3n5oy.py":35:30)
#loc15 = loc("/root/Profiler/examples/sdpa_attention/test_run/inductor_debug/c5/cc5k3ymo3yrba2ftqp2ru4by2ld3bssoslntpxzohgh2isd3n5oy.py":35:46)
#loc16 = loc("/root/Profiler/examples/sdpa_attention/test_run/inductor_debug/c5/cc5k3ymo3yrba2ftqp2ru4by2ld3bssoslntpxzohgh2isd3n5oy.py":36:31)
#loc17 = loc("/root/Profiler/examples/sdpa_attention/test_run/inductor_debug/c5/cc5k3ymo3yrba2ftqp2ru4by2ld3bssoslntpxzohgh2isd3n5oy.py":36:38)
#loc18 = loc("/root/Profiler/examples/sdpa_attention/test_run/inductor_debug/c5/cc5k3ymo3yrba2ftqp2ru4by2ld3bssoslntpxzohgh2isd3n5oy.py":37:31)
#loc19 = loc("/root/Profiler/examples/sdpa_attention/test_run/inductor_debug/c5/cc5k3ymo3yrba2ftqp2ru4by2ld3bssoslntpxzohgh2isd3n5oy.py":37:38)
#loc20 = loc("/root/Profiler/examples/sdpa_attention/test_run/inductor_debug/c5/cc5k3ymo3yrba2ftqp2ru4by2ld3bssoslntpxzohgh2isd3n5oy.py":38:18)
#loc21 = loc("/usr/local/lib/python3.10/dist-packages/triton/language/standard.py":293:36)
#loc23 = loc("/usr/local/lib/python3.10/dist-packages/triton/language/standard.py":263:15)
#loc24 = loc("/root/Profiler/examples/sdpa_attention/test_run/inductor_debug/c5/cc5k3ymo3yrba2ftqp2ru4by2ld3bssoslntpxzohgh2isd3n5oy.py":41:27)
#loc25 = loc("/root/Profiler/examples/sdpa_attention/test_run/inductor_debug/c5/cc5k3ymo3yrba2ftqp2ru4by2ld3bssoslntpxzohgh2isd3n5oy.py":44:20)
#loc26 = loc("/root/Profiler/examples/sdpa_attention/test_run/inductor_debug/c5/cc5k3ymo3yrba2ftqp2ru4by2ld3bssoslntpxzohgh2isd3n5oy.py":45:19)
#loc27 = loc("/root/Profiler/examples/sdpa_attention/test_run/inductor_debug/c5/cc5k3ymo3yrba2ftqp2ru4by2ld3bssoslntpxzohgh2isd3n5oy.py":46:20)
#loc29 = loc("/root/Profiler/examples/sdpa_attention/test_run/inductor_debug/c5/cc5k3ymo3yrba2ftqp2ru4by2ld3bssoslntpxzohgh2isd3n5oy.py":48:29)
#loc30 = loc("/root/Profiler/examples/sdpa_attention/test_run/inductor_debug/c5/cc5k3ymo3yrba2ftqp2ru4by2ld3bssoslntpxzohgh2isd3n5oy.py":51:21)
#loc31 = loc("/root/Profiler/examples/sdpa_attention/test_run/inductor_debug/c5/cc5k3ymo3yrba2ftqp2ru4by2ld3bssoslntpxzohgh2isd3n5oy.py":54:28)
#loc32 = loc("/root/Profiler/examples/sdpa_attention/test_run/inductor_debug/c5/cc5k3ymo3yrba2ftqp2ru4by2ld3bssoslntpxzohgh2isd3n5oy.py":55:20)
#loc33 = loc("/root/Profiler/examples/sdpa_attention/test_run/inductor_debug/c5/cc5k3ymo3yrba2ftqp2ru4by2ld3bssoslntpxzohgh2isd3n5oy.py":56:20)
#loc34 = loc("/root/Profiler/examples/sdpa_attention/test_run/inductor_debug/c5/cc5k3ymo3yrba2ftqp2ru4by2ld3bssoslntpxzohgh2isd3n5oy.py":57:20)
#loc35 = loc("/root/Profiler/examples/sdpa_attention/test_run/inductor_debug/c5/cc5k3ymo3yrba2ftqp2ru4by2ld3bssoslntpxzohgh2isd3n5oy.py":58:51)
#loc36 = loc("/root/Profiler/examples/sdpa_attention/test_run/inductor_debug/c5/cc5k3ymo3yrba2ftqp2ru4by2ld3bssoslntpxzohgh2isd3n5oy.py":58:4)
#loc43 = loc("tmp20"(#loc1))
#loc44 = loc("xoffset"(#loc3))
#loc45 = loc("xoffset"(#loc4))
#loc46 = loc("xindex"(#loc5))
#loc47 = loc("xindex"(#loc6))
#loc48 = loc("xindex"(#loc7))
#loc49 = loc("r0_index"(#loc8))
#loc50 = loc("r0_index"(#loc9))
#loc51 = loc("tmp0"(#loc10))
#loc52 = loc("tmp0"(#loc11))
#loc53 = loc("tmp0"(#loc12))
#loc54 = loc("tmp0"(#loc13))
#loc55 = loc("tmp1"(#loc14))
#loc56 = loc("tmp1"(#loc15))
#loc57 = loc("tmp23"(#loc16))
#loc58 = loc("tmp23"(#loc17))
#loc59 = loc("tmp25"(#loc18))
#loc60 = loc("tmp25"(#loc19))
#loc61 = loc("tmp2"(#loc20))
#loc63 = loc("tmp7"(#loc24))
#loc64 = loc("tmp10"(#loc25))
#loc65 = loc("tmp11"(#loc26))
#loc66 = loc("tmp12"(#loc27))
#loc68 = loc("tmp15"(#loc29))
#loc69 = loc("tmp18"(#loc30))
#loc70 = loc("tmp21"(#loc31))
#loc71 = loc("tmp22"(#loc32))
#loc72 = loc("tmp24"(#loc33))
#loc73 = loc("tmp26"(#loc34))
#loc74 = loc(callsite(#loc21 at #loc62))
#loc76 = loc(callsite(#loc21 at #loc67))
#loc78 = loc(callsite(#loc23 at #loc74))
#loc79 = loc(callsite(#loc23 at #loc76))
