#loc = loc("/home/ubuntu/Profiler/examples/conv_block/profiler_output/conv_block_opt_inductor_debug/yq/cyqvghonh6s4skh4pidyviyop7xgy6znlhyjynpkhxevaohnntly.py":18:0)
module {
  tt.func public @triton_poi_fused_mul_0(%arg0: !tt.ptr<bf16> {tt.divisibility = 16 : i32} loc("/home/ubuntu/Profiler/examples/conv_block/profiler_output/conv_block_opt_inductor_debug/yq/cyqvghonh6s4skh4pidyviyop7xgy6znlhyjynpkhxevaohnntly.py":18:0), %arg1: !tt.ptr<bf16> {tt.divisibility = 16 : i32} loc("/home/ubuntu/Profiler/examples/conv_block/profiler_output/conv_block_opt_inductor_debug/yq/cyqvghonh6s4skh4pidyviyop7xgy6znlhyjynpkhxevaohnntly.py":18:0), %arg2: !tt.ptr<bf16> {tt.divisibility = 16 : i32} loc("/home/ubuntu/Profiler/examples/conv_block/profiler_output/conv_block_opt_inductor_debug/yq/cyqvghonh6s4skh4pidyviyop7xgy6znlhyjynpkhxevaohnntly.py":18:0), %arg3: !tt.ptr<bf16> {tt.divisibility = 16 : i32} loc("/home/ubuntu/Profiler/examples/conv_block/profiler_output/conv_block_opt_inductor_debug/yq/cyqvghonh6s4skh4pidyviyop7xgy6znlhyjynpkhxevaohnntly.py":18:0), %arg4: i32 {tt.divisibility = 16 : i32} loc("/home/ubuntu/Profiler/examples/conv_block/profiler_output/conv_block_opt_inductor_debug/yq/cyqvghonh6s4skh4pidyviyop7xgy6znlhyjynpkhxevaohnntly.py":18:0)) attributes {noinline = false} {
    %cst = arith.constant dense<9.99999974E-6> : tensor<128xf32> loc(#loc1)
    %cst_0 = arith.constant dense<27> : tensor<128xi32> loc(#loc1)
    %cst_1 = arith.constant dense<1728> : tensor<128xi32> loc(#loc1)
    %c128_i32 = arith.constant 128 : i32 loc(#loc1)
    %0 = tt.get_program_id x : i32 loc(#loc2)
    %1 = arith.muli %0, %c128_i32 : i32 loc(#loc3)
    %2 = tt.make_range {end = 128 : i32, start = 0 : i32} : tensor<128xi32> loc(#loc4)
    %3 = tt.splat %1 : i32 -> tensor<128xi32> loc(#loc5)
    %4 = arith.addi %3, %2 : tensor<128xi32> loc(#loc5)
    %5 = arith.cmpi slt, %4, %cst_1 : tensor<128xi32> loc(#loc6)
    %6 = arith.divsi %4, %cst_0 : tensor<128xi32> loc(#loc7)
    %7 = tt.splat %arg0 : !tt.ptr<bf16> -> tensor<128x!tt.ptr<bf16>> loc(#loc8)
    %8 = tt.addptr %7, %4 : tensor<128x!tt.ptr<bf16>>, tensor<128xi32> loc(#loc8)
    %9 = tt.load %8, %5 : tensor<128x!tt.ptr<bf16>> loc(#loc9)
    %10 = arith.extf %9 : tensor<128xbf16> to tensor<128xf32> loc(#loc10)
    %11 = tt.splat %arg1 : !tt.ptr<bf16> -> tensor<128x!tt.ptr<bf16>> loc(#loc11)
    %12 = tt.addptr %11, %6 : tensor<128x!tt.ptr<bf16>>, tensor<128xi32> loc(#loc11)
    %13 = tt.load %12, %5 evictionPolicy = evict_last : tensor<128x!tt.ptr<bf16>> loc(#loc12)
    %14 = arith.extf %13 : tensor<128xbf16> to tensor<128xf32> loc(#loc13)
    %15 = tt.splat %arg2 : !tt.ptr<bf16> -> tensor<128x!tt.ptr<bf16>> loc(#loc14)
    %16 = tt.addptr %15, %6 : tensor<128x!tt.ptr<bf16>>, tensor<128xi32> loc(#loc14)
    %17 = tt.load %16, %5 evictionPolicy = evict_last : tensor<128x!tt.ptr<bf16>> loc(#loc15)
    %18 = arith.extf %17 : tensor<128xbf16> to tensor<128xf32> loc(#loc16)
    %19 = arith.addf %18, %cst : tensor<128xf32> loc(#loc17)
    %20 = tt.extern_elementwise %19 {libname = "", libpath = "", pure = true, symbol = "__nv_sqrtf"} : (tensor<128xf32>) -> tensor<128xf32> loc(#loc18)
    %21 = arith.divf %14, %20 : tensor<128xf32> loc(#loc19)
    %22 = arith.mulf %10, %21 : tensor<128xf32> loc(#loc20)
    %23 = tt.splat %arg3 : !tt.ptr<bf16> -> tensor<128x!tt.ptr<bf16>> loc(#loc21)
    %24 = tt.addptr %23, %4 : tensor<128x!tt.ptr<bf16>>, tensor<128xi32> loc(#loc21)
    %25 = arith.truncf %22 : tensor<128xf32> to tensor<128xbf16> loc(#loc22)
    tt.store %24, %25, %5 : tensor<128x!tt.ptr<bf16>> loc(#loc22)
    tt.return loc(#loc23)
  } loc(#loc)
} loc(#loc)
#loc1 = loc(unknown)
#loc2 = loc("/home/ubuntu/Profiler/examples/conv_block/profiler_output/conv_block_opt_inductor_debug/yq/cyqvghonh6s4skh4pidyviyop7xgy6znlhyjynpkhxevaohnntly.py":20:28)
#loc3 = loc("/home/ubuntu/Profiler/examples/conv_block/profiler_output/conv_block_opt_inductor_debug/yq/cyqvghonh6s4skh4pidyviyop7xgy6znlhyjynpkhxevaohnntly.py":20:33)
#loc4 = loc("/home/ubuntu/Profiler/examples/conv_block/profiler_output/conv_block_opt_inductor_debug/yq/cyqvghonh6s4skh4pidyviyop7xgy6znlhyjynpkhxevaohnntly.py":21:36)
#loc5 = loc("/home/ubuntu/Profiler/examples/conv_block/profiler_output/conv_block_opt_inductor_debug/yq/cyqvghonh6s4skh4pidyviyop7xgy6znlhyjynpkhxevaohnntly.py":21:23)
#loc6 = loc("/home/ubuntu/Profiler/examples/conv_block/profiler_output/conv_block_opt_inductor_debug/yq/cyqvghonh6s4skh4pidyviyop7xgy6znlhyjynpkhxevaohnntly.py":22:21)
#loc7 = loc("/home/ubuntu/Profiler/examples/conv_block/profiler_output/conv_block_opt_inductor_debug/yq/cyqvghonh6s4skh4pidyviyop7xgy6znlhyjynpkhxevaohnntly.py":24:19)
#loc8 = loc("/home/ubuntu/Profiler/examples/conv_block/profiler_output/conv_block_opt_inductor_debug/yq/cyqvghonh6s4skh4pidyviyop7xgy6znlhyjynpkhxevaohnntly.py":25:30)
#loc9 = loc("/home/ubuntu/Profiler/examples/conv_block/profiler_output/conv_block_opt_inductor_debug/yq/cyqvghonh6s4skh4pidyviyop7xgy6znlhyjynpkhxevaohnntly.py":25:35)
#loc10 = loc("/home/ubuntu/Profiler/examples/conv_block/profiler_output/conv_block_opt_inductor_debug/yq/cyqvghonh6s4skh4pidyviyop7xgy6znlhyjynpkhxevaohnntly.py":25:45)
#loc11 = loc("/home/ubuntu/Profiler/examples/conv_block/profiler_output/conv_block_opt_inductor_debug/yq/cyqvghonh6s4skh4pidyviyop7xgy6znlhyjynpkhxevaohnntly.py":26:30)
#loc12 = loc("/home/ubuntu/Profiler/examples/conv_block/profiler_output/conv_block_opt_inductor_debug/yq/cyqvghonh6s4skh4pidyviyop7xgy6znlhyjynpkhxevaohnntly.py":26:35)
#loc13 = loc("/home/ubuntu/Profiler/examples/conv_block/profiler_output/conv_block_opt_inductor_debug/yq/cyqvghonh6s4skh4pidyviyop7xgy6znlhyjynpkhxevaohnntly.py":26:75)
#loc14 = loc("/home/ubuntu/Profiler/examples/conv_block/profiler_output/conv_block_opt_inductor_debug/yq/cyqvghonh6s4skh4pidyviyop7xgy6znlhyjynpkhxevaohnntly.py":27:30)
#loc15 = loc("/home/ubuntu/Profiler/examples/conv_block/profiler_output/conv_block_opt_inductor_debug/yq/cyqvghonh6s4skh4pidyviyop7xgy6znlhyjynpkhxevaohnntly.py":27:35)
#loc16 = loc("/home/ubuntu/Profiler/examples/conv_block/profiler_output/conv_block_opt_inductor_debug/yq/cyqvghonh6s4skh4pidyviyop7xgy6znlhyjynpkhxevaohnntly.py":27:75)
#loc17 = loc("/home/ubuntu/Profiler/examples/conv_block/profiler_output/conv_block_opt_inductor_debug/yq/cyqvghonh6s4skh4pidyviyop7xgy6znlhyjynpkhxevaohnntly.py":29:18)
#loc18 = loc("/home/ubuntu/Profiler/examples/conv_block/profiler_output/conv_block_opt_inductor_debug/yq/cyqvghonh6s4skh4pidyviyop7xgy6znlhyjynpkhxevaohnntly.py":30:26)
#loc19 = loc("/home/ubuntu/Profiler/examples/conv_block/profiler_output/conv_block_opt_inductor_debug/yq/cyqvghonh6s4skh4pidyviyop7xgy6znlhyjynpkhxevaohnntly.py":31:19)
#loc20 = loc("/home/ubuntu/Profiler/examples/conv_block/profiler_output/conv_block_opt_inductor_debug/yq/cyqvghonh6s4skh4pidyviyop7xgy6znlhyjynpkhxevaohnntly.py":32:18)
#loc21 = loc("/home/ubuntu/Profiler/examples/conv_block/profiler_output/conv_block_opt_inductor_debug/yq/cyqvghonh6s4skh4pidyviyop7xgy6znlhyjynpkhxevaohnntly.py":33:25)
#loc22 = loc("/home/ubuntu/Profiler/examples/conv_block/profiler_output/conv_block_opt_inductor_debug/yq/cyqvghonh6s4skh4pidyviyop7xgy6znlhyjynpkhxevaohnntly.py":33:36)
#loc23 = loc("/home/ubuntu/Profiler/examples/conv_block/profiler_output/conv_block_opt_inductor_debug/yq/cyqvghonh6s4skh4pidyviyop7xgy6znlhyjynpkhxevaohnntly.py":33:4)
