#loc = loc("/root/Profiler/examples/sdpa_attention/test_run/inductor_debug_opt/vz/cvzntlxk6zfycvwh6yq5ookjgmynmsjjskxzbhlnavkgyighdp3c.py":18:0)
#loc52 = loc("arg_A"(#loc))
#loc53 = loc("arg_B"(#loc))
#loc54 = loc("out_ptr0"(#loc))
module {
  tt.func public @triton_mm(%arg_A: !tt.ptr<bf16> {tt.divisibility = 16 : i32} loc("arg_A"(#loc)), %arg_B: !tt.ptr<bf16> {tt.divisibility = 16 : i32} loc("arg_B"(#loc)), %out_ptr0: !tt.ptr<bf16> {tt.divisibility = 16 : i32} loc("out_ptr0"(#loc))) attributes {noinline = false} {
    %c1_i32 = arith.constant 1 : i32 loc(#loc1)
    %width = arith.constant 32 : i32 loc(#loc55)
    %cst = arith.constant dense<4096> : tensor<64x1xi32> loc(#loc3)
    %cst_0 = arith.constant dense<0.000000e+00> : tensor<64x128xf32> loc(#loc3)
    %cst_1 = arith.constant dense<512> : tensor<1x128xi32> loc(#loc3)
    %cst_2 = arith.constant dense<512> : tensor<64x1xi32> loc(#loc3)
    %cst_3 = arith.constant dense<512> : tensor<128xi32> loc(#loc3)
    %cst_4 = arith.constant dense<4096> : tensor<64xi32> loc(#loc3)
    %c8_i32 = arith.constant 8 : i32 loc(#loc3)
    %c128_i32 = arith.constant 128 : i32 loc(#loc3)
    %c64_i32 = arith.constant 64 : i32 loc(#loc3)
    %c0_i32 = arith.constant 0 : i32 loc(#loc3)
    %pid = tt.get_program_id x : i32 loc(#loc56)
    %group_id = arith.divsi %pid, %width : i32 loc(#loc57)
    %group_size = arith.muli %group_id, %c8_i32 : i32 loc(#loc58)
    %group_size_5 = arith.subi %c64_i32, %group_size : i32 loc(#loc59)
    %group_size_6 = arith.minsi %group_size_5, %c8_i32 : i32 loc(#loc60)
    %pid_m = arith.remsi %pid, %group_size_6 : i32 loc(#loc61)
    %pid_m_7 = arith.addi %group_size, %pid_m : i32 loc(#loc62)
    %pid_n = arith.remsi %pid, %width : i32 loc(#loc63)
    %pid_n_8 = arith.divsi %pid_n, %group_size_6 : i32 loc(#loc64)
    %0 = arith.cmpi sge, %pid_m_7, %c0_i32 : i32 loc(#loc13)
    llvm.intr.assume %0 : i1 loc(#loc14)
    %1 = arith.cmpi sge, %pid_n_8, %c0_i32 : i32 loc(#loc15)
    llvm.intr.assume %1 : i1 loc(#loc16)
    %rm = arith.muli %pid_m_7, %c64_i32 : i32 loc(#loc65)
    %rm_9 = tt.make_range {end = 64 : i32, start = 0 : i32} : tensor<64xi32> loc(#loc66)
    %rm_10 = tt.splat %rm : i32 -> tensor<64xi32> loc(#loc67)
    %rm_11 = arith.addi %rm_10, %rm_9 : tensor<64xi32> loc(#loc67)
    %rn = arith.muli %pid_n_8, %c128_i32 : i32 loc(#loc68)
    %rn_12 = tt.make_range {end = 128 : i32, start = 0 : i32} : tensor<128xi32> loc(#loc69)
    %rn_13 = tt.splat %rn : i32 -> tensor<128xi32> loc(#loc70)
    %rn_14 = arith.addi %rn_13, %rn_12 : tensor<128xi32> loc(#loc70)
    %offs_a_m = arith.remsi %rm_11, %cst_4 {tt.contiguity = dense<64> : tensor<1xi32>, tt.divisibility = dense<64> : tensor<1xi32>} : tensor<64xi32> loc(#loc97)
    %offs_b_n = arith.remsi %rn_14, %cst_3 {tt.contiguity = dense<128> : tensor<1xi32>, tt.divisibility = dense<128> : tensor<1xi32>} : tensor<128xi32> loc(#loc98)
    %acc = scf.for %k_idx = %c0_i32 to %c8_i32 step %c1_i32 iter_args(%acc_22 = %cst_0) -> (tensor<64x128xf32>)  : i32 {
      %a_k_idx_vals = tt.expand_dims %rm_9 {axis = 0 : i32} : tensor<64xi32> -> tensor<1x64xi32> loc(#loc74)
      %a_k_idx_vals_23 = arith.muli %k_idx, %c64_i32 : i32 loc(#loc75)
      %a_k_idx_vals_24 = tt.splat %a_k_idx_vals_23 : i32 -> tensor<1x64xi32> loc(#loc76)
      %a_k_idx_vals_25 = arith.addi %a_k_idx_vals, %a_k_idx_vals_24 : tensor<1x64xi32> loc(#loc76)
      %b_k_idx_vals = tt.expand_dims %rm_9 {axis = 1 : i32} : tensor<64xi32> -> tensor<64x1xi32> loc(#loc77)
      %b_k_idx_vals_26 = tt.splat %a_k_idx_vals_23 : i32 -> tensor<64x1xi32> loc(#loc78)
      %b_k_idx_vals_27 = arith.addi %b_k_idx_vals, %b_k_idx_vals_26 : tensor<64x1xi32> loc(#loc78)
      %idx_m_28 = tt.expand_dims %offs_a_m {axis = 1 : i32} : tensor<64xi32> -> tensor<64x1xi32> loc(#loc79)
      %xindex_29 = arith.muli %idx_m_28, %cst_2 : tensor<64x1xi32> loc(#loc80)
      %xindex_30 = tt.broadcast %a_k_idx_vals_25 : tensor<1x64xi32> -> tensor<64x64xi32> loc(#loc81)
      %xindex_31 = tt.broadcast %xindex_29 : tensor<64x1xi32> -> tensor<64x64xi32> loc(#loc81)
      %xindex_32 = arith.addi %xindex_30, %xindex_31 : tensor<64x64xi32> loc(#loc81)
      %a = tt.splat %arg_A : !tt.ptr<bf16> -> tensor<64x64x!tt.ptr<bf16>> loc(#loc82)
      %a_33 = tt.addptr %a, %xindex_32 : tensor<64x64x!tt.ptr<bf16>>, tensor<64x64xi32> loc(#loc82)
      %a_34 = tt.load %a_33 : tensor<64x64x!tt.ptr<bf16>> loc(#loc83)
      %idx_n_35 = tt.expand_dims %offs_b_n {axis = 0 : i32} : tensor<128xi32> -> tensor<1x128xi32> loc(#loc84)
      %b = arith.muli %idx_n_35, %cst_1 : tensor<1x128xi32> loc(#loc85)
      %b_36 = tt.broadcast %b_k_idx_vals_27 : tensor<64x1xi32> -> tensor<64x128xi32> loc(#loc86)
      %b_37 = tt.broadcast %b : tensor<1x128xi32> -> tensor<64x128xi32> loc(#loc86)
      %b_38 = arith.addi %b_36, %b_37 : tensor<64x128xi32> loc(#loc86)
      %b_39 = tt.splat %arg_B : !tt.ptr<bf16> -> tensor<64x128x!tt.ptr<bf16>> loc(#loc87)
      %b_40 = tt.addptr %b_39, %b_38 : tensor<64x128x!tt.ptr<bf16>>, tensor<64x128xi32> loc(#loc87)
      %b_41 = tt.load %b_40 : tensor<64x128x!tt.ptr<bf16>> loc(#loc88)
      %acc_42 = tt.dot %a_34, %b_41, %acc_22 : tensor<64x64xbf16> * tensor<64x128xbf16> -> tensor<64x128xf32> loc(#loc89)
      scf.yield %acc_42 : tensor<64x128xf32> loc(#loc41)
    } loc(#loc73)
    %idx_m = tt.expand_dims %rm_11 {axis = 1 : i32} : tensor<64xi32> -> tensor<64x1xi32> loc(#loc90)
    %idx_n = tt.expand_dims %rn_14 {axis = 0 : i32} : tensor<128xi32> -> tensor<1x128xi32> loc(#loc91)
    %mask = arith.cmpi slt, %idx_m, %cst : tensor<64x1xi32> loc(#loc92)
    %mask_15 = arith.cmpi slt, %idx_n, %cst_1 : tensor<1x128xi32> loc(#loc93)
    %mask_16 = tt.broadcast %mask : tensor<64x1xi1> -> tensor<64x128xi1> loc(#loc94)
    %mask_17 = tt.broadcast %mask_15 : tensor<1x128xi1> -> tensor<64x128xi1> loc(#loc94)
    %mask_18 = arith.andi %mask_16, %mask_17 : tensor<64x128xi1> loc(#loc94)
    %xindex = arith.muli %idx_m, %cst_2 : tensor<64x1xi32> loc(#loc95)
    %xindex_19 = tt.broadcast %idx_n : tensor<1x128xi32> -> tensor<64x128xi32> loc(#loc96)
    %xindex_20 = tt.broadcast %xindex : tensor<64x1xi32> -> tensor<64x128xi32> loc(#loc96)
    %xindex_21 = arith.addi %xindex_19, %xindex_20 : tensor<64x128xi32> loc(#loc96)
    %2 = tt.splat %out_ptr0 : !tt.ptr<bf16> -> tensor<64x128x!tt.ptr<bf16>> loc(#loc49)
    %3 = tt.addptr %2, %xindex_21 : tensor<64x128x!tt.ptr<bf16>>, tensor<64x128xi32> loc(#loc49)
    %4 = arith.truncf %acc : tensor<64x128xf32> to tensor<64x128xbf16> loc(#loc50)
    tt.store %3, %4, %mask_18 : tensor<64x128x!tt.ptr<bf16>> loc(#loc50)
    tt.return loc(#loc51)
  } loc(#loc)
} loc(#loc)
#loc1 = loc("/root/Profiler/examples/sdpa_attention/test_run/inductor_debug_opt/vz/cvzntlxk6zfycvwh6yq5ookjgmynmsjjskxzbhlnavkgyighdp3c.py":69:26)
#loc2 = loc("/root/Profiler/examples/sdpa_attention/test_run/inductor_debug_opt/vz/cvzntlxk6zfycvwh6yq5ookjgmynmsjjskxzbhlnavkgyighdp3c.py":48:22)
#loc3 = loc(unknown)
#loc4 = loc("/root/Profiler/examples/sdpa_attention/test_run/inductor_debug_opt/vz/cvzntlxk6zfycvwh6yq5ookjgmynmsjjskxzbhlnavkgyighdp3c.py":43:24)
#loc5 = loc("/root/Profiler/examples/sdpa_attention/test_run/inductor_debug_opt/vz/cvzntlxk6zfycvwh6yq5ookjgmynmsjjskxzbhlnavkgyighdp3c.py":49:22)
#loc6 = loc("/root/Profiler/examples/sdpa_attention/test_run/inductor_debug_opt/vz/cvzntlxk6zfycvwh6yq5ookjgmynmsjjskxzbhlnavkgyighdp3c.py":50:41)
#loc7 = loc("/root/Profiler/examples/sdpa_attention/test_run/inductor_debug_opt/vz/cvzntlxk6zfycvwh6yq5ookjgmynmsjjskxzbhlnavkgyighdp3c.py":50:30)
#loc8 = loc("/root/Profiler/examples/sdpa_attention/test_run/inductor_debug_opt/vz/cvzntlxk6zfycvwh6yq5ookjgmynmsjjskxzbhlnavkgyighdp3c.py":50:50)
#loc9 = loc("/root/Profiler/examples/sdpa_attention/test_run/inductor_debug_opt/vz/cvzntlxk6zfycvwh6yq5ookjgmynmsjjskxzbhlnavkgyighdp3c.py":51:40)
#loc10 = loc("/root/Profiler/examples/sdpa_attention/test_run/inductor_debug_opt/vz/cvzntlxk6zfycvwh6yq5ookjgmynmsjjskxzbhlnavkgyighdp3c.py":51:34)
#loc11 = loc("/root/Profiler/examples/sdpa_attention/test_run/inductor_debug_opt/vz/cvzntlxk6zfycvwh6yq5ookjgmynmsjjskxzbhlnavkgyighdp3c.py":52:19)
#loc12 = loc("/root/Profiler/examples/sdpa_attention/test_run/inductor_debug_opt/vz/cvzntlxk6zfycvwh6yq5ookjgmynmsjjskxzbhlnavkgyighdp3c.py":52:30)
#loc13 = loc("/root/Profiler/examples/sdpa_attention/test_run/inductor_debug_opt/vz/cvzntlxk6zfycvwh6yq5ookjgmynmsjjskxzbhlnavkgyighdp3c.py":53:23)
#loc14 = loc("/root/Profiler/examples/sdpa_attention/test_run/inductor_debug_opt/vz/cvzntlxk6zfycvwh6yq5ookjgmynmsjjskxzbhlnavkgyighdp3c.py":53:14)
#loc15 = loc("/root/Profiler/examples/sdpa_attention/test_run/inductor_debug_opt/vz/cvzntlxk6zfycvwh6yq5ookjgmynmsjjskxzbhlnavkgyighdp3c.py":54:23)
#loc16 = loc("/root/Profiler/examples/sdpa_attention/test_run/inductor_debug_opt/vz/cvzntlxk6zfycvwh6yq5ookjgmynmsjjskxzbhlnavkgyighdp3c.py":54:14)
#loc17 = loc("/root/Profiler/examples/sdpa_attention/test_run/inductor_debug_opt/vz/cvzntlxk6zfycvwh6yq5ookjgmynmsjjskxzbhlnavkgyighdp3c.py":56:17)
#loc18 = loc("/root/Profiler/examples/sdpa_attention/test_run/inductor_debug_opt/vz/cvzntlxk6zfycvwh6yq5ookjgmynmsjjskxzbhlnavkgyighdp3c.py":56:40)
#loc19 = loc("/root/Profiler/examples/sdpa_attention/test_run/inductor_debug_opt/vz/cvzntlxk6zfycvwh6yq5ookjgmynmsjjskxzbhlnavkgyighdp3c.py":56:27)
#loc20 = loc("/root/Profiler/examples/sdpa_attention/test_run/inductor_debug_opt/vz/cvzntlxk6zfycvwh6yq5ookjgmynmsjjskxzbhlnavkgyighdp3c.py":57:17)
#loc21 = loc("/root/Profiler/examples/sdpa_attention/test_run/inductor_debug_opt/vz/cvzntlxk6zfycvwh6yq5ookjgmynmsjjskxzbhlnavkgyighdp3c.py":57:40)
#loc22 = loc("/root/Profiler/examples/sdpa_attention/test_run/inductor_debug_opt/vz/cvzntlxk6zfycvwh6yq5ookjgmynmsjjskxzbhlnavkgyighdp3c.py":57:27)
#loc23 = loc("/root/Profiler/examples/sdpa_attention/test_run/inductor_debug_opt/vz/cvzntlxk6zfycvwh6yq5ookjgmynmsjjskxzbhlnavkgyighdp3c.py":59:57)
#loc24 = loc("/root/Profiler/examples/sdpa_attention/test_run/inductor_debug_opt/vz/cvzntlxk6zfycvwh6yq5ookjgmynmsjjskxzbhlnavkgyighdp3c.py":63:57)
#loc25 = loc("/root/Profiler/examples/sdpa_attention/test_run/inductor_debug_opt/vz/cvzntlxk6zfycvwh6yq5ookjgmynmsjjskxzbhlnavkgyighdp3c.py":71:30)
#loc26 = loc("/root/Profiler/examples/sdpa_attention/test_run/inductor_debug_opt/vz/cvzntlxk6zfycvwh6yq5ookjgmynmsjjskxzbhlnavkgyighdp3c.py":71:50)
#loc27 = loc("/root/Profiler/examples/sdpa_attention/test_run/inductor_debug_opt/vz/cvzntlxk6zfycvwh6yq5ookjgmynmsjjskxzbhlnavkgyighdp3c.py":71:42)
#loc28 = loc("/root/Profiler/examples/sdpa_attention/test_run/inductor_debug_opt/vz/cvzntlxk6zfycvwh6yq5ookjgmynmsjjskxzbhlnavkgyighdp3c.py":72:30)
#loc29 = loc("/root/Profiler/examples/sdpa_attention/test_run/inductor_debug_opt/vz/cvzntlxk6zfycvwh6yq5ookjgmynmsjjskxzbhlnavkgyighdp3c.py":72:42)
#loc30 = loc("/root/Profiler/examples/sdpa_attention/test_run/inductor_debug_opt/vz/cvzntlxk6zfycvwh6yq5ookjgmynmsjjskxzbhlnavkgyighdp3c.py":74:25)
#loc31 = loc("/root/Profiler/examples/sdpa_attention/test_run/inductor_debug_opt/vz/cvzntlxk6zfycvwh6yq5ookjgmynmsjjskxzbhlnavkgyighdp3c.py":76:29)
#loc32 = loc("/root/Profiler/examples/sdpa_attention/test_run/inductor_debug_opt/vz/cvzntlxk6zfycvwh6yq5ookjgmynmsjjskxzbhlnavkgyighdp3c.py":76:25)
#loc33 = loc("/root/Profiler/examples/sdpa_attention/test_run/inductor_debug_opt/vz/cvzntlxk6zfycvwh6yq5ookjgmynmsjjskxzbhlnavkgyighdp3c.py":77:25)
#loc34 = loc("/root/Profiler/examples/sdpa_attention/test_run/inductor_debug_opt/vz/cvzntlxk6zfycvwh6yq5ookjgmynmsjjskxzbhlnavkgyighdp3c.py":77:20)
#loc35 = loc("/root/Profiler/examples/sdpa_attention/test_run/inductor_debug_opt/vz/cvzntlxk6zfycvwh6yq5ookjgmynmsjjskxzbhlnavkgyighdp3c.py":80:25)
#loc36 = loc("/root/Profiler/examples/sdpa_attention/test_run/inductor_debug_opt/vz/cvzntlxk6zfycvwh6yq5ookjgmynmsjjskxzbhlnavkgyighdp3c.py":82:54)
#loc37 = loc("/root/Profiler/examples/sdpa_attention/test_run/inductor_debug_opt/vz/cvzntlxk6zfycvwh6yq5ookjgmynmsjjskxzbhlnavkgyighdp3c.py":82:50)
#loc38 = loc("/root/Profiler/examples/sdpa_attention/test_run/inductor_debug_opt/vz/cvzntlxk6zfycvwh6yq5ookjgmynmsjjskxzbhlnavkgyighdp3c.py":82:25)
#loc39 = loc("/root/Profiler/examples/sdpa_attention/test_run/inductor_debug_opt/vz/cvzntlxk6zfycvwh6yq5ookjgmynmsjjskxzbhlnavkgyighdp3c.py":82:20)
#loc40 = loc("/root/Profiler/examples/sdpa_attention/test_run/inductor_debug_opt/vz/cvzntlxk6zfycvwh6yq5ookjgmynmsjjskxzbhlnavkgyighdp3c.py":85:25)
#loc41 = loc("/root/Profiler/examples/sdpa_attention/test_run/inductor_debug_opt/vz/cvzntlxk6zfycvwh6yq5ookjgmynmsjjskxzbhlnavkgyighdp3c.py":85:8)
#loc42 = loc("/root/Profiler/examples/sdpa_attention/test_run/inductor_debug_opt/vz/cvzntlxk6zfycvwh6yq5ookjgmynmsjjskxzbhlnavkgyighdp3c.py":91:15)
#loc43 = loc("/root/Profiler/examples/sdpa_attention/test_run/inductor_debug_opt/vz/cvzntlxk6zfycvwh6yq5ookjgmynmsjjskxzbhlnavkgyighdp3c.py":92:15)
#loc44 = loc("/root/Profiler/examples/sdpa_attention/test_run/inductor_debug_opt/vz/cvzntlxk6zfycvwh6yq5ookjgmynmsjjskxzbhlnavkgyighdp3c.py":93:20)
#loc45 = loc("/root/Profiler/examples/sdpa_attention/test_run/inductor_debug_opt/vz/cvzntlxk6zfycvwh6yq5ookjgmynmsjjskxzbhlnavkgyighdp3c.py":93:34)
#loc46 = loc("/root/Profiler/examples/sdpa_attention/test_run/inductor_debug_opt/vz/cvzntlxk6zfycvwh6yq5ookjgmynmsjjskxzbhlnavkgyighdp3c.py":93:26)
#loc47 = loc("/root/Profiler/examples/sdpa_attention/test_run/inductor_debug_opt/vz/cvzntlxk6zfycvwh6yq5ookjgmynmsjjskxzbhlnavkgyighdp3c.py":96:25)
#loc48 = loc("/root/Profiler/examples/sdpa_attention/test_run/inductor_debug_opt/vz/cvzntlxk6zfycvwh6yq5ookjgmynmsjjskxzbhlnavkgyighdp3c.py":96:21)
#loc49 = loc("/root/Profiler/examples/sdpa_attention/test_run/inductor_debug_opt/vz/cvzntlxk6zfycvwh6yq5ookjgmynmsjjskxzbhlnavkgyighdp3c.py":97:25)
#loc50 = loc("/root/Profiler/examples/sdpa_attention/test_run/inductor_debug_opt/vz/cvzntlxk6zfycvwh6yq5ookjgmynmsjjskxzbhlnavkgyighdp3c.py":97:76)
#loc51 = loc("/root/Profiler/examples/sdpa_attention/test_run/inductor_debug_opt/vz/cvzntlxk6zfycvwh6yq5ookjgmynmsjjskxzbhlnavkgyighdp3c.py":97:4)
#loc55 = loc("width"(#loc2))
#loc56 = loc("pid"(#loc4))
#loc57 = loc("group_id"(#loc5))
#loc58 = loc("group_size"(#loc6))
#loc59 = loc("group_size"(#loc7))
#loc60 = loc("group_size"(#loc8))
#loc61 = loc("pid_m"(#loc9))
#loc62 = loc("pid_m"(#loc10))
#loc63 = loc("pid_n"(#loc11))
#loc64 = loc("pid_n"(#loc12))
#loc65 = loc("rm"(#loc17))
#loc66 = loc("rm"(#loc18))
#loc67 = loc("rm"(#loc19))
#loc68 = loc("rn"(#loc20))
#loc69 = loc("rn"(#loc21))
#loc70 = loc("rn"(#loc22))
#loc71 = loc("offs_a_m"(#loc23))
#loc72 = loc("offs_b_n"(#loc24))
#loc73 = loc("acc"(#loc1))
#loc74 = loc("a_k_idx_vals"(#loc25))
#loc75 = loc("a_k_idx_vals"(#loc26))
#loc76 = loc("a_k_idx_vals"(#loc27))
#loc77 = loc("b_k_idx_vals"(#loc28))
#loc78 = loc("b_k_idx_vals"(#loc29))
#loc79 = loc("idx_m"(#loc30))
#loc80 = loc("xindex"(#loc31))
#loc81 = loc("xindex"(#loc32))
#loc82 = loc("a"(#loc33))
#loc83 = loc("a"(#loc34))
#loc84 = loc("idx_n"(#loc35))
#loc85 = loc("b"(#loc36))
#loc86 = loc("b"(#loc37))
#loc87 = loc("b"(#loc38))
#loc88 = loc("b"(#loc39))
#loc89 = loc("acc"(#loc40))
#loc90 = loc("idx_m"(#loc42))
#loc91 = loc("idx_n"(#loc43))
#loc92 = loc("mask"(#loc44))
#loc93 = loc("mask"(#loc45))
#loc94 = loc("mask"(#loc46))
#loc95 = loc("xindex"(#loc47))
#loc96 = loc("xindex"(#loc48))
#loc97 = loc("offs_a_m"(#loc71))
#loc98 = loc("offs_b_n"(#loc72))
