#loc = loc("/root/Profiler/examples/transformer_stack/test_run/inductor_debug/c2/cc2egbnu6rjbzeq6r4dosaypmgyz5tlkspnq4uusvs5wuzybfqxq.py":18:0)
#loc53 = loc("/usr/local/lib/python3.10/dist-packages/triton/language/standard.py":287:0)
#loc55 = loc(unknown)
#loc58 = loc("/usr/local/lib/python3.10/dist-packages/triton/language/standard.py":262:0)
#loc62 = loc("in_ptr0"(#loc))
#loc63 = loc("in_ptr1"(#loc))
#loc64 = loc("in_ptr2"(#loc))
#loc65 = loc("in_ptr3"(#loc))
#loc66 = loc("out_ptr2"(#loc))
#loc67 = loc("xnumel"(#loc))
#loc68 = loc("r0_numel"(#loc))
#loc116 = loc("input"(#loc53))
#loc117 = loc("a"(#loc58))
#loc118 = loc("b"(#loc58))
module {
  tt.func public @triton_per_fused__unsafe_view_add_native_layer_norm_5(%in_ptr0: !tt.ptr<f32> {tt.divisibility = 16 : i32} loc("in_ptr0"(#loc)), %in_ptr1: !tt.ptr<f32> {tt.divisibility = 16 : i32} loc("in_ptr1"(#loc)), %in_ptr2: !tt.ptr<f32> {tt.divisibility = 16 : i32} loc("in_ptr2"(#loc)), %in_ptr3: !tt.ptr<f32> {tt.divisibility = 16 : i32} loc("in_ptr3"(#loc)), %out_ptr2: !tt.ptr<f32> {tt.divisibility = 16 : i32} loc("out_ptr2"(#loc)), %xnumel: i32 {tt.divisibility = 16 : i32} loc("xnumel"(#loc)), %r0_numel: i32 {tt.divisibility = 16 : i32} loc("r0_numel"(#loc))) attributes {noinline = false} {
    %xnumel_0 = arith.constant 512 : i32 loc(#loc69)
    %r0_numel_1 = arith.constant 512 : i32 loc(#loc70)
    %xoffset = tt.get_program_id x : i32 loc(#loc71)
    %xoffset_2 = arith.constant 1 : i32 loc(#loc72)
    %xoffset_3 = arith.constant 1 : i32 loc(#loc72)
    %xoffset_4 = arith.muli %xoffset, %xoffset_3 : i32 loc(#loc72)
    %xindex = tt.make_range {end = 1 : i32, start = 0 : i32} : tensor<1xi32> loc(#loc73)
    %xindex_5 = tt.expand_dims %xindex {axis = 1 : i32} : tensor<1xi32> -> tensor<1x1xi32> loc(#loc74)
    %xindex_6 = tt.splat %xoffset_4 : i32 -> tensor<1x1xi32> loc(#loc75)
    %xindex_7 = arith.addi %xindex_6, %xindex_5 : tensor<1x1xi32> loc(#loc75)
    %xmask = arith.constant dense<512> : tensor<1x1xi32> loc(#loc76)
    %xmask_8 = arith.cmpi slt, %xindex_7, %xmask : tensor<1x1xi32> loc(#loc76)
    %r0_index = tt.make_range {end = 512 : i32, start = 0 : i32} : tensor<512xi32> loc(#loc77)
    %r0_index_9 = tt.expand_dims %r0_index {axis = 0 : i32} : tensor<512xi32> -> tensor<1x512xi32> loc(#loc78)
    %r0_offset = arith.constant 0 : i32 loc(#loc79)
    %r0_mask = arith.constant true loc(#loc80)
    %r0_mask_10 = arith.constant dense<true> : tensor<512xi1> loc(#loc80)
    %r0_mask_11 = tt.expand_dims %r0_mask_10 {axis = 0 : i32} : tensor<512xi1> -> tensor<1x512xi1> loc(#loc81)
    %tmp0 = arith.constant 512 : i32 loc(#loc82)
    %tmp0_12 = arith.constant 512 : i32 loc(#loc82)
    %tmp0_13 = arith.constant dense<512> : tensor<1x1xi32> loc(#loc82)
    %tmp0_14 = arith.muli %tmp0_13, %xindex_7 : tensor<1x1xi32> loc(#loc82)
    %tmp0_15 = tt.broadcast %tmp0_14 : tensor<1x1xi32> -> tensor<1x512xi32> loc(#loc83)
    %tmp0_16 = arith.addi %r0_index_9, %tmp0_15 : tensor<1x512xi32> loc(#loc83)
    %tmp0_17 = tt.splat %in_ptr0 : !tt.ptr<f32> -> tensor<1x512x!tt.ptr<f32>> loc(#loc84)
    %tmp0_18 = tt.addptr %tmp0_17, %tmp0_16 : tensor<1x512x!tt.ptr<f32>>, tensor<1x512xi32> loc(#loc84)
    %tmp0_19 = arith.constant 0.000000e+00 : f32 loc(#loc85)
    %tmp0_20 = tt.broadcast %xmask_8 : tensor<1x1xi1> -> tensor<1x512xi1> loc(#loc85)
    %tmp0_21 = arith.constant dense<0.000000e+00> : tensor<1x512xf32> loc(#loc85)
    %tmp0_22 = tt.load %tmp0_18, %tmp0_20, %tmp0_21 : tensor<1x512x!tt.ptr<f32>> loc(#loc85)
    %tmp1 = arith.constant 512 : i32 loc(#loc86)
    %tmp1_23 = arith.constant 512 : i32 loc(#loc86)
    %tmp1_24 = arith.constant dense<512> : tensor<1x1xi32> loc(#loc86)
    %tmp1_25 = arith.muli %tmp1_24, %xindex_7 : tensor<1x1xi32> loc(#loc86)
    %tmp1_26 = tt.broadcast %tmp1_25 : tensor<1x1xi32> -> tensor<1x512xi32> loc(#loc87)
    %tmp1_27 = arith.addi %r0_index_9, %tmp1_26 : tensor<1x512xi32> loc(#loc87)
    %tmp1_28 = tt.splat %in_ptr1 : !tt.ptr<f32> -> tensor<1x512x!tt.ptr<f32>> loc(#loc88)
    %tmp1_29 = tt.addptr %tmp1_28, %tmp1_27 : tensor<1x512x!tt.ptr<f32>>, tensor<1x512xi32> loc(#loc88)
    %tmp1_30 = arith.constant 0.000000e+00 : f32 loc(#loc89)
    %tmp1_31 = tt.broadcast %xmask_8 : tensor<1x1xi1> -> tensor<1x512xi1> loc(#loc89)
    %tmp1_32 = arith.constant dense<0.000000e+00> : tensor<1x512xf32> loc(#loc89)
    %tmp1_33 = tt.load %tmp1_29, %tmp1_31, %tmp1_32 : tensor<1x512x!tt.ptr<f32>> loc(#loc89)
    %tmp26 = tt.splat %in_ptr2 : !tt.ptr<f32> -> tensor<1x512x!tt.ptr<f32>> loc(#loc90)
    %tmp26_34 = tt.addptr %tmp26, %r0_index_9 : tensor<1x512x!tt.ptr<f32>>, tensor<1x512xi32> loc(#loc90)
    %tmp26_35 = tt.load %tmp26_34 evictionPolicy = evict_last : tensor<1x512x!tt.ptr<f32>> loc(#loc91)
    %tmp28 = tt.splat %in_ptr3 : !tt.ptr<f32> -> tensor<1x512x!tt.ptr<f32>> loc(#loc92)
    %tmp28_36 = tt.addptr %tmp28, %r0_index_9 : tensor<1x512x!tt.ptr<f32>>, tensor<1x512xi32> loc(#loc92)
    %tmp28_37 = tt.load %tmp28_36 evictionPolicy = evict_last : tensor<1x512x!tt.ptr<f32>> loc(#loc93)
    %tmp2 = arith.addf %tmp0_22, %tmp1_33 : tensor<1x512xf32> loc(#loc94)
    %tmp5 = arith.constant 0 : i32 loc(#loc95)
    %tmp5_38 = arith.constant 0.000000e+00 : f32 loc(#loc95)
    %tmp5_39 = arith.constant dense<0.000000e+00> : tensor<1x512xf32> loc(#loc95)
    %tmp5_40 = tt.broadcast %xmask_8 : tensor<1x1xi1> -> tensor<1x512xi1> loc(#loc95)
    %tmp5_41 = arith.select %tmp5_40, %tmp2, %tmp5_39 : tensor<1x512xi1>, tensor<1x512xf32> loc(#loc95)
    %tmp8 = arith.constant 0 : i32 loc(#loc96)
    %tmp8_42 = arith.constant 0.000000e+00 : f32 loc(#loc96)
    %tmp8_43 = arith.constant dense<0.000000e+00> : tensor<1x512xf32> loc(#loc96)
    %tmp8_44 = tt.broadcast %xmask_8 : tensor<1x1xi1> -> tensor<1x512xi1> loc(#loc96)
    %tmp8_45 = arith.select %tmp8_44, %tmp2, %tmp8_43 : tensor<1x512xi1>, tensor<1x512xf32> loc(#loc96)
    %tmp9 = tt.call @"triton.language.standard.sum__fp32S1_512S__(1,)cconstexpr_1__(2,)cconstexpr_False__(3,)cNone"(%tmp8_45) : (tensor<1x512xf32>) -> tensor<1xf32> loc(#loc97)
    %tmp9_46 = tt.expand_dims %tmp9 {axis = 1 : i32} : tensor<1xf32> -> tensor<1x1xf32> loc(#loc98)
    %tmp10 = arith.constant 512 : i32 loc(#loc99)
    %tmp10_47 = arith.constant dense<512> : tensor<1x1xi32> loc(#loc99)
    %tmp11 = arith.sitofp %tmp10_47 : tensor<1x1xi32> to tensor<1x1xf32> loc(#loc100)
    %tmp12 = arith.divf %tmp9_46, %tmp11 : tensor<1x1xf32> loc(#loc101)
    %tmp13 = tt.broadcast %tmp12 : tensor<1x1xf32> -> tensor<1x512xf32> loc(#loc102)
    %tmp13_48 = arith.subf %tmp2, %tmp13 : tensor<1x512xf32> loc(#loc102)
    %tmp14 = arith.mulf %tmp13_48, %tmp13_48 : tensor<1x512xf32> loc(#loc103)
    %tmp17 = arith.constant 0 : i32 loc(#loc104)
    %tmp17_49 = arith.constant 0.000000e+00 : f32 loc(#loc104)
    %tmp17_50 = arith.constant dense<0.000000e+00> : tensor<1x512xf32> loc(#loc104)
    %tmp17_51 = tt.broadcast %xmask_8 : tensor<1x1xi1> -> tensor<1x512xi1> loc(#loc104)
    %tmp17_52 = arith.select %tmp17_51, %tmp14, %tmp17_50 : tensor<1x512xi1>, tensor<1x512xf32> loc(#loc104)
    %tmp18 = tt.call @"triton.language.standard.sum__fp32S1_512S__(1,)cconstexpr_1__(2,)cconstexpr_False__(3,)cNone"(%tmp17_52) : (tensor<1x512xf32>) -> tensor<1xf32> loc(#loc105)
    %tmp18_53 = tt.expand_dims %tmp18 {axis = 1 : i32} : tensor<1xf32> -> tensor<1x1xf32> loc(#loc106)
    %tmp19 = tt.broadcast %tmp12 : tensor<1x1xf32> -> tensor<1x512xf32> loc(#loc107)
    %tmp19_54 = arith.subf %tmp2, %tmp19 : tensor<1x512xf32> loc(#loc107)
    %tmp20 = arith.constant 5.120000e+02 : f32 loc(#loc108)
    %tmp20_55 = arith.constant dense<5.120000e+02> : tensor<1x1xf32> loc(#loc108)
    %tmp21 = arith.divf %tmp18_53, %tmp20_55 : tensor<1x1xf32> loc(#loc109)
    %tmp22 = arith.constant 9.99999974E-6 : f32 loc(#loc110)
    %tmp22_56 = arith.constant dense<9.99999974E-6> : tensor<1x1xf32> loc(#loc110)
    %tmp23 = arith.addf %tmp21, %tmp22_56 : tensor<1x1xf32> loc(#loc111)
    %tmp24 = tt.extern_elementwise %tmp23 {libname = "", libpath = "", pure = true, symbol = "__nv_rsqrtf"} : (tensor<1x1xf32>) -> tensor<1x1xf32> loc(#loc112)
    %tmp25 = tt.broadcast %tmp24 : tensor<1x1xf32> -> tensor<1x512xf32> loc(#loc113)
    %tmp25_57 = arith.mulf %tmp19_54, %tmp25 : tensor<1x512xf32> loc(#loc113)
    %tmp27 = arith.mulf %tmp25_57, %tmp26_35 : tensor<1x512xf32> loc(#loc114)
    %tmp29 = arith.addf %tmp27, %tmp28_37 : tensor<1x512xf32> loc(#loc115)
    %c512_i32 = arith.constant 512 : i32 loc(#loc48)
    %c512_i32_58 = arith.constant 512 : i32 loc(#loc48)
    %cst = arith.constant dense<512> : tensor<1x1xi32> loc(#loc48)
    %0 = arith.muli %cst, %xindex_7 : tensor<1x1xi32> loc(#loc48)
    %1 = tt.broadcast %0 : tensor<1x1xi32> -> tensor<1x512xi32> loc(#loc49)
    %2 = arith.addi %r0_index_9, %1 : tensor<1x512xi32> loc(#loc49)
    %3 = tt.splat %out_ptr2 : !tt.ptr<f32> -> tensor<1x512x!tt.ptr<f32>> loc(#loc50)
    %4 = tt.addptr %3, %2 : tensor<1x512x!tt.ptr<f32>>, tensor<1x512xi32> loc(#loc50)
    %5 = tt.broadcast %xmask_8 : tensor<1x1xi1> -> tensor<1x512xi1> loc(#loc51)
    tt.store %4, %tmp29, %5 : tensor<1x512x!tt.ptr<f32>> loc(#loc51)
    tt.return loc(#loc52)
  } loc(#loc)
  tt.func private @"triton.language.standard.sum__fp32S1_512S__(1,)cconstexpr_1__(2,)cconstexpr_False__(3,)cNone"(%input: tensor<1x512xf32> loc("input"(#loc53))) -> tensor<1xf32> attributes {noinline = false} {
    %0 = "tt.reduce"(%input) <{axis = 1 : i32}> ({
    ^bb0(%arg1: f32 loc(unknown), %arg2: f32 loc(unknown)):
      %2 = tt.call @triton.language.standard._sum_combine__fp32_fp32__(%arg1, %arg2) : (f32, f32) -> f32 loc(#loc54)
      tt.reduce.return %2 : f32 loc(#loc54)
    }) : (tensor<1x512xf32>) -> tensor<1xf32> loc(#loc54)
    tt.return %0 : tensor<1xf32> loc(#loc56)
  ^bb1:  // no predecessors
    %1 = ub.poison : tensor<1xf32> loc(#loc57)
    tt.return %1 : tensor<1xf32> loc(#loc57)
  } loc(#loc53)
  tt.func private @triton.language.standard._sum_combine__fp32_fp32__(%a: f32 loc("a"(#loc58)), %b: f32 loc("b"(#loc58))) -> f32 attributes {noinline = false} {
    %0 = arith.addf %a, %b : f32 loc(#loc59)
    tt.return %0 : f32 loc(#loc60)
  ^bb1:  // no predecessors
    %1 = ub.poison : f32 loc(#loc61)
    tt.return %1 : f32 loc(#loc61)
  } loc(#loc58)
} loc(#loc)
#loc1 = loc("/root/Profiler/examples/transformer_stack/test_run/inductor_debug/c2/cc2egbnu6rjbzeq6r4dosaypmgyz5tlkspnq4uusvs5wuzybfqxq.py":19:13)
#loc2 = loc("/root/Profiler/examples/transformer_stack/test_run/inductor_debug/c2/cc2egbnu6rjbzeq6r4dosaypmgyz5tlkspnq4uusvs5wuzybfqxq.py":20:15)
#loc3 = loc("/root/Profiler/examples/transformer_stack/test_run/inductor_debug/c2/cc2egbnu6rjbzeq6r4dosaypmgyz5tlkspnq4uusvs5wuzybfqxq.py":24:28)
#loc4 = loc("/root/Profiler/examples/transformer_stack/test_run/inductor_debug/c2/cc2egbnu6rjbzeq6r4dosaypmgyz5tlkspnq4uusvs5wuzybfqxq.py":24:33)
#loc5 = loc("/root/Profiler/examples/transformer_stack/test_run/inductor_debug/c2/cc2egbnu6rjbzeq6r4dosaypmgyz5tlkspnq4uusvs5wuzybfqxq.py":25:36)
#loc6 = loc("/root/Profiler/examples/transformer_stack/test_run/inductor_debug/c2/cc2egbnu6rjbzeq6r4dosaypmgyz5tlkspnq4uusvs5wuzybfqxq.py":25:44)
#loc7 = loc("/root/Profiler/examples/transformer_stack/test_run/inductor_debug/c2/cc2egbnu6rjbzeq6r4dosaypmgyz5tlkspnq4uusvs5wuzybfqxq.py":25:23)
#loc8 = loc("/root/Profiler/examples/transformer_stack/test_run/inductor_debug/c2/cc2egbnu6rjbzeq6r4dosaypmgyz5tlkspnq4uusvs5wuzybfqxq.py":26:21)
#loc9 = loc("/root/Profiler/examples/transformer_stack/test_run/inductor_debug/c2/cc2egbnu6rjbzeq6r4dosaypmgyz5tlkspnq4uusvs5wuzybfqxq.py":27:28)
#loc10 = loc("/root/Profiler/examples/transformer_stack/test_run/inductor_debug/c2/cc2egbnu6rjbzeq6r4dosaypmgyz5tlkspnq4uusvs5wuzybfqxq.py":27:38)
#loc11 = loc("/root/Profiler/examples/transformer_stack/test_run/inductor_debug/c2/cc2egbnu6rjbzeq6r4dosaypmgyz5tlkspnq4uusvs5wuzybfqxq.py":28:16)
#loc12 = loc("/root/Profiler/examples/transformer_stack/test_run/inductor_debug/c2/cc2egbnu6rjbzeq6r4dosaypmgyz5tlkspnq4uusvs5wuzybfqxq.py":29:40)
#loc13 = loc("/root/Profiler/examples/transformer_stack/test_run/inductor_debug/c2/cc2egbnu6rjbzeq6r4dosaypmgyz5tlkspnq4uusvs5wuzybfqxq.py":29:49)
#loc14 = loc("/root/Profiler/examples/transformer_stack/test_run/inductor_debug/c2/cc2egbnu6rjbzeq6r4dosaypmgyz5tlkspnq4uusvs5wuzybfqxq.py":34:41)
#loc15 = loc("/root/Profiler/examples/transformer_stack/test_run/inductor_debug/c2/cc2egbnu6rjbzeq6r4dosaypmgyz5tlkspnq4uusvs5wuzybfqxq.py":34:37)
#loc16 = loc("/root/Profiler/examples/transformer_stack/test_run/inductor_debug/c2/cc2egbnu6rjbzeq6r4dosaypmgyz5tlkspnq4uusvs5wuzybfqxq.py":34:30)
#loc17 = loc("/root/Profiler/examples/transformer_stack/test_run/inductor_debug/c2/cc2egbnu6rjbzeq6r4dosaypmgyz5tlkspnq4uusvs5wuzybfqxq.py":34:46)
#loc18 = loc("/root/Profiler/examples/transformer_stack/test_run/inductor_debug/c2/cc2egbnu6rjbzeq6r4dosaypmgyz5tlkspnq4uusvs5wuzybfqxq.py":35:41)
#loc19 = loc("/root/Profiler/examples/transformer_stack/test_run/inductor_debug/c2/cc2egbnu6rjbzeq6r4dosaypmgyz5tlkspnq4uusvs5wuzybfqxq.py":35:37)
#loc20 = loc("/root/Profiler/examples/transformer_stack/test_run/inductor_debug/c2/cc2egbnu6rjbzeq6r4dosaypmgyz5tlkspnq4uusvs5wuzybfqxq.py":35:30)
#loc21 = loc("/root/Profiler/examples/transformer_stack/test_run/inductor_debug/c2/cc2egbnu6rjbzeq6r4dosaypmgyz5tlkspnq4uusvs5wuzybfqxq.py":35:46)
#loc22 = loc("/root/Profiler/examples/transformer_stack/test_run/inductor_debug/c2/cc2egbnu6rjbzeq6r4dosaypmgyz5tlkspnq4uusvs5wuzybfqxq.py":36:31)
#loc23 = loc("/root/Profiler/examples/transformer_stack/test_run/inductor_debug/c2/cc2egbnu6rjbzeq6r4dosaypmgyz5tlkspnq4uusvs5wuzybfqxq.py":36:38)
#loc24 = loc("/root/Profiler/examples/transformer_stack/test_run/inductor_debug/c2/cc2egbnu6rjbzeq6r4dosaypmgyz5tlkspnq4uusvs5wuzybfqxq.py":37:31)
#loc25 = loc("/root/Profiler/examples/transformer_stack/test_run/inductor_debug/c2/cc2egbnu6rjbzeq6r4dosaypmgyz5tlkspnq4uusvs5wuzybfqxq.py":37:38)
#loc26 = loc("/root/Profiler/examples/transformer_stack/test_run/inductor_debug/c2/cc2egbnu6rjbzeq6r4dosaypmgyz5tlkspnq4uusvs5wuzybfqxq.py":38:18)
#loc27 = loc("/root/Profiler/examples/transformer_stack/test_run/inductor_debug/c2/cc2egbnu6rjbzeq6r4dosaypmgyz5tlkspnq4uusvs5wuzybfqxq.py":40:33)
#loc28 = loc("/root/Profiler/examples/transformer_stack/test_run/inductor_debug/c2/cc2egbnu6rjbzeq6r4dosaypmgyz5tlkspnq4uusvs5wuzybfqxq.py":42:33)
#loc29 = loc("/root/Profiler/examples/transformer_stack/test_run/inductor_debug/c2/cc2egbnu6rjbzeq6r4dosaypmgyz5tlkspnq4uusvs5wuzybfqxq.py":43:24)
#loc30 = loc("/root/Profiler/examples/transformer_stack/test_run/inductor_debug/c2/cc2egbnu6rjbzeq6r4dosaypmgyz5tlkspnq4uusvs5wuzybfqxq.py":43:27)
#loc31 = loc("/root/Profiler/examples/transformer_stack/test_run/inductor_debug/c2/cc2egbnu6rjbzeq6r4dosaypmgyz5tlkspnq4uusvs5wuzybfqxq.py":44:33)
#loc32 = loc("/root/Profiler/examples/transformer_stack/test_run/inductor_debug/c2/cc2egbnu6rjbzeq6r4dosaypmgyz5tlkspnq4uusvs5wuzybfqxq.py":45:21)
#loc33 = loc("/root/Profiler/examples/transformer_stack/test_run/inductor_debug/c2/cc2egbnu6rjbzeq6r4dosaypmgyz5tlkspnq4uusvs5wuzybfqxq.py":46:20)
#loc34 = loc("/root/Profiler/examples/transformer_stack/test_run/inductor_debug/c2/cc2egbnu6rjbzeq6r4dosaypmgyz5tlkspnq4uusvs5wuzybfqxq.py":47:19)
#loc35 = loc("/root/Profiler/examples/transformer_stack/test_run/inductor_debug/c2/cc2egbnu6rjbzeq6r4dosaypmgyz5tlkspnq4uusvs5wuzybfqxq.py":48:20)
#loc36 = loc("/root/Profiler/examples/transformer_stack/test_run/inductor_debug/c2/cc2egbnu6rjbzeq6r4dosaypmgyz5tlkspnq4uusvs5wuzybfqxq.py":50:35)
#loc37 = loc("/root/Profiler/examples/transformer_stack/test_run/inductor_debug/c2/cc2egbnu6rjbzeq6r4dosaypmgyz5tlkspnq4uusvs5wuzybfqxq.py":51:26)
#loc38 = loc("/root/Profiler/examples/transformer_stack/test_run/inductor_debug/c2/cc2egbnu6rjbzeq6r4dosaypmgyz5tlkspnq4uusvs5wuzybfqxq.py":51:29)
#loc39 = loc("/root/Profiler/examples/transformer_stack/test_run/inductor_debug/c2/cc2egbnu6rjbzeq6r4dosaypmgyz5tlkspnq4uusvs5wuzybfqxq.py":52:19)
#loc40 = loc("/root/Profiler/examples/transformer_stack/test_run/inductor_debug/c2/cc2egbnu6rjbzeq6r4dosaypmgyz5tlkspnq4uusvs5wuzybfqxq.py":53:35)
#loc41 = loc("/root/Profiler/examples/transformer_stack/test_run/inductor_debug/c2/cc2egbnu6rjbzeq6r4dosaypmgyz5tlkspnq4uusvs5wuzybfqxq.py":54:21)
#loc42 = loc("/root/Profiler/examples/transformer_stack/test_run/inductor_debug/c2/cc2egbnu6rjbzeq6r4dosaypmgyz5tlkspnq4uusvs5wuzybfqxq.py":55:35)
#loc43 = loc("/root/Profiler/examples/transformer_stack/test_run/inductor_debug/c2/cc2egbnu6rjbzeq6r4dosaypmgyz5tlkspnq4uusvs5wuzybfqxq.py":56:20)
#loc44 = loc("/root/Profiler/examples/transformer_stack/test_run/inductor_debug/c2/cc2egbnu6rjbzeq6r4dosaypmgyz5tlkspnq4uusvs5wuzybfqxq.py":57:28)
#loc45 = loc("/root/Profiler/examples/transformer_stack/test_run/inductor_debug/c2/cc2egbnu6rjbzeq6r4dosaypmgyz5tlkspnq4uusvs5wuzybfqxq.py":58:20)
#loc46 = loc("/root/Profiler/examples/transformer_stack/test_run/inductor_debug/c2/cc2egbnu6rjbzeq6r4dosaypmgyz5tlkspnq4uusvs5wuzybfqxq.py":59:20)
#loc47 = loc("/root/Profiler/examples/transformer_stack/test_run/inductor_debug/c2/cc2egbnu6rjbzeq6r4dosaypmgyz5tlkspnq4uusvs5wuzybfqxq.py":60:20)
#loc48 = loc("/root/Profiler/examples/transformer_stack/test_run/inductor_debug/c2/cc2egbnu6rjbzeq6r4dosaypmgyz5tlkspnq4uusvs5wuzybfqxq.py":61:36)
#loc49 = loc("/root/Profiler/examples/transformer_stack/test_run/inductor_debug/c2/cc2egbnu6rjbzeq6r4dosaypmgyz5tlkspnq4uusvs5wuzybfqxq.py":61:32)
#loc50 = loc("/root/Profiler/examples/transformer_stack/test_run/inductor_debug/c2/cc2egbnu6rjbzeq6r4dosaypmgyz5tlkspnq4uusvs5wuzybfqxq.py":61:25)
#loc51 = loc("/root/Profiler/examples/transformer_stack/test_run/inductor_debug/c2/cc2egbnu6rjbzeq6r4dosaypmgyz5tlkspnq4uusvs5wuzybfqxq.py":61:48)
#loc52 = loc("/root/Profiler/examples/transformer_stack/test_run/inductor_debug/c2/cc2egbnu6rjbzeq6r4dosaypmgyz5tlkspnq4uusvs5wuzybfqxq.py":61:4)
#loc54 = loc("/usr/local/lib/python3.10/dist-packages/triton/language/standard.py":293:36)
#loc56 = loc("/usr/local/lib/python3.10/dist-packages/triton/language/standard.py":293:11)
#loc57 = loc("/usr/local/lib/python3.10/dist-packages/triton/language/standard.py":293:4)
#loc59 = loc("/usr/local/lib/python3.10/dist-packages/triton/language/standard.py":263:15)
#loc60 = loc("/usr/local/lib/python3.10/dist-packages/triton/language/standard.py":263:11)
#loc61 = loc("/usr/local/lib/python3.10/dist-packages/triton/language/standard.py":263:4)
#loc69 = loc("xnumel"(#loc1))
#loc70 = loc("r0_numel"(#loc2))
#loc71 = loc("xoffset"(#loc3))
#loc72 = loc("xoffset"(#loc4))
#loc73 = loc("xindex"(#loc5))
#loc74 = loc("xindex"(#loc6))
#loc75 = loc("xindex"(#loc7))
#loc76 = loc("xmask"(#loc8))
#loc77 = loc("r0_index"(#loc9))
#loc78 = loc("r0_index"(#loc10))
#loc79 = loc("r0_offset"(#loc11))
#loc80 = loc("r0_mask"(#loc12))
#loc81 = loc("r0_mask"(#loc13))
#loc82 = loc("tmp0"(#loc14))
#loc83 = loc("tmp0"(#loc15))
#loc84 = loc("tmp0"(#loc16))
#loc85 = loc("tmp0"(#loc17))
#loc86 = loc("tmp1"(#loc18))
#loc87 = loc("tmp1"(#loc19))
#loc88 = loc("tmp1"(#loc20))
#loc89 = loc("tmp1"(#loc21))
#loc90 = loc("tmp26"(#loc22))
#loc91 = loc("tmp26"(#loc23))
#loc92 = loc("tmp28"(#loc24))
#loc93 = loc("tmp28"(#loc25))
#loc94 = loc("tmp2"(#loc26))
#loc95 = loc("tmp5"(#loc27))
#loc96 = loc("tmp8"(#loc28))
#loc97 = loc("tmp9"(#loc29))
#loc98 = loc("tmp9"(#loc30))
#loc99 = loc("tmp10"(#loc31))
#loc100 = loc("tmp11"(#loc32))
#loc101 = loc("tmp12"(#loc33))
#loc102 = loc("tmp13"(#loc34))
#loc103 = loc("tmp14"(#loc35))
#loc104 = loc("tmp17"(#loc36))
#loc105 = loc("tmp18"(#loc37))
#loc106 = loc("tmp18"(#loc38))
#loc107 = loc("tmp19"(#loc39))
#loc108 = loc("tmp20"(#loc40))
#loc109 = loc("tmp21"(#loc41))
#loc110 = loc("tmp22"(#loc42))
#loc111 = loc("tmp23"(#loc43))
#loc112 = loc("tmp24"(#loc44))
#loc113 = loc("tmp25"(#loc45))
#loc114 = loc("tmp27"(#loc46))
#loc115 = loc("tmp29"(#loc47))
