#loc = loc("/root/Profiler/examples/transformer_stack/test_run/inductor_debug/c2/cc2egbnu6rjbzeq6r4dosaypmgyz5tlkspnq4uusvs5wuzybfqxq.py":18:0)
#loc1 = loc(unknown)
#loc20 = loc("/root/Profiler/examples/transformer_stack/test_run/inductor_debug/c2/cc2egbnu6rjbzeq6r4dosaypmgyz5tlkspnq4uusvs5wuzybfqxq.py":43:24)
#loc27 = loc("/root/Profiler/examples/transformer_stack/test_run/inductor_debug/c2/cc2egbnu6rjbzeq6r4dosaypmgyz5tlkspnq4uusvs5wuzybfqxq.py":51:26)
#loc38 = loc("in_ptr0"(#loc))
#loc39 = loc("in_ptr1"(#loc))
#loc40 = loc("in_ptr2"(#loc))
#loc41 = loc("in_ptr3"(#loc))
#loc42 = loc("out_ptr2"(#loc))
#loc43 = loc("xnumel"(#loc))
#loc44 = loc("r0_numel"(#loc))
#loc62 = loc("tmp9"(#loc20))
#loc68 = loc("tmp18"(#loc27))
#loc79 = loc(callsite(#loc1 at #loc62))
#loc81 = loc(callsite(#loc1 at #loc68))
module {
  tt.func public @triton_per_fused__unsafe_view_add_native_layer_norm_5(%in_ptr0: !tt.ptr<f32> {tt.divisibility = 16 : i32} loc("in_ptr0"(#loc)), %in_ptr1: !tt.ptr<f32> {tt.divisibility = 16 : i32} loc("in_ptr1"(#loc)), %in_ptr2: !tt.ptr<f32> {tt.divisibility = 16 : i32} loc("in_ptr2"(#loc)), %in_ptr3: !tt.ptr<f32> {tt.divisibility = 16 : i32} loc("in_ptr3"(#loc)), %out_ptr2: !tt.ptr<f32> {tt.divisibility = 16 : i32} loc("out_ptr2"(#loc)), %xnumel: i32 {tt.divisibility = 16 : i32} loc("xnumel"(#loc)), %r0_numel: i32 {tt.divisibility = 16 : i32} loc("r0_numel"(#loc))) attributes {noinline = false} {
    %c512_i32 = arith.constant 512 : i32 loc(#loc1)
    %tmp22 = arith.constant dense<9.99999974E-6> : tensor<1x1xf32> loc(#loc45)
    %cst = arith.constant dense<5.120000e+02> : tensor<1x1xf32> loc(#loc1)
    %cst_0 = arith.constant dense<0.000000e+00> : tensor<1x512xf32> loc(#loc1)
    %xoffset = tt.get_program_id x : i32 loc(#loc46)
    %xmask = arith.cmpi slt, %xoffset, %c512_i32 : i32 loc(#loc47)
    %r0_index = tt.make_range {end = 512 : i32, start = 0 : i32} : tensor<512xi32> loc(#loc48)
    %r0_index_1 = tt.expand_dims %r0_index {axis = 0 : i32} : tensor<512xi32> -> tensor<1x512xi32> loc(#loc49)
    %tmp0 = arith.muli %xoffset, %c512_i32 : i32 loc(#loc50)
    %tmp0_2 = tt.splat %tmp0 : i32 -> tensor<1x512xi32> loc(#loc76)
    %tmp0_3 = arith.addi %r0_index_1, %tmp0_2 : tensor<1x512xi32> loc(#loc51)
    %tmp0_4 = tt.splat %in_ptr0 : !tt.ptr<f32> -> tensor<1x512x!tt.ptr<f32>> loc(#loc52)
    %tmp0_5 = tt.addptr %tmp0_4, %tmp0_3 : tensor<1x512x!tt.ptr<f32>>, tensor<1x512xi32> loc(#loc52)
    %tmp0_6 = tt.splat %xmask : i1 -> tensor<1x512xi1> loc(#loc77)
    %tmp0_7 = tt.load %tmp0_5, %tmp0_6, %cst_0 : tensor<1x512x!tt.ptr<f32>> loc(#loc53)
    %tmp1 = tt.splat %in_ptr1 : !tt.ptr<f32> -> tensor<1x512x!tt.ptr<f32>> loc(#loc54)
    %tmp1_8 = tt.addptr %tmp1, %tmp0_3 : tensor<1x512x!tt.ptr<f32>>, tensor<1x512xi32> loc(#loc54)
    %tmp1_9 = tt.load %tmp1_8, %tmp0_6, %cst_0 : tensor<1x512x!tt.ptr<f32>> loc(#loc55)
    %tmp26 = tt.splat %in_ptr2 : !tt.ptr<f32> -> tensor<1x512x!tt.ptr<f32>> loc(#loc56)
    %tmp26_10 = tt.addptr %tmp26, %r0_index_1 : tensor<1x512x!tt.ptr<f32>>, tensor<1x512xi32> loc(#loc56)
    %tmp26_11 = tt.load %tmp26_10 evictionPolicy = evict_last : tensor<1x512x!tt.ptr<f32>> loc(#loc57)
    %tmp28 = tt.splat %in_ptr3 : !tt.ptr<f32> -> tensor<1x512x!tt.ptr<f32>> loc(#loc58)
    %tmp28_12 = tt.addptr %tmp28, %r0_index_1 : tensor<1x512x!tt.ptr<f32>>, tensor<1x512xi32> loc(#loc58)
    %tmp28_13 = tt.load %tmp28_12 evictionPolicy = evict_last : tensor<1x512x!tt.ptr<f32>> loc(#loc59)
    %tmp2 = arith.addf %tmp0_7, %tmp1_9 : tensor<1x512xf32> loc(#loc60)
    %tmp8 = arith.select %tmp0_6, %tmp2, %cst_0 : tensor<1x512xi1>, tensor<1x512xf32> loc(#loc61)
    %tmp9 = "tt.reduce"(%tmp8) <{axis = 1 : i32}> ({
    ^bb0(%tmp9_18: f32 loc(callsite(#loc1 at #loc62)), %tmp9_19: f32 loc(callsite(#loc1 at #loc62))):
      %tmp9_20 = arith.addf %tmp9_18, %tmp9_19 : f32 loc(#loc82)
      tt.reduce.return %tmp9_20 : f32 loc(#loc78)
    }) : (tensor<1x512xf32>) -> tensor<1xf32> loc(#loc78)
    %tmp9_14 = tt.expand_dims %tmp9 {axis = 1 : i32} : tensor<1xf32> -> tensor<1x1xf32> loc(#loc63)
    %tmp12 = arith.divf %tmp9_14, %cst : tensor<1x1xf32> loc(#loc64)
    %tmp13 = tt.broadcast %tmp12 : tensor<1x1xf32> -> tensor<1x512xf32> loc(#loc65)
    %tmp13_15 = arith.subf %tmp2, %tmp13 : tensor<1x512xf32> loc(#loc65)
    %tmp14 = arith.mulf %tmp13_15, %tmp13_15 : tensor<1x512xf32> loc(#loc66)
    %tmp17 = arith.select %tmp0_6, %tmp14, %cst_0 : tensor<1x512xi1>, tensor<1x512xf32> loc(#loc67)
    %tmp18 = "tt.reduce"(%tmp17) <{axis = 1 : i32}> ({
    ^bb0(%tmp18_18: f32 loc(callsite(#loc1 at #loc68)), %tmp18_19: f32 loc(callsite(#loc1 at #loc68))):
      %tmp18_20 = arith.addf %tmp18_18, %tmp18_19 : f32 loc(#loc83)
      tt.reduce.return %tmp18_20 : f32 loc(#loc80)
    }) : (tensor<1x512xf32>) -> tensor<1xf32> loc(#loc80)
    %tmp18_16 = tt.expand_dims %tmp18 {axis = 1 : i32} : tensor<1xf32> -> tensor<1x1xf32> loc(#loc69)
    %tmp21 = arith.divf %tmp18_16, %cst : tensor<1x1xf32> loc(#loc70)
    %tmp23 = arith.addf %tmp21, %tmp22 : tensor<1x1xf32> loc(#loc71)
    %tmp24 = tt.extern_elementwise %tmp23 {libname = "", libpath = "", pure = true, symbol = "__nv_rsqrtf"} : (tensor<1x1xf32>) -> tensor<1x1xf32> loc(#loc72)
    %tmp25 = tt.broadcast %tmp24 : tensor<1x1xf32> -> tensor<1x512xf32> loc(#loc73)
    %tmp25_17 = arith.mulf %tmp13_15, %tmp25 : tensor<1x512xf32> loc(#loc73)
    %tmp27 = arith.mulf %tmp25_17, %tmp26_11 : tensor<1x512xf32> loc(#loc74)
    %tmp29 = arith.addf %tmp27, %tmp28_13 : tensor<1x512xf32> loc(#loc75)
    %0 = tt.splat %out_ptr2 : !tt.ptr<f32> -> tensor<1x512x!tt.ptr<f32>> loc(#loc35)
    %1 = tt.addptr %0, %tmp0_3 : tensor<1x512x!tt.ptr<f32>>, tensor<1x512xi32> loc(#loc35)
    tt.store %1, %tmp29, %tmp0_6 : tensor<1x512x!tt.ptr<f32>> loc(#loc36)
    tt.return loc(#loc37)
  } loc(#loc)
} loc(#loc)
#loc2 = loc("/root/Profiler/examples/transformer_stack/test_run/inductor_debug/c2/cc2egbnu6rjbzeq6r4dosaypmgyz5tlkspnq4uusvs5wuzybfqxq.py":55:35)
#loc3 = loc("/root/Profiler/examples/transformer_stack/test_run/inductor_debug/c2/cc2egbnu6rjbzeq6r4dosaypmgyz5tlkspnq4uusvs5wuzybfqxq.py":24:28)
#loc4 = loc("/root/Profiler/examples/transformer_stack/test_run/inductor_debug/c2/cc2egbnu6rjbzeq6r4dosaypmgyz5tlkspnq4uusvs5wuzybfqxq.py":26:21)
#loc5 = loc("/root/Profiler/examples/transformer_stack/test_run/inductor_debug/c2/cc2egbnu6rjbzeq6r4dosaypmgyz5tlkspnq4uusvs5wuzybfqxq.py":27:28)
#loc6 = loc("/root/Profiler/examples/transformer_stack/test_run/inductor_debug/c2/cc2egbnu6rjbzeq6r4dosaypmgyz5tlkspnq4uusvs5wuzybfqxq.py":27:38)
#loc7 = loc("/root/Profiler/examples/transformer_stack/test_run/inductor_debug/c2/cc2egbnu6rjbzeq6r4dosaypmgyz5tlkspnq4uusvs5wuzybfqxq.py":34:41)
#loc8 = loc("/root/Profiler/examples/transformer_stack/test_run/inductor_debug/c2/cc2egbnu6rjbzeq6r4dosaypmgyz5tlkspnq4uusvs5wuzybfqxq.py":34:37)
#loc9 = loc("/root/Profiler/examples/transformer_stack/test_run/inductor_debug/c2/cc2egbnu6rjbzeq6r4dosaypmgyz5tlkspnq4uusvs5wuzybfqxq.py":34:30)
#loc10 = loc("/root/Profiler/examples/transformer_stack/test_run/inductor_debug/c2/cc2egbnu6rjbzeq6r4dosaypmgyz5tlkspnq4uusvs5wuzybfqxq.py":34:46)
#loc11 = loc("/root/Profiler/examples/transformer_stack/test_run/inductor_debug/c2/cc2egbnu6rjbzeq6r4dosaypmgyz5tlkspnq4uusvs5wuzybfqxq.py":35:30)
#loc12 = loc("/root/Profiler/examples/transformer_stack/test_run/inductor_debug/c2/cc2egbnu6rjbzeq6r4dosaypmgyz5tlkspnq4uusvs5wuzybfqxq.py":35:46)
#loc13 = loc("/root/Profiler/examples/transformer_stack/test_run/inductor_debug/c2/cc2egbnu6rjbzeq6r4dosaypmgyz5tlkspnq4uusvs5wuzybfqxq.py":36:31)
#loc14 = loc("/root/Profiler/examples/transformer_stack/test_run/inductor_debug/c2/cc2egbnu6rjbzeq6r4dosaypmgyz5tlkspnq4uusvs5wuzybfqxq.py":36:38)
#loc15 = loc("/root/Profiler/examples/transformer_stack/test_run/inductor_debug/c2/cc2egbnu6rjbzeq6r4dosaypmgyz5tlkspnq4uusvs5wuzybfqxq.py":37:31)
#loc16 = loc("/root/Profiler/examples/transformer_stack/test_run/inductor_debug/c2/cc2egbnu6rjbzeq6r4dosaypmgyz5tlkspnq4uusvs5wuzybfqxq.py":37:38)
#loc17 = loc("/root/Profiler/examples/transformer_stack/test_run/inductor_debug/c2/cc2egbnu6rjbzeq6r4dosaypmgyz5tlkspnq4uusvs5wuzybfqxq.py":38:18)
#loc18 = loc("/root/Profiler/examples/transformer_stack/test_run/inductor_debug/c2/cc2egbnu6rjbzeq6r4dosaypmgyz5tlkspnq4uusvs5wuzybfqxq.py":42:33)
#loc19 = loc("/usr/local/lib/python3.10/dist-packages/triton/language/standard.py":293:36)
#loc21 = loc("/usr/local/lib/python3.10/dist-packages/triton/language/standard.py":263:15)
#loc22 = loc("/root/Profiler/examples/transformer_stack/test_run/inductor_debug/c2/cc2egbnu6rjbzeq6r4dosaypmgyz5tlkspnq4uusvs5wuzybfqxq.py":43:27)
#loc23 = loc("/root/Profiler/examples/transformer_stack/test_run/inductor_debug/c2/cc2egbnu6rjbzeq6r4dosaypmgyz5tlkspnq4uusvs5wuzybfqxq.py":46:20)
#loc24 = loc("/root/Profiler/examples/transformer_stack/test_run/inductor_debug/c2/cc2egbnu6rjbzeq6r4dosaypmgyz5tlkspnq4uusvs5wuzybfqxq.py":47:19)
#loc25 = loc("/root/Profiler/examples/transformer_stack/test_run/inductor_debug/c2/cc2egbnu6rjbzeq6r4dosaypmgyz5tlkspnq4uusvs5wuzybfqxq.py":48:20)
#loc26 = loc("/root/Profiler/examples/transformer_stack/test_run/inductor_debug/c2/cc2egbnu6rjbzeq6r4dosaypmgyz5tlkspnq4uusvs5wuzybfqxq.py":50:35)
#loc28 = loc("/root/Profiler/examples/transformer_stack/test_run/inductor_debug/c2/cc2egbnu6rjbzeq6r4dosaypmgyz5tlkspnq4uusvs5wuzybfqxq.py":51:29)
#loc29 = loc("/root/Profiler/examples/transformer_stack/test_run/inductor_debug/c2/cc2egbnu6rjbzeq6r4dosaypmgyz5tlkspnq4uusvs5wuzybfqxq.py":54:21)
#loc30 = loc("/root/Profiler/examples/transformer_stack/test_run/inductor_debug/c2/cc2egbnu6rjbzeq6r4dosaypmgyz5tlkspnq4uusvs5wuzybfqxq.py":56:20)
#loc31 = loc("/root/Profiler/examples/transformer_stack/test_run/inductor_debug/c2/cc2egbnu6rjbzeq6r4dosaypmgyz5tlkspnq4uusvs5wuzybfqxq.py":57:28)
#loc32 = loc("/root/Profiler/examples/transformer_stack/test_run/inductor_debug/c2/cc2egbnu6rjbzeq6r4dosaypmgyz5tlkspnq4uusvs5wuzybfqxq.py":58:20)
#loc33 = loc("/root/Profiler/examples/transformer_stack/test_run/inductor_debug/c2/cc2egbnu6rjbzeq6r4dosaypmgyz5tlkspnq4uusvs5wuzybfqxq.py":59:20)
#loc34 = loc("/root/Profiler/examples/transformer_stack/test_run/inductor_debug/c2/cc2egbnu6rjbzeq6r4dosaypmgyz5tlkspnq4uusvs5wuzybfqxq.py":60:20)
#loc35 = loc("/root/Profiler/examples/transformer_stack/test_run/inductor_debug/c2/cc2egbnu6rjbzeq6r4dosaypmgyz5tlkspnq4uusvs5wuzybfqxq.py":61:25)
#loc36 = loc("/root/Profiler/examples/transformer_stack/test_run/inductor_debug/c2/cc2egbnu6rjbzeq6r4dosaypmgyz5tlkspnq4uusvs5wuzybfqxq.py":61:48)
#loc37 = loc("/root/Profiler/examples/transformer_stack/test_run/inductor_debug/c2/cc2egbnu6rjbzeq6r4dosaypmgyz5tlkspnq4uusvs5wuzybfqxq.py":61:4)
#loc45 = loc("tmp22"(#loc2))
#loc46 = loc("xoffset"(#loc3))
#loc47 = loc("xmask"(#loc4))
#loc48 = loc("r0_index"(#loc5))
#loc49 = loc("r0_index"(#loc6))
#loc50 = loc("tmp0"(#loc7))
#loc51 = loc("tmp0"(#loc8))
#loc52 = loc("tmp0"(#loc9))
#loc53 = loc("tmp0"(#loc10))
#loc54 = loc("tmp1"(#loc11))
#loc55 = loc("tmp1"(#loc12))
#loc56 = loc("tmp26"(#loc13))
#loc57 = loc("tmp26"(#loc14))
#loc58 = loc("tmp28"(#loc15))
#loc59 = loc("tmp28"(#loc16))
#loc60 = loc("tmp2"(#loc17))
#loc61 = loc("tmp8"(#loc18))
#loc63 = loc("tmp9"(#loc22))
#loc64 = loc("tmp12"(#loc23))
#loc65 = loc("tmp13"(#loc24))
#loc66 = loc("tmp14"(#loc25))
#loc67 = loc("tmp17"(#loc26))
#loc69 = loc("tmp18"(#loc28))
#loc70 = loc("tmp21"(#loc29))
#loc71 = loc("tmp23"(#loc30))
#loc72 = loc("tmp24"(#loc31))
#loc73 = loc("tmp25"(#loc32))
#loc74 = loc("tmp27"(#loc33))
#loc75 = loc("tmp29"(#loc34))
#loc76 = loc(fused[#loc51, #loc50])
#loc77 = loc(fused[#loc53, #loc47])
#loc78 = loc(callsite(#loc19 at #loc62))
#loc80 = loc(callsite(#loc19 at #loc68))
#loc82 = loc(callsite(#loc21 at #loc78))
#loc83 = loc(callsite(#loc21 at #loc80))
