#loc = loc("/home/ubuntu/Profiler/examples/conv_block/profiler_output/conv_block_opt_inductor_debug/ca/ccagyt62buxzh6nf3wc34lk7orfh3zukwsp7tqcp6aewazf3gdzj.py":18:0)
#loc1 = loc(unknown)
#loc18 = loc("/home/ubuntu/Profiler/examples/conv_block/profiler_output/conv_block_opt_inductor_debug/ca/ccagyt62buxzh6nf3wc34lk7orfh3zukwsp7tqcp6aewazf3gdzj.py":38:24)
#loc26 = loc(callsite(#loc1 at #loc18))
module {
  tt.func public @triton_per_fused_add_convolution_div_max_pool2d_with_indices_mean_mul_neg_relu_sqrt_7(%arg0: !tt.ptr<f32> {tt.divisibility = 16 : i32} loc("/home/ubuntu/Profiler/examples/conv_block/profiler_output/conv_block_opt_inductor_debug/ca/ccagyt62buxzh6nf3wc34lk7orfh3zukwsp7tqcp6aewazf3gdzj.py":18:0), %arg1: !tt.ptr<bf16> {tt.divisibility = 16 : i32} loc("/home/ubuntu/Profiler/examples/conv_block/profiler_output/conv_block_opt_inductor_debug/ca/ccagyt62buxzh6nf3wc34lk7orfh3zukwsp7tqcp6aewazf3gdzj.py":18:0), %arg2: i32 {tt.divisibility = 16 : i32} loc("/home/ubuntu/Profiler/examples/conv_block/profiler_output/conv_block_opt_inductor_debug/ca/ccagyt62buxzh6nf3wc34lk7orfh3zukwsp7tqcp6aewazf3gdzj.py":18:0), %arg3: i32 loc("/home/ubuntu/Profiler/examples/conv_block/profiler_output/conv_block_opt_inductor_debug/ca/ccagyt62buxzh6nf3wc34lk7orfh3zukwsp7tqcp6aewazf3gdzj.py":18:0)) attributes {noinline = false} {
    %cst = arith.constant dense<1.024000e+03> : tensor<128x1xf32> loc(#loc1)
    %cst_0 = arith.constant dense<2048> : tensor<128x1xi32> loc(#loc1)
    %cst_1 = arith.constant dense<256> : tensor<1x8xi32> loc(#loc1)
    %cst_2 = arith.constant dense<256> : tensor<128x1xi32> loc(#loc1)
    %c128_i32 = arith.constant 128 : i32 loc(#loc1)
    %0 = tt.get_program_id x : i32 loc(#loc2)
    %1 = arith.muli %0, %c128_i32 : i32 loc(#loc3)
    %2 = tt.make_range {end = 128 : i32, start = 0 : i32} : tensor<128xi32> loc(#loc4)
    %3 = tt.expand_dims %2 {axis = 1 : i32} : tensor<128xi32> -> tensor<128x1xi32> loc(#loc5)
    %4 = tt.splat %1 : i32 -> tensor<128x1xi32> loc(#loc6)
    %5 = arith.addi %4, %3 : tensor<128x1xi32> loc(#loc6)
    %6 = tt.make_range {end = 8 : i32, start = 0 : i32} : tensor<8xi32> loc(#loc7)
    %7 = tt.expand_dims %6 {axis = 0 : i32} : tensor<8xi32> -> tensor<1x8xi32> loc(#loc8)
    %8 = arith.remsi %5, %cst_2 : tensor<128x1xi32> loc(#loc9)
    %9 = arith.divsi %5, %cst_2 : tensor<128x1xi32> loc(#loc10)
    %10 = arith.muli %7, %cst_1 : tensor<1x8xi32> loc(#loc11)
    %11 = tt.broadcast %8 : tensor<128x1xi32> -> tensor<128x8xi32> loc(#loc12)
    %12 = tt.broadcast %10 : tensor<1x8xi32> -> tensor<128x8xi32> loc(#loc12)
    %13 = arith.addi %11, %12 : tensor<128x8xi32> loc(#loc12)
    %14 = arith.muli %9, %cst_0 : tensor<128x1xi32> loc(#loc13)
    %15 = tt.broadcast %14 : tensor<128x1xi32> -> tensor<128x8xi32> loc(#loc14)
    %16 = arith.addi %13, %15 : tensor<128x8xi32> loc(#loc14)
    %17 = tt.splat %arg0 : !tt.ptr<f32> -> tensor<128x8x!tt.ptr<f32>> loc(#loc15)
    %18 = tt.addptr %17, %16 : tensor<128x8x!tt.ptr<f32>>, tensor<128x8xi32> loc(#loc15)
    %19 = tt.load %18 : tensor<128x8x!tt.ptr<f32>> loc(#loc16)
    %20 = "tt.reduce"(%19) <{axis = 1 : i32}> ({
    ^bb0(%arg4: f32 loc(callsite(#loc1 at #loc18)), %arg5: f32 loc(callsite(#loc1 at #loc18))):
      %26 = arith.addf %arg4, %arg5 : f32 loc(#loc28)
      tt.reduce.return %26 : f32 loc(#loc25)
    }) : (tensor<128x8xf32>) -> tensor<128xf32> loc(#loc25)
    %21 = tt.expand_dims %20 {axis = 1 : i32} : tensor<128xf32> -> tensor<128x1xf32> loc(#loc20)
    %22 = arith.divf %21, %cst : tensor<128x1xf32> loc(#loc21)
    %23 = tt.splat %arg1 : !tt.ptr<bf16> -> tensor<128x1x!tt.ptr<bf16>> loc(#loc22)
    %24 = tt.addptr %23, %5 : tensor<128x1x!tt.ptr<bf16>>, tensor<128x1xi32> loc(#loc22)
    %25 = arith.truncf %22 : tensor<128x1xf32> to tensor<128x1xbf16> loc(#loc23)
    tt.store %24, %25 : tensor<128x1x!tt.ptr<bf16>> loc(#loc23)
    tt.return loc(#loc24)
  } loc(#loc)
} loc(#loc)
#loc2 = loc("/home/ubuntu/Profiler/examples/conv_block/profiler_output/conv_block_opt_inductor_debug/ca/ccagyt62buxzh6nf3wc34lk7orfh3zukwsp7tqcp6aewazf3gdzj.py":24:28)
#loc3 = loc("/home/ubuntu/Profiler/examples/conv_block/profiler_output/conv_block_opt_inductor_debug/ca/ccagyt62buxzh6nf3wc34lk7orfh3zukwsp7tqcp6aewazf3gdzj.py":24:33)
#loc4 = loc("/home/ubuntu/Profiler/examples/conv_block/profiler_output/conv_block_opt_inductor_debug/ca/ccagyt62buxzh6nf3wc34lk7orfh3zukwsp7tqcp6aewazf3gdzj.py":25:36)
#loc5 = loc("/home/ubuntu/Profiler/examples/conv_block/profiler_output/conv_block_opt_inductor_debug/ca/ccagyt62buxzh6nf3wc34lk7orfh3zukwsp7tqcp6aewazf3gdzj.py":25:44)
#loc6 = loc("/home/ubuntu/Profiler/examples/conv_block/profiler_output/conv_block_opt_inductor_debug/ca/ccagyt62buxzh6nf3wc34lk7orfh3zukwsp7tqcp6aewazf3gdzj.py":25:23)
#loc7 = loc("/home/ubuntu/Profiler/examples/conv_block/profiler_output/conv_block_opt_inductor_debug/ca/ccagyt62buxzh6nf3wc34lk7orfh3zukwsp7tqcp6aewazf3gdzj.py":27:28)
#loc8 = loc("/home/ubuntu/Profiler/examples/conv_block/profiler_output/conv_block_opt_inductor_debug/ca/ccagyt62buxzh6nf3wc34lk7orfh3zukwsp7tqcp6aewazf3gdzj.py":27:38)
#loc9 = loc("/home/ubuntu/Profiler/examples/conv_block/profiler_output/conv_block_opt_inductor_debug/ca/ccagyt62buxzh6nf3wc34lk7orfh3zukwsp7tqcp6aewazf3gdzj.py":33:19)
#loc10 = loc("/home/ubuntu/Profiler/examples/conv_block/profiler_output/conv_block_opt_inductor_debug/ca/ccagyt62buxzh6nf3wc34lk7orfh3zukwsp7tqcp6aewazf3gdzj.py":34:19)
#loc11 = loc("/home/ubuntu/Profiler/examples/conv_block/profiler_output/conv_block_opt_inductor_debug/ca/ccagyt62buxzh6nf3wc34lk7orfh3zukwsp7tqcp6aewazf3gdzj.py":36:39)
#loc12 = loc("/home/ubuntu/Profiler/examples/conv_block/profiler_output/conv_block_opt_inductor_debug/ca/ccagyt62buxzh6nf3wc34lk7orfh3zukwsp7tqcp6aewazf3gdzj.py":36:35)
#loc13 = loc("/home/ubuntu/Profiler/examples/conv_block/profiler_output/conv_block_opt_inductor_debug/ca/ccagyt62buxzh6nf3wc34lk7orfh3zukwsp7tqcp6aewazf3gdzj.py":36:51)
#loc14 = loc("/home/ubuntu/Profiler/examples/conv_block/profiler_output/conv_block_opt_inductor_debug/ca/ccagyt62buxzh6nf3wc34lk7orfh3zukwsp7tqcp6aewazf3gdzj.py":36:46)
#loc15 = loc("/home/ubuntu/Profiler/examples/conv_block/profiler_output/conv_block_opt_inductor_debug/ca/ccagyt62buxzh6nf3wc34lk7orfh3zukwsp7tqcp6aewazf3gdzj.py":36:30)
#loc16 = loc("/home/ubuntu/Profiler/examples/conv_block/profiler_output/conv_block_opt_inductor_debug/ca/ccagyt62buxzh6nf3wc34lk7orfh3zukwsp7tqcp6aewazf3gdzj.py":36:56)
#loc17 = loc("/usr/lib/python3/dist-packages/triton/language/standard.py":286:36)
#loc19 = loc("/usr/lib/python3/dist-packages/triton/language/standard.py":256:15)
#loc20 = loc("/home/ubuntu/Profiler/examples/conv_block/profiler_output/conv_block_opt_inductor_debug/ca/ccagyt62buxzh6nf3wc34lk7orfh3zukwsp7tqcp6aewazf3gdzj.py":38:27)
#loc21 = loc("/home/ubuntu/Profiler/examples/conv_block/profiler_output/conv_block_opt_inductor_debug/ca/ccagyt62buxzh6nf3wc34lk7orfh3zukwsp7tqcp6aewazf3gdzj.py":40:19)
#loc22 = loc("/home/ubuntu/Profiler/examples/conv_block/profiler_output/conv_block_opt_inductor_debug/ca/ccagyt62buxzh6nf3wc34lk7orfh3zukwsp7tqcp6aewazf3gdzj.py":42:25)
#loc23 = loc("/home/ubuntu/Profiler/examples/conv_block/profiler_output/conv_block_opt_inductor_debug/ca/ccagyt62buxzh6nf3wc34lk7orfh3zukwsp7tqcp6aewazf3gdzj.py":42:36)
#loc24 = loc("/home/ubuntu/Profiler/examples/conv_block/profiler_output/conv_block_opt_inductor_debug/ca/ccagyt62buxzh6nf3wc34lk7orfh3zukwsp7tqcp6aewazf3gdzj.py":42:4)
#loc25 = loc(callsite(#loc17 at #loc18))
#loc27 = loc(callsite(#loc19 at #loc17))
#loc28 = loc(callsite(#loc27 at #loc18))
