#loc = loc("/root/Profiler/gpt2_optimized_inductor_debug/h7/ch7pitewebddyefiyz3t5u3omn274wqib3xhmtu5kmrqdwqc2kbq.py":18:0)
#loc25 = loc("in_ptr0"(#loc))
#loc26 = loc("in_ptr1"(#loc))
#loc27 = loc("in_ptr2"(#loc))
#loc28 = loc("out_ptr0"(#loc))
#loc29 = loc("ks0"(#loc))
#loc30 = loc("xnumel"(#loc))
module {
  tt.func public @triton_poi_fused_add_view_6(%in_ptr0: !tt.ptr<bf16> {tt.divisibility = 16 : i32} loc("in_ptr0"(#loc)), %in_ptr1: !tt.ptr<bf16> {tt.divisibility = 16 : i32} loc("in_ptr1"(#loc)), %in_ptr2: !tt.ptr<bf16> {tt.divisibility = 16 : i32} loc("in_ptr2"(#loc)), %out_ptr0: !tt.ptr<bf16> {tt.divisibility = 16 : i32} loc("out_ptr0"(#loc)), %ks0: i64 loc("ks0"(#loc)), %xnumel: i32 {tt.divisibility = 16 : i32} loc("xnumel"(#loc))) attributes {noinline = false} {
    %c768_i64 = arith.constant 768 : i64 loc(#loc1)
    %cst = arith.constant dense<98304> : tensor<512xi32> loc(#loc1)
    %c512_i32 = arith.constant 512 : i32 loc(#loc1)
    %xoffset = tt.get_program_id x : i32 loc(#loc31)
    %xoffset_0 = arith.muli %xoffset, %c512_i32 : i32 loc(#loc32)
    %xindex = tt.make_range {end = 512 : i32, start = 0 : i32} : tensor<512xi32> loc(#loc33)
    %xindex_1 = tt.splat %xoffset_0 : i32 -> tensor<512xi32> loc(#loc34)
    %xindex_2 = arith.addi %xindex_1, %xindex : tensor<512xi32> loc(#loc34)
    %x0 = arith.remsi %xindex_2, %cst : tensor<512xi32> loc(#loc35)
    %x1 = arith.divsi %xindex_2, %cst : tensor<512xi32> loc(#loc36)
    %tmp0 = tt.splat %in_ptr0 : !tt.ptr<bf16> -> tensor<512x!tt.ptr<bf16>> loc(#loc37)
    %tmp0_3 = tt.addptr %tmp0, %xindex_2 : tensor<512x!tt.ptr<bf16>>, tensor<512xi32> loc(#loc37)
    %tmp0_4 = tt.load %tmp0_3 : tensor<512x!tt.ptr<bf16>> loc(#loc38)
    %tmp0_5 = arith.extf %tmp0_4 : tensor<512xbf16> to tensor<512xf32> loc(#loc39)
    %tmp1 = arith.muli %ks0, %c768_i64 : i64 loc(#loc40)
    %tmp1_6 = arith.extsi %x1 : tensor<512xi32> to tensor<512xi64> loc(#loc41)
    %tmp1_7 = tt.splat %tmp1 : i64 -> tensor<512xi64> loc(#loc41)
    %tmp1_8 = arith.muli %tmp1_7, %tmp1_6 : tensor<512xi64> loc(#loc41)
    %tmp1_9 = arith.extsi %x0 : tensor<512xi32> to tensor<512xi64> loc(#loc42)
    %tmp1_10 = arith.addi %tmp1_9, %tmp1_8 : tensor<512xi64> loc(#loc42)
    %tmp1_11 = tt.splat %in_ptr1 : !tt.ptr<bf16> -> tensor<512x!tt.ptr<bf16>> loc(#loc43)
    %tmp1_12 = tt.addptr %tmp1_11, %tmp1_10 : tensor<512x!tt.ptr<bf16>>, tensor<512xi64> loc(#loc43)
    %tmp1_13 = tt.load %tmp1_12 : tensor<512x!tt.ptr<bf16>> loc(#loc44)
    %tmp1_14 = arith.extf %tmp1_13 : tensor<512xbf16> to tensor<512xf32> loc(#loc45)
    %tmp3 = tt.splat %in_ptr2 : !tt.ptr<bf16> -> tensor<512x!tt.ptr<bf16>> loc(#loc46)
    %tmp3_15 = tt.addptr %tmp3, %xindex_2 : tensor<512x!tt.ptr<bf16>>, tensor<512xi32> loc(#loc46)
    %tmp3_16 = tt.load %tmp3_15 : tensor<512x!tt.ptr<bf16>> loc(#loc47)
    %tmp3_17 = arith.extf %tmp3_16 : tensor<512xbf16> to tensor<512xf32> loc(#loc48)
    %tmp2 = arith.addf %tmp0_5, %tmp1_14 : tensor<512xf32> loc(#loc49)
    %tmp4 = arith.addf %tmp2, %tmp3_17 : tensor<512xf32> loc(#loc50)
    %0 = tt.splat %out_ptr0 : !tt.ptr<bf16> -> tensor<512x!tt.ptr<bf16>> loc(#loc22)
    %1 = tt.addptr %0, %tmp1_10 : tensor<512x!tt.ptr<bf16>>, tensor<512xi64> loc(#loc22)
    %2 = arith.truncf %tmp4 : tensor<512xf32> to tensor<512xbf16> loc(#loc23)
    tt.store %1, %2 : tensor<512x!tt.ptr<bf16>> loc(#loc23)
    tt.return loc(#loc24)
  } loc(#loc)
} loc(#loc)
#loc1 = loc(unknown)
#loc2 = loc("/root/Profiler/gpt2_optimized_inductor_debug/h7/ch7pitewebddyefiyz3t5u3omn274wqib3xhmtu5kmrqdwqc2kbq.py":20:28)
#loc3 = loc("/root/Profiler/gpt2_optimized_inductor_debug/h7/ch7pitewebddyefiyz3t5u3omn274wqib3xhmtu5kmrqdwqc2kbq.py":20:33)
#loc4 = loc("/root/Profiler/gpt2_optimized_inductor_debug/h7/ch7pitewebddyefiyz3t5u3omn274wqib3xhmtu5kmrqdwqc2kbq.py":21:36)
#loc5 = loc("/root/Profiler/gpt2_optimized_inductor_debug/h7/ch7pitewebddyefiyz3t5u3omn274wqib3xhmtu5kmrqdwqc2kbq.py":21:23)
#loc6 = loc("/root/Profiler/gpt2_optimized_inductor_debug/h7/ch7pitewebddyefiyz3t5u3omn274wqib3xhmtu5kmrqdwqc2kbq.py":24:19)
#loc7 = loc("/root/Profiler/gpt2_optimized_inductor_debug/h7/ch7pitewebddyefiyz3t5u3omn274wqib3xhmtu5kmrqdwqc2kbq.py":25:19)
#loc8 = loc("/root/Profiler/gpt2_optimized_inductor_debug/h7/ch7pitewebddyefiyz3t5u3omn274wqib3xhmtu5kmrqdwqc2kbq.py":26:30)
#loc9 = loc("/root/Profiler/gpt2_optimized_inductor_debug/h7/ch7pitewebddyefiyz3t5u3omn274wqib3xhmtu5kmrqdwqc2kbq.py":26:35)
#loc10 = loc("/root/Profiler/gpt2_optimized_inductor_debug/h7/ch7pitewebddyefiyz3t5u3omn274wqib3xhmtu5kmrqdwqc2kbq.py":26:44)
#loc11 = loc("/root/Profiler/gpt2_optimized_inductor_debug/h7/ch7pitewebddyefiyz3t5u3omn274wqib3xhmtu5kmrqdwqc2kbq.py":27:39)
#loc12 = loc("/root/Profiler/gpt2_optimized_inductor_debug/h7/ch7pitewebddyefiyz3t5u3omn274wqib3xhmtu5kmrqdwqc2kbq.py":27:43)
#loc13 = loc("/root/Profiler/gpt2_optimized_inductor_debug/h7/ch7pitewebddyefiyz3t5u3omn274wqib3xhmtu5kmrqdwqc2kbq.py":27:35)
#loc14 = loc("/root/Profiler/gpt2_optimized_inductor_debug/h7/ch7pitewebddyefiyz3t5u3omn274wqib3xhmtu5kmrqdwqc2kbq.py":27:30)
#loc15 = loc("/root/Profiler/gpt2_optimized_inductor_debug/h7/ch7pitewebddyefiyz3t5u3omn274wqib3xhmtu5kmrqdwqc2kbq.py":27:48)
#loc16 = loc("/root/Profiler/gpt2_optimized_inductor_debug/h7/ch7pitewebddyefiyz3t5u3omn274wqib3xhmtu5kmrqdwqc2kbq.py":27:57)
#loc17 = loc("/root/Profiler/gpt2_optimized_inductor_debug/h7/ch7pitewebddyefiyz3t5u3omn274wqib3xhmtu5kmrqdwqc2kbq.py":28:30)
#loc18 = loc("/root/Profiler/gpt2_optimized_inductor_debug/h7/ch7pitewebddyefiyz3t5u3omn274wqib3xhmtu5kmrqdwqc2kbq.py":28:35)
#loc19 = loc("/root/Profiler/gpt2_optimized_inductor_debug/h7/ch7pitewebddyefiyz3t5u3omn274wqib3xhmtu5kmrqdwqc2kbq.py":28:44)
#loc20 = loc("/root/Profiler/gpt2_optimized_inductor_debug/h7/ch7pitewebddyefiyz3t5u3omn274wqib3xhmtu5kmrqdwqc2kbq.py":29:18)
#loc21 = loc("/root/Profiler/gpt2_optimized_inductor_debug/h7/ch7pitewebddyefiyz3t5u3omn274wqib3xhmtu5kmrqdwqc2kbq.py":30:18)
#loc22 = loc("/root/Profiler/gpt2_optimized_inductor_debug/h7/ch7pitewebddyefiyz3t5u3omn274wqib3xhmtu5kmrqdwqc2kbq.py":31:25)
#loc23 = loc("/root/Profiler/gpt2_optimized_inductor_debug/h7/ch7pitewebddyefiyz3t5u3omn274wqib3xhmtu5kmrqdwqc2kbq.py":31:49)
#loc24 = loc("/root/Profiler/gpt2_optimized_inductor_debug/h7/ch7pitewebddyefiyz3t5u3omn274wqib3xhmtu5kmrqdwqc2kbq.py":31:4)
#loc31 = loc("xoffset"(#loc2))
#loc32 = loc("xoffset"(#loc3))
#loc33 = loc("xindex"(#loc4))
#loc34 = loc("xindex"(#loc5))
#loc35 = loc("x0"(#loc6))
#loc36 = loc("x1"(#loc7))
#loc37 = loc("tmp0"(#loc8))
#loc38 = loc("tmp0"(#loc9))
#loc39 = loc("tmp0"(#loc10))
#loc40 = loc("tmp1"(#loc11))
#loc41 = loc("tmp1"(#loc12))
#loc42 = loc("tmp1"(#loc13))
#loc43 = loc("tmp1"(#loc14))
#loc44 = loc("tmp1"(#loc15))
#loc45 = loc("tmp1"(#loc16))
#loc46 = loc("tmp3"(#loc17))
#loc47 = loc("tmp3"(#loc18))
#loc48 = loc("tmp3"(#loc19))
#loc49 = loc("tmp2"(#loc20))
#loc50 = loc("tmp4"(#loc21))
