#loc = loc("/root/Profiler/gpt2_optimized_inductor_debug/eb/ceblw7keuiebtanowq6x4jc6bom6zeg4wvrakfazb76s4j6swsyh.py":18:0)
#loc18 = loc("in_ptr0"(#loc))
#loc19 = loc("out_ptr0"(#loc))
#loc20 = loc("xnumel"(#loc))
module {
  tt.func public @triton_poi_fused__scaled_dot_product_efficient_attention_cat_constant_pad_nd_expand_scalar_tensor_slice_split_transpose_view_where_1(%in_ptr0: !tt.ptr<bf16> {tt.divisibility = 16 : i32} loc("in_ptr0"(#loc)), %out_ptr0: !tt.ptr<bf16> {tt.divisibility = 16 : i32} loc("out_ptr0"(#loc)), %xnumel: i32 {tt.divisibility = 16 : i32} loc("xnumel"(#loc))) attributes {noinline = false} {
    %xnumel_0 = arith.constant 393216 : i32 loc(#loc21)
    %xoffset = tt.get_program_id x : i32 loc(#loc22)
    %xoffset_1 = arith.constant 1024 : i32 loc(#loc23)
    %xoffset_2 = arith.constant 1024 : i32 loc(#loc23)
    %xoffset_3 = arith.muli %xoffset, %xoffset_2 : i32 loc(#loc23)
    %xindex = tt.make_range {end = 1024 : i32, start = 0 : i32} : tensor<1024xi32> loc(#loc24)
    %xindex_4 = tt.splat %xoffset_3 : i32 -> tensor<1024xi32> loc(#loc25)
    %xindex_5 = arith.addi %xindex_4, %xindex : tensor<1024xi32> loc(#loc25)
    %xmask = arith.constant true loc(#loc26)
    %xmask_6 = arith.constant dense<true> : tensor<1024xi1> loc(#loc26)
    %x0 = arith.constant 768 : i32 loc(#loc27)
    %x0_7 = arith.constant 768 : i32 loc(#loc27)
    %x0_8 = arith.constant dense<768> : tensor<1024xi32> loc(#loc27)
    %x0_9 = arith.remsi %xindex_5, %x0_8 : tensor<1024xi32> loc(#loc27)
    %x1 = arith.constant 768 : i32 loc(#loc28)
    %x1_10 = arith.constant 768 : i32 loc(#loc28)
    %x1_11 = arith.constant dense<768> : tensor<1024xi32> loc(#loc28)
    %x1_12 = arith.divsi %xindex_5, %x1_11 : tensor<1024xi32> loc(#loc28)
    %tmp0 = arith.constant 768 : i32 loc(#loc29)
    %tmp0_13 = arith.constant 768 : i32 loc(#loc29)
    %tmp0_14 = arith.constant dense<768> : tensor<1024xi32> loc(#loc29)
    %tmp0_15 = arith.addi %tmp0_14, %x0_9 : tensor<1024xi32> loc(#loc29)
    %tmp0_16 = arith.constant 2304 : i32 loc(#loc30)
    %tmp0_17 = arith.constant 2304 : i32 loc(#loc30)
    %tmp0_18 = arith.constant dense<2304> : tensor<1024xi32> loc(#loc30)
    %tmp0_19 = arith.muli %tmp0_18, %x1_12 : tensor<1024xi32> loc(#loc30)
    %tmp0_20 = arith.addi %tmp0_15, %tmp0_19 : tensor<1024xi32> loc(#loc31)
    %tmp0_21 = tt.splat %in_ptr0 : !tt.ptr<bf16> -> tensor<1024x!tt.ptr<bf16>> loc(#loc32)
    %tmp0_22 = tt.addptr %tmp0_21, %tmp0_20 : tensor<1024x!tt.ptr<bf16>>, tensor<1024xi32> loc(#loc32)
    %tmp0_23 = tt.load %tmp0_22 : tensor<1024x!tt.ptr<bf16>> loc(#loc33)
    %tmp0_24 = arith.extf %tmp0_23 : tensor<1024xbf16> to tensor<1024xf32> loc(#loc34)
    %0 = tt.splat %out_ptr0 : !tt.ptr<bf16> -> tensor<1024x!tt.ptr<bf16>> loc(#loc15)
    %1 = tt.addptr %0, %xindex_5 : tensor<1024x!tt.ptr<bf16>>, tensor<1024xi32> loc(#loc15)
    %2 = arith.truncf %tmp0_24 : tensor<1024xf32> to tensor<1024xbf16> loc(#loc16)
    tt.store %1, %2 : tensor<1024x!tt.ptr<bf16>> loc(#loc16)
    tt.return loc(#loc17)
  } loc(#loc)
} loc(#loc)
#loc1 = loc("/root/Profiler/gpt2_optimized_inductor_debug/eb/ceblw7keuiebtanowq6x4jc6bom6zeg4wvrakfazb76s4j6swsyh.py":19:13)
#loc2 = loc("/root/Profiler/gpt2_optimized_inductor_debug/eb/ceblw7keuiebtanowq6x4jc6bom6zeg4wvrakfazb76s4j6swsyh.py":20:28)
#loc3 = loc("/root/Profiler/gpt2_optimized_inductor_debug/eb/ceblw7keuiebtanowq6x4jc6bom6zeg4wvrakfazb76s4j6swsyh.py":20:33)
#loc4 = loc("/root/Profiler/gpt2_optimized_inductor_debug/eb/ceblw7keuiebtanowq6x4jc6bom6zeg4wvrakfazb76s4j6swsyh.py":21:36)
#loc5 = loc("/root/Profiler/gpt2_optimized_inductor_debug/eb/ceblw7keuiebtanowq6x4jc6bom6zeg4wvrakfazb76s4j6swsyh.py":21:23)
#loc6 = loc("/root/Profiler/gpt2_optimized_inductor_debug/eb/ceblw7keuiebtanowq6x4jc6bom6zeg4wvrakfazb76s4j6swsyh.py":22:36)
#loc7 = loc("/root/Profiler/gpt2_optimized_inductor_debug/eb/ceblw7keuiebtanowq6x4jc6bom6zeg4wvrakfazb76s4j6swsyh.py":23:19)
#loc8 = loc("/root/Profiler/gpt2_optimized_inductor_debug/eb/ceblw7keuiebtanowq6x4jc6bom6zeg4wvrakfazb76s4j6swsyh.py":24:19)
#loc9 = loc("/root/Profiler/gpt2_optimized_inductor_debug/eb/ceblw7keuiebtanowq6x4jc6bom6zeg4wvrakfazb76s4j6swsyh.py":26:36)
#loc10 = loc("/root/Profiler/gpt2_optimized_inductor_debug/eb/ceblw7keuiebtanowq6x4jc6bom6zeg4wvrakfazb76s4j6swsyh.py":26:46)
#loc11 = loc("/root/Profiler/gpt2_optimized_inductor_debug/eb/ceblw7keuiebtanowq6x4jc6bom6zeg4wvrakfazb76s4j6swsyh.py":26:41)
#loc12 = loc("/root/Profiler/gpt2_optimized_inductor_debug/eb/ceblw7keuiebtanowq6x4jc6bom6zeg4wvrakfazb76s4j6swsyh.py":26:30)
#loc13 = loc("/root/Profiler/gpt2_optimized_inductor_debug/eb/ceblw7keuiebtanowq6x4jc6bom6zeg4wvrakfazb76s4j6swsyh.py":26:51)
#loc14 = loc("/root/Profiler/gpt2_optimized_inductor_debug/eb/ceblw7keuiebtanowq6x4jc6bom6zeg4wvrakfazb76s4j6swsyh.py":26:60)
#loc15 = loc("/root/Profiler/gpt2_optimized_inductor_debug/eb/ceblw7keuiebtanowq6x4jc6bom6zeg4wvrakfazb76s4j6swsyh.py":27:25)
#loc16 = loc("/root/Profiler/gpt2_optimized_inductor_debug/eb/ceblw7keuiebtanowq6x4jc6bom6zeg4wvrakfazb76s4j6swsyh.py":27:36)
#loc17 = loc("/root/Profiler/gpt2_optimized_inductor_debug/eb/ceblw7keuiebtanowq6x4jc6bom6zeg4wvrakfazb76s4j6swsyh.py":27:4)
#loc21 = loc("xnumel"(#loc1))
#loc22 = loc("xoffset"(#loc2))
#loc23 = loc("xoffset"(#loc3))
#loc24 = loc("xindex"(#loc4))
#loc25 = loc("xindex"(#loc5))
#loc26 = loc("xmask"(#loc6))
#loc27 = loc("x0"(#loc7))
#loc28 = loc("x1"(#loc8))
#loc29 = loc("tmp0"(#loc9))
#loc30 = loc("tmp0"(#loc10))
#loc31 = loc("tmp0"(#loc11))
#loc32 = loc("tmp0"(#loc12))
#loc33 = loc("tmp0"(#loc13))
#loc34 = loc("tmp0"(#loc14))
