#loc = loc("/root/Profiler/examples/transformer_stack/test_run/inductor_debug/fs/cfshh6phwugwyf4qrinxpgd5rm4xqklkymwcyun6cdz3fsi4se74.py":18:0)
#loc2 = loc(unknown)
#loc15 = loc("/root/Profiler/examples/transformer_stack/test_run/inductor_debug/fs/cfshh6phwugwyf4qrinxpgd5rm4xqklkymwcyun6cdz3fsi4se74.py":38:37)
#loc24 = loc("/root/Profiler/examples/transformer_stack/test_run/inductor_debug/fs/cfshh6phwugwyf4qrinxpgd5rm4xqklkymwcyun6cdz3fsi4se74.py":44:26)
#loc30 = loc("in_out_ptr0"(#loc))
#loc31 = loc("xnumel"(#loc))
#loc32 = loc("r0_numel"(#loc))
#loc45 = loc("tmp5"(#loc15))
#loc52 = loc("tmp12"(#loc24))
#loc56 = loc(callsite(#loc2 at #loc45))
#loc60 = loc(callsite(#loc2 at #loc52))
module {
  tt.func public @triton_per_fused__softmax_amax_mul_sub_view_3(%in_out_ptr0: !tt.ptr<f32> {tt.divisibility = 16 : i32} loc("in_out_ptr0"(#loc)), %xnumel: i32 {tt.divisibility = 16 : i32} loc("xnumel"(#loc)), %r0_numel: i32 {tt.divisibility = 16 : i32} loc("r0_numel"(#loc))) attributes {noinline = false} {
    %tmp8 = arith.constant dense<1.250000e-01> : tensor<32x128xf32> loc(#loc33)
    %cst = arith.constant dense<128> : tensor<32x1xi32> loc(#loc2)
    %c32_i32 = arith.constant 32 : i32 loc(#loc2)
    %xoffset = tt.get_program_id x : i32 loc(#loc34)
    %xoffset_0 = arith.muli %xoffset, %c32_i32 : i32 loc(#loc35)
    %xindex = tt.make_range {end = 32 : i32, start = 0 : i32} : tensor<32xi32> loc(#loc36)
    %xindex_1 = tt.expand_dims %xindex {axis = 1 : i32} : tensor<32xi32> -> tensor<32x1xi32> loc(#loc37)
    %xindex_2 = tt.splat %xoffset_0 : i32 -> tensor<32x1xi32> loc(#loc38)
    %xindex_3 = arith.addi %xindex_2, %xindex_1 : tensor<32x1xi32> loc(#loc38)
    %r0_index = tt.make_range {end = 128 : i32, start = 0 : i32} : tensor<128xi32> loc(#loc39)
    %r0_index_4 = tt.expand_dims %r0_index {axis = 0 : i32} : tensor<128xi32> -> tensor<1x128xi32> loc(#loc40)
    %tmp0 = arith.muli %xindex_3, %cst : tensor<32x1xi32> loc(#loc41)
    %tmp0_5 = tt.broadcast %r0_index_4 : tensor<1x128xi32> -> tensor<32x128xi32> loc(#loc42)
    %tmp0_6 = tt.broadcast %tmp0 : tensor<32x1xi32> -> tensor<32x128xi32> loc(#loc42)
    %tmp0_7 = arith.addi %tmp0_5, %tmp0_6 : tensor<32x128xi32> loc(#loc42)
    %tmp0_8 = tt.splat %in_out_ptr0 : !tt.ptr<f32> -> tensor<32x128x!tt.ptr<f32>> loc(#loc43)
    %tmp0_9 = tt.addptr %tmp0_8, %tmp0_7 : tensor<32x128x!tt.ptr<f32>>, tensor<32x128xi32> loc(#loc43)
    %tmp0_10 = tt.load %tmp0_9 : tensor<32x128x!tt.ptr<f32>> loc(#loc44)
    %tmp5 = "tt.reduce"(%tmp0_10) <{axis = 1 : i32}> ({
    ^bb0(%tmp5_16: f32 loc(callsite(#loc2 at #loc45)), %tmp5_17: f32 loc(callsite(#loc2 at #loc45))):
      %mask = arith.cmpf ogt, %tmp5_16, %tmp5_17 : f32 loc(#loc61)
      %mask_18 = arith.cmpf une, %tmp5_16, %tmp5_16 : f32 loc(#loc62)
      %mask_19 = arith.ori %mask, %mask_18 : i1 loc(#loc63)
      %tmp5_20 = arith.select %mask_19, %tmp5_16, %tmp5_17 : f32 loc(#loc64)
      tt.reduce.return %tmp5_20 : f32 loc(#loc55)
    }) : (tensor<32x128xf32>) -> tensor<32xf32> loc(#loc55)
    %tmp5_11 = tt.expand_dims %tmp5 {axis = 1 : i32} : tensor<32xf32> -> tensor<32x1xf32> loc(#loc49)
    %tmp6 = tt.broadcast %tmp5_11 : tensor<32x1xf32> -> tensor<32x128xf32> loc(#loc50)
    %tmp6_12 = arith.subf %tmp0_10, %tmp6 : tensor<32x128xf32> loc(#loc50)
    %tmp8_13 = arith.mulf %tmp6_12, %tmp8 : tensor<32x128xf32> loc(#loc33)
    %tmp9 = tt.extern_elementwise %tmp8_13 {libname = "", libpath = "", pure = true, symbol = "__nv_expf"} : (tensor<32x128xf32>) -> tensor<32x128xf32> loc(#loc51)
    %tmp12 = "tt.reduce"(%tmp9) <{axis = 1 : i32}> ({
    ^bb0(%tmp12_16: f32 loc(callsite(#loc2 at #loc52)), %tmp12_17: f32 loc(callsite(#loc2 at #loc52))):
      %tmp12_18 = arith.addf %tmp12_16, %tmp12_17 : f32 loc(#loc65)
      tt.reduce.return %tmp12_18 : f32 loc(#loc59)
    }) : (tensor<32x128xf32>) -> tensor<32xf32> loc(#loc59)
    %tmp12_14 = tt.expand_dims %tmp12 {axis = 1 : i32} : tensor<32xf32> -> tensor<32x1xf32> loc(#loc53)
    %tmp13 = tt.broadcast %tmp12_14 : tensor<32x1xf32> -> tensor<32x128xf32> loc(#loc54)
    %tmp13_15 = arith.divf %tmp9, %tmp13 : tensor<32x128xf32> loc(#loc54)
    tt.store %tmp0_9, %tmp13_15 : tensor<32x128x!tt.ptr<f32>> loc(#loc28)
    tt.return loc(#loc29)
  } loc(#loc)
} loc(#loc)
#loc1 = loc("/root/Profiler/examples/transformer_stack/test_run/inductor_debug/fs/cfshh6phwugwyf4qrinxpgd5rm4xqklkymwcyun6cdz3fsi4se74.py":41:18)
#loc3 = loc("/root/Profiler/examples/transformer_stack/test_run/inductor_debug/fs/cfshh6phwugwyf4qrinxpgd5rm4xqklkymwcyun6cdz3fsi4se74.py":24:28)
#loc4 = loc("/root/Profiler/examples/transformer_stack/test_run/inductor_debug/fs/cfshh6phwugwyf4qrinxpgd5rm4xqklkymwcyun6cdz3fsi4se74.py":24:33)
#loc5 = loc("/root/Profiler/examples/transformer_stack/test_run/inductor_debug/fs/cfshh6phwugwyf4qrinxpgd5rm4xqklkymwcyun6cdz3fsi4se74.py":25:36)
#loc6 = loc("/root/Profiler/examples/transformer_stack/test_run/inductor_debug/fs/cfshh6phwugwyf4qrinxpgd5rm4xqklkymwcyun6cdz3fsi4se74.py":25:44)
#loc7 = loc("/root/Profiler/examples/transformer_stack/test_run/inductor_debug/fs/cfshh6phwugwyf4qrinxpgd5rm4xqklkymwcyun6cdz3fsi4se74.py":25:23)
#loc8 = loc("/root/Profiler/examples/transformer_stack/test_run/inductor_debug/fs/cfshh6phwugwyf4qrinxpgd5rm4xqklkymwcyun6cdz3fsi4se74.py":27:28)
#loc9 = loc("/root/Profiler/examples/transformer_stack/test_run/inductor_debug/fs/cfshh6phwugwyf4qrinxpgd5rm4xqklkymwcyun6cdz3fsi4se74.py":27:38)
#loc10 = loc("/root/Profiler/examples/transformer_stack/test_run/inductor_debug/fs/cfshh6phwugwyf4qrinxpgd5rm4xqklkymwcyun6cdz3fsi4se74.py":34:45)
#loc11 = loc("/root/Profiler/examples/transformer_stack/test_run/inductor_debug/fs/cfshh6phwugwyf4qrinxpgd5rm4xqklkymwcyun6cdz3fsi4se74.py":34:41)
#loc12 = loc("/root/Profiler/examples/transformer_stack/test_run/inductor_debug/fs/cfshh6phwugwyf4qrinxpgd5rm4xqklkymwcyun6cdz3fsi4se74.py":34:34)
#loc13 = loc("/root/Profiler/examples/transformer_stack/test_run/inductor_debug/fs/cfshh6phwugwyf4qrinxpgd5rm4xqklkymwcyun6cdz3fsi4se74.py":34:50)
#loc14 = loc("/usr/local/lib/python3.10/dist-packages/torch/_inductor/runtime/triton_helpers.py":129:29)
#loc16 = loc("/usr/local/lib/python3.10/dist-packages/torch/_inductor/runtime/triton_helpers.py":116:15)
#loc17 = loc("/usr/local/lib/python3.10/dist-packages/torch/_inductor/runtime/triton_helpers.py":118:21)
#loc18 = loc("/usr/local/lib/python3.10/dist-packages/torch/_inductor/runtime/triton_helpers.py":118:16)
#loc19 = loc("/usr/local/lib/python3.10/dist-packages/torch/_inductor/runtime/triton_helpers.py":119:29)
#loc20 = loc("/root/Profiler/examples/transformer_stack/test_run/inductor_debug/fs/cfshh6phwugwyf4qrinxpgd5rm4xqklkymwcyun6cdz3fsi4se74.py":38:40)
#loc21 = loc("/root/Profiler/examples/transformer_stack/test_run/inductor_debug/fs/cfshh6phwugwyf4qrinxpgd5rm4xqklkymwcyun6cdz3fsi4se74.py":39:18)
#loc22 = loc("/root/Profiler/examples/transformer_stack/test_run/inductor_debug/fs/cfshh6phwugwyf4qrinxpgd5rm4xqklkymwcyun6cdz3fsi4se74.py":42:25)
#loc23 = loc("/usr/local/lib/python3.10/dist-packages/triton/language/standard.py":293:36)
#loc25 = loc("/usr/local/lib/python3.10/dist-packages/triton/language/standard.py":263:15)
#loc26 = loc("/root/Profiler/examples/transformer_stack/test_run/inductor_debug/fs/cfshh6phwugwyf4qrinxpgd5rm4xqklkymwcyun6cdz3fsi4se74.py":44:29)
#loc27 = loc("/root/Profiler/examples/transformer_stack/test_run/inductor_debug/fs/cfshh6phwugwyf4qrinxpgd5rm4xqklkymwcyun6cdz3fsi4se74.py":45:20)
#loc28 = loc("/root/Profiler/examples/transformer_stack/test_run/inductor_debug/fs/cfshh6phwugwyf4qrinxpgd5rm4xqklkymwcyun6cdz3fsi4se74.py":46:51)
#loc29 = loc("/root/Profiler/examples/transformer_stack/test_run/inductor_debug/fs/cfshh6phwugwyf4qrinxpgd5rm4xqklkymwcyun6cdz3fsi4se74.py":46:4)
#loc33 = loc("tmp8"(#loc1))
#loc34 = loc("xoffset"(#loc3))
#loc35 = loc("xoffset"(#loc4))
#loc36 = loc("xindex"(#loc5))
#loc37 = loc("xindex"(#loc6))
#loc38 = loc("xindex"(#loc7))
#loc39 = loc("r0_index"(#loc8))
#loc40 = loc("r0_index"(#loc9))
#loc41 = loc("tmp0"(#loc10))
#loc42 = loc("tmp0"(#loc11))
#loc43 = loc("tmp0"(#loc12))
#loc44 = loc("tmp0"(#loc13))
#loc46 = loc("mask"(#loc16))
#loc47 = loc("mask"(#loc17))
#loc48 = loc("mask"(#loc18))
#loc49 = loc("tmp5"(#loc20))
#loc50 = loc("tmp6"(#loc21))
#loc51 = loc("tmp9"(#loc22))
#loc53 = loc("tmp12"(#loc26))
#loc54 = loc("tmp13"(#loc27))
#loc55 = loc(callsite(#loc14 at #loc45))
#loc57 = loc("mask"(#loc46))
#loc58 = loc("mask"(#loc48))
#loc59 = loc(callsite(#loc23 at #loc52))
#loc61 = loc(callsite(#loc57 at #loc55))
#loc62 = loc(callsite(#loc47 at #loc55))
#loc63 = loc(callsite(#loc58 at #loc55))
#loc64 = loc(callsite(#loc19 at #loc55))
#loc65 = loc(callsite(#loc25 at #loc59))
