#loc = loc("/root/Profiler/examples/sdpa_attention/test_run/inductor_debug_opt/a3/ca3f5zu47tnhngq34v7kdbkqugdymbde47befinwbhgutafu2mfd.py":18:0)
#loc1 = loc(unknown)
#loc22 = loc("/root/Profiler/examples/sdpa_attention/test_run/inductor_debug_opt/a3/ca3f5zu47tnhngq34v7kdbkqugdymbde47befinwbhgutafu2mfd.py":42:24)
#loc28 = loc("/root/Profiler/examples/sdpa_attention/test_run/inductor_debug_opt/a3/ca3f5zu47tnhngq34v7kdbkqugdymbde47befinwbhgutafu2mfd.py":49:26)
#loc38 = loc("in_out_ptr0"(#loc))
#loc39 = loc("in_ptr0"(#loc))
#loc40 = loc("in_ptr1"(#loc))
#loc41 = loc("in_ptr2"(#loc))
#loc42 = loc("xnumel"(#loc))
#loc43 = loc("r0_numel"(#loc))
#loc63 = loc("tmp8"(#loc22))
#loc68 = loc("tmp16"(#loc28))
#loc78 = loc(callsite(#loc1 at #loc63))
#loc80 = loc(callsite(#loc1 at #loc68))
module {
  tt.func public @triton_per_fused__unsafe_view_add_native_layer_norm_3(%in_out_ptr0: !tt.ptr<bf16> {tt.divisibility = 16 : i32} loc("in_out_ptr0"(#loc)), %in_ptr0: !tt.ptr<bf16> {tt.divisibility = 16 : i32} loc("in_ptr0"(#loc)), %in_ptr1: !tt.ptr<bf16> {tt.divisibility = 16 : i32} loc("in_ptr1"(#loc)), %in_ptr2: !tt.ptr<bf16> {tt.divisibility = 16 : i32} loc("in_ptr2"(#loc)), %xnumel: i32 {tt.divisibility = 16 : i32} loc("xnumel"(#loc)), %r0_numel: i32 {tt.divisibility = 16 : i32} loc("r0_numel"(#loc))) attributes {noinline = false} {
    %c512_i32 = arith.constant 512 : i32 loc(#loc1)
    %tmp20 = arith.constant dense<9.99999974E-6> : tensor<1x1xf32> loc(#loc44)
    %cst = arith.constant dense<5.120000e+02> : tensor<1x1xf32> loc(#loc1)
    %xoffset = tt.get_program_id x : i32 loc(#loc45)
    %r0_index = tt.make_range {end = 512 : i32, start = 0 : i32} : tensor<512xi32> loc(#loc46)
    %r0_index_0 = tt.expand_dims %r0_index {axis = 0 : i32} : tensor<512xi32> -> tensor<1x512xi32> loc(#loc47)
    %tmp0 = arith.muli %xoffset, %c512_i32 : i32 loc(#loc48)
    %tmp0_1 = tt.splat %tmp0 : i32 -> tensor<1x512xi32> loc(#loc76)
    %tmp0_2 = arith.addi %r0_index_0, %tmp0_1 : tensor<1x512xi32> loc(#loc49)
    %tmp0_3 = tt.splat %in_out_ptr0 : !tt.ptr<bf16> -> tensor<1x512x!tt.ptr<bf16>> loc(#loc50)
    %tmp0_4 = tt.addptr %tmp0_3, %tmp0_2 : tensor<1x512x!tt.ptr<bf16>>, tensor<1x512xi32> loc(#loc50)
    %tmp0_5 = tt.load %tmp0_4 : tensor<1x512x!tt.ptr<bf16>> loc(#loc51)
    %tmp0_6 = arith.extf %tmp0_5 : tensor<1x512xbf16> to tensor<1x512xf32> loc(#loc52)
    %tmp1 = tt.splat %in_ptr0 : !tt.ptr<bf16> -> tensor<1x512x!tt.ptr<bf16>> loc(#loc53)
    %tmp1_7 = tt.addptr %tmp1, %tmp0_2 : tensor<1x512x!tt.ptr<bf16>>, tensor<1x512xi32> loc(#loc53)
    %tmp1_8 = tt.load %tmp1_7 : tensor<1x512x!tt.ptr<bf16>> loc(#loc54)
    %tmp1_9 = arith.extf %tmp1_8 : tensor<1x512xbf16> to tensor<1x512xf32> loc(#loc55)
    %tmp24 = tt.splat %in_ptr1 : !tt.ptr<bf16> -> tensor<1x512x!tt.ptr<bf16>> loc(#loc56)
    %tmp24_10 = tt.addptr %tmp24, %r0_index_0 : tensor<1x512x!tt.ptr<bf16>>, tensor<1x512xi32> loc(#loc56)
    %tmp24_11 = tt.load %tmp24_10 evictionPolicy = evict_last : tensor<1x512x!tt.ptr<bf16>> loc(#loc57)
    %tmp24_12 = arith.extf %tmp24_11 : tensor<1x512xbf16> to tensor<1x512xf32> loc(#loc58)
    %tmp27 = tt.splat %in_ptr2 : !tt.ptr<bf16> -> tensor<1x512x!tt.ptr<bf16>> loc(#loc59)
    %tmp27_13 = tt.addptr %tmp27, %r0_index_0 : tensor<1x512x!tt.ptr<bf16>>, tensor<1x512xi32> loc(#loc59)
    %tmp27_14 = tt.load %tmp27_13 evictionPolicy = evict_last : tensor<1x512x!tt.ptr<bf16>> loc(#loc60)
    %tmp27_15 = arith.extf %tmp27_14 : tensor<1x512xbf16> to tensor<1x512xf32> loc(#loc61)
    %tmp2 = arith.addf %tmp0_6, %tmp1_9 : tensor<1x512xf32> loc(#loc62)
    %tmp8 = "tt.reduce"(%tmp2) <{axis = 1 : i32}> ({
    ^bb0(%tmp8_20: f32 loc(callsite(#loc1 at #loc63)), %tmp8_21: f32 loc(callsite(#loc1 at #loc63))):
      %tmp8_22 = arith.addf %tmp8_20, %tmp8_21 : f32 loc(#loc81)
      tt.reduce.return %tmp8_22 : f32 loc(#loc77)
    }) : (tensor<1x512xf32>) -> tensor<1xf32> loc(#loc77)
    %tmp8_16 = tt.expand_dims %tmp8 {axis = 1 : i32} : tensor<1xf32> -> tensor<1x1xf32> loc(#loc64)
    %tmp11 = arith.divf %tmp8_16, %cst : tensor<1x1xf32> loc(#loc65)
    %tmp12 = tt.broadcast %tmp11 : tensor<1x1xf32> -> tensor<1x512xf32> loc(#loc66)
    %tmp12_17 = arith.subf %tmp2, %tmp12 : tensor<1x512xf32> loc(#loc66)
    %tmp13 = arith.mulf %tmp12_17, %tmp12_17 : tensor<1x512xf32> loc(#loc67)
    %tmp16 = "tt.reduce"(%tmp13) <{axis = 1 : i32}> ({
    ^bb0(%tmp16_20: f32 loc(callsite(#loc1 at #loc68)), %tmp16_21: f32 loc(callsite(#loc1 at #loc68))):
      %tmp16_22 = arith.addf %tmp16_20, %tmp16_21 : f32 loc(#loc82)
      tt.reduce.return %tmp16_22 : f32 loc(#loc79)
    }) : (tensor<1x512xf32>) -> tensor<1xf32> loc(#loc79)
    %tmp16_18 = tt.expand_dims %tmp16 {axis = 1 : i32} : tensor<1xf32> -> tensor<1x1xf32> loc(#loc69)
    %tmp19 = arith.divf %tmp16_18, %cst : tensor<1x1xf32> loc(#loc70)
    %tmp21 = arith.addf %tmp19, %tmp20 : tensor<1x1xf32> loc(#loc71)
    %tmp22 = tt.extern_elementwise %tmp21 {libname = "", libpath = "", pure = true, symbol = "__nv_rsqrtf"} : (tensor<1x1xf32>) -> tensor<1x1xf32> loc(#loc72)
    %tmp23 = tt.broadcast %tmp22 : tensor<1x1xf32> -> tensor<1x512xf32> loc(#loc73)
    %tmp23_19 = arith.mulf %tmp12_17, %tmp23 : tensor<1x512xf32> loc(#loc73)
    %tmp26 = arith.mulf %tmp23_19, %tmp24_12 : tensor<1x512xf32> loc(#loc74)
    %tmp29 = arith.addf %tmp26, %tmp27_15 : tensor<1x512xf32> loc(#loc75)
    %0 = arith.truncf %tmp29 : tensor<1x512xf32> to tensor<1x512xbf16> loc(#loc36)
    tt.store %tmp0_4, %0 : tensor<1x512x!tt.ptr<bf16>> loc(#loc36)
    tt.return loc(#loc37)
  } loc(#loc)
} loc(#loc)
#loc2 = loc("/root/Profiler/examples/sdpa_attention/test_run/inductor_debug_opt/a3/ca3f5zu47tnhngq34v7kdbkqugdymbde47befinwbhgutafu2mfd.py":53:35)
#loc3 = loc("/root/Profiler/examples/sdpa_attention/test_run/inductor_debug_opt/a3/ca3f5zu47tnhngq34v7kdbkqugdymbde47befinwbhgutafu2mfd.py":24:28)
#loc4 = loc("/root/Profiler/examples/sdpa_attention/test_run/inductor_debug_opt/a3/ca3f5zu47tnhngq34v7kdbkqugdymbde47befinwbhgutafu2mfd.py":27:28)
#loc5 = loc("/root/Profiler/examples/sdpa_attention/test_run/inductor_debug_opt/a3/ca3f5zu47tnhngq34v7kdbkqugdymbde47befinwbhgutafu2mfd.py":27:38)
#loc6 = loc("/root/Profiler/examples/sdpa_attention/test_run/inductor_debug_opt/a3/ca3f5zu47tnhngq34v7kdbkqugdymbde47befinwbhgutafu2mfd.py":34:45)
#loc7 = loc("/root/Profiler/examples/sdpa_attention/test_run/inductor_debug_opt/a3/ca3f5zu47tnhngq34v7kdbkqugdymbde47befinwbhgutafu2mfd.py":34:41)
#loc8 = loc("/root/Profiler/examples/sdpa_attention/test_run/inductor_debug_opt/a3/ca3f5zu47tnhngq34v7kdbkqugdymbde47befinwbhgutafu2mfd.py":34:34)
#loc9 = loc("/root/Profiler/examples/sdpa_attention/test_run/inductor_debug_opt/a3/ca3f5zu47tnhngq34v7kdbkqugdymbde47befinwbhgutafu2mfd.py":34:50)
#loc10 = loc("/root/Profiler/examples/sdpa_attention/test_run/inductor_debug_opt/a3/ca3f5zu47tnhngq34v7kdbkqugdymbde47befinwbhgutafu2mfd.py":34:59)
#loc11 = loc("/root/Profiler/examples/sdpa_attention/test_run/inductor_debug_opt/a3/ca3f5zu47tnhngq34v7kdbkqugdymbde47befinwbhgutafu2mfd.py":35:30)
#loc12 = loc("/root/Profiler/examples/sdpa_attention/test_run/inductor_debug_opt/a3/ca3f5zu47tnhngq34v7kdbkqugdymbde47befinwbhgutafu2mfd.py":35:46)
#loc13 = loc("/root/Profiler/examples/sdpa_attention/test_run/inductor_debug_opt/a3/ca3f5zu47tnhngq34v7kdbkqugdymbde47befinwbhgutafu2mfd.py":35:55)
#loc14 = loc("/root/Profiler/examples/sdpa_attention/test_run/inductor_debug_opt/a3/ca3f5zu47tnhngq34v7kdbkqugdymbde47befinwbhgutafu2mfd.py":36:31)
#loc15 = loc("/root/Profiler/examples/sdpa_attention/test_run/inductor_debug_opt/a3/ca3f5zu47tnhngq34v7kdbkqugdymbde47befinwbhgutafu2mfd.py":36:38)
#loc16 = loc("/root/Profiler/examples/sdpa_attention/test_run/inductor_debug_opt/a3/ca3f5zu47tnhngq34v7kdbkqugdymbde47befinwbhgutafu2mfd.py":36:77)
#loc17 = loc("/root/Profiler/examples/sdpa_attention/test_run/inductor_debug_opt/a3/ca3f5zu47tnhngq34v7kdbkqugdymbde47befinwbhgutafu2mfd.py":37:31)
#loc18 = loc("/root/Profiler/examples/sdpa_attention/test_run/inductor_debug_opt/a3/ca3f5zu47tnhngq34v7kdbkqugdymbde47befinwbhgutafu2mfd.py":37:38)
#loc19 = loc("/root/Profiler/examples/sdpa_attention/test_run/inductor_debug_opt/a3/ca3f5zu47tnhngq34v7kdbkqugdymbde47befinwbhgutafu2mfd.py":37:77)
#loc20 = loc("/root/Profiler/examples/sdpa_attention/test_run/inductor_debug_opt/a3/ca3f5zu47tnhngq34v7kdbkqugdymbde47befinwbhgutafu2mfd.py":38:18)
#loc21 = loc("/usr/local/lib/python3.10/dist-packages/triton/language/standard.py":293:36)
#loc23 = loc("/usr/local/lib/python3.10/dist-packages/triton/language/standard.py":263:15)
#loc24 = loc("/root/Profiler/examples/sdpa_attention/test_run/inductor_debug_opt/a3/ca3f5zu47tnhngq34v7kdbkqugdymbde47befinwbhgutafu2mfd.py":42:27)
#loc25 = loc("/root/Profiler/examples/sdpa_attention/test_run/inductor_debug_opt/a3/ca3f5zu47tnhngq34v7kdbkqugdymbde47befinwbhgutafu2mfd.py":45:20)
#loc26 = loc("/root/Profiler/examples/sdpa_attention/test_run/inductor_debug_opt/a3/ca3f5zu47tnhngq34v7kdbkqugdymbde47befinwbhgutafu2mfd.py":46:19)
#loc27 = loc("/root/Profiler/examples/sdpa_attention/test_run/inductor_debug_opt/a3/ca3f5zu47tnhngq34v7kdbkqugdymbde47befinwbhgutafu2mfd.py":47:20)
#loc29 = loc("/root/Profiler/examples/sdpa_attention/test_run/inductor_debug_opt/a3/ca3f5zu47tnhngq34v7kdbkqugdymbde47befinwbhgutafu2mfd.py":49:29)
#loc30 = loc("/root/Profiler/examples/sdpa_attention/test_run/inductor_debug_opt/a3/ca3f5zu47tnhngq34v7kdbkqugdymbde47befinwbhgutafu2mfd.py":52:21)
#loc31 = loc("/root/Profiler/examples/sdpa_attention/test_run/inductor_debug_opt/a3/ca3f5zu47tnhngq34v7kdbkqugdymbde47befinwbhgutafu2mfd.py":54:20)
#loc32 = loc("/root/Profiler/examples/sdpa_attention/test_run/inductor_debug_opt/a3/ca3f5zu47tnhngq34v7kdbkqugdymbde47befinwbhgutafu2mfd.py":55:28)
#loc33 = loc("/root/Profiler/examples/sdpa_attention/test_run/inductor_debug_opt/a3/ca3f5zu47tnhngq34v7kdbkqugdymbde47befinwbhgutafu2mfd.py":56:20)
#loc34 = loc("/root/Profiler/examples/sdpa_attention/test_run/inductor_debug_opt/a3/ca3f5zu47tnhngq34v7kdbkqugdymbde47befinwbhgutafu2mfd.py":58:20)
#loc35 = loc("/root/Profiler/examples/sdpa_attention/test_run/inductor_debug_opt/a3/ca3f5zu47tnhngq34v7kdbkqugdymbde47befinwbhgutafu2mfd.py":60:20)
#loc36 = loc("/root/Profiler/examples/sdpa_attention/test_run/inductor_debug_opt/a3/ca3f5zu47tnhngq34v7kdbkqugdymbde47befinwbhgutafu2mfd.py":62:51)
#loc37 = loc("/root/Profiler/examples/sdpa_attention/test_run/inductor_debug_opt/a3/ca3f5zu47tnhngq34v7kdbkqugdymbde47befinwbhgutafu2mfd.py":62:4)
#loc44 = loc("tmp20"(#loc2))
#loc45 = loc("xoffset"(#loc3))
#loc46 = loc("r0_index"(#loc4))
#loc47 = loc("r0_index"(#loc5))
#loc48 = loc("tmp0"(#loc6))
#loc49 = loc("tmp0"(#loc7))
#loc50 = loc("tmp0"(#loc8))
#loc51 = loc("tmp0"(#loc9))
#loc52 = loc("tmp0"(#loc10))
#loc53 = loc("tmp1"(#loc11))
#loc54 = loc("tmp1"(#loc12))
#loc55 = loc("tmp1"(#loc13))
#loc56 = loc("tmp24"(#loc14))
#loc57 = loc("tmp24"(#loc15))
#loc58 = loc("tmp24"(#loc16))
#loc59 = loc("tmp27"(#loc17))
#loc60 = loc("tmp27"(#loc18))
#loc61 = loc("tmp27"(#loc19))
#loc62 = loc("tmp2"(#loc20))
#loc64 = loc("tmp8"(#loc24))
#loc65 = loc("tmp11"(#loc25))
#loc66 = loc("tmp12"(#loc26))
#loc67 = loc("tmp13"(#loc27))
#loc69 = loc("tmp16"(#loc29))
#loc70 = loc("tmp19"(#loc30))
#loc71 = loc("tmp21"(#loc31))
#loc72 = loc("tmp22"(#loc32))
#loc73 = loc("tmp23"(#loc33))
#loc74 = loc("tmp26"(#loc34))
#loc75 = loc("tmp29"(#loc35))
#loc76 = loc(fused[#loc49, #loc48])
#loc77 = loc(callsite(#loc21 at #loc63))
#loc79 = loc(callsite(#loc21 at #loc68))
#loc81 = loc(callsite(#loc23 at #loc77))
#loc82 = loc(callsite(#loc23 at #loc79))
