#loc = loc("/root/Profiler/examples/sdpa_attention/test_run/inductor_debug_opt/a3/ca3f5zu47tnhngq34v7kdbkqugdymbde47befinwbhgutafu2mfd.py":18:0)
#loc55 = loc("/usr/local/lib/python3.10/dist-packages/triton/language/standard.py":287:0)
#loc57 = loc(unknown)
#loc60 = loc("/usr/local/lib/python3.10/dist-packages/triton/language/standard.py":262:0)
#loc64 = loc("in_out_ptr0"(#loc))
#loc65 = loc("in_ptr0"(#loc))
#loc66 = loc("in_ptr1"(#loc))
#loc67 = loc("in_ptr2"(#loc))
#loc68 = loc("xnumel"(#loc))
#loc69 = loc("r0_numel"(#loc))
#loc119 = loc("input"(#loc55))
#loc120 = loc("a"(#loc60))
#loc121 = loc("b"(#loc60))
module {
  tt.func public @triton_per_fused__unsafe_view_add_native_layer_norm_3(%in_out_ptr0: !tt.ptr<bf16> {tt.divisibility = 16 : i32} loc("in_out_ptr0"(#loc)), %in_ptr0: !tt.ptr<bf16> {tt.divisibility = 16 : i32} loc("in_ptr0"(#loc)), %in_ptr1: !tt.ptr<bf16> {tt.divisibility = 16 : i32} loc("in_ptr1"(#loc)), %in_ptr2: !tt.ptr<bf16> {tt.divisibility = 16 : i32} loc("in_ptr2"(#loc)), %xnumel: i32 {tt.divisibility = 16 : i32} loc("xnumel"(#loc)), %r0_numel: i32 {tt.divisibility = 16 : i32} loc("r0_numel"(#loc))) attributes {noinline = false} {
    %xnumel_0 = arith.constant 4096 : i32 loc(#loc70)
    %r0_numel_1 = arith.constant 512 : i32 loc(#loc71)
    %xoffset = tt.get_program_id x : i32 loc(#loc72)
    %xoffset_2 = arith.constant 1 : i32 loc(#loc73)
    %xoffset_3 = arith.constant 1 : i32 loc(#loc73)
    %xoffset_4 = arith.muli %xoffset, %xoffset_3 : i32 loc(#loc73)
    %xindex = tt.make_range {end = 1 : i32, start = 0 : i32} : tensor<1xi32> loc(#loc74)
    %xindex_5 = tt.expand_dims %xindex {axis = 1 : i32} : tensor<1xi32> -> tensor<1x1xi32> loc(#loc75)
    %xindex_6 = tt.splat %xoffset_4 : i32 -> tensor<1x1xi32> loc(#loc76)
    %xindex_7 = arith.addi %xindex_6, %xindex_5 : tensor<1x1xi32> loc(#loc76)
    %xmask = arith.constant true loc(#loc77)
    %xmask_8 = arith.constant dense<true> : tensor<1xi1> loc(#loc77)
    %xmask_9 = tt.expand_dims %xmask_8 {axis = 1 : i32} : tensor<1xi1> -> tensor<1x1xi1> loc(#loc78)
    %r0_index = tt.make_range {end = 512 : i32, start = 0 : i32} : tensor<512xi32> loc(#loc79)
    %r0_index_10 = tt.expand_dims %r0_index {axis = 0 : i32} : tensor<512xi32> -> tensor<1x512xi32> loc(#loc80)
    %r0_offset = arith.constant 0 : i32 loc(#loc81)
    %r0_mask = arith.constant true loc(#loc82)
    %r0_mask_11 = arith.constant dense<true> : tensor<512xi1> loc(#loc82)
    %r0_mask_12 = tt.expand_dims %r0_mask_11 {axis = 0 : i32} : tensor<512xi1> -> tensor<1x512xi1> loc(#loc83)
    %tmp0 = arith.constant 512 : i32 loc(#loc84)
    %tmp0_13 = arith.constant 512 : i32 loc(#loc84)
    %tmp0_14 = arith.constant dense<512> : tensor<1x1xi32> loc(#loc84)
    %tmp0_15 = arith.muli %tmp0_14, %xindex_7 : tensor<1x1xi32> loc(#loc84)
    %tmp0_16 = tt.broadcast %tmp0_15 : tensor<1x1xi32> -> tensor<1x512xi32> loc(#loc85)
    %tmp0_17 = arith.addi %r0_index_10, %tmp0_16 : tensor<1x512xi32> loc(#loc85)
    %tmp0_18 = tt.splat %in_out_ptr0 : !tt.ptr<bf16> -> tensor<1x512x!tt.ptr<bf16>> loc(#loc86)
    %tmp0_19 = tt.addptr %tmp0_18, %tmp0_17 : tensor<1x512x!tt.ptr<bf16>>, tensor<1x512xi32> loc(#loc86)
    %tmp0_20 = tt.load %tmp0_19 : tensor<1x512x!tt.ptr<bf16>> loc(#loc87)
    %tmp0_21 = arith.extf %tmp0_20 : tensor<1x512xbf16> to tensor<1x512xf32> loc(#loc88)
    %tmp1 = arith.constant 512 : i32 loc(#loc89)
    %tmp1_22 = arith.constant 512 : i32 loc(#loc89)
    %tmp1_23 = arith.constant dense<512> : tensor<1x1xi32> loc(#loc89)
    %tmp1_24 = arith.muli %tmp1_23, %xindex_7 : tensor<1x1xi32> loc(#loc89)
    %tmp1_25 = tt.broadcast %tmp1_24 : tensor<1x1xi32> -> tensor<1x512xi32> loc(#loc90)
    %tmp1_26 = arith.addi %r0_index_10, %tmp1_25 : tensor<1x512xi32> loc(#loc90)
    %tmp1_27 = tt.splat %in_ptr0 : !tt.ptr<bf16> -> tensor<1x512x!tt.ptr<bf16>> loc(#loc91)
    %tmp1_28 = tt.addptr %tmp1_27, %tmp1_26 : tensor<1x512x!tt.ptr<bf16>>, tensor<1x512xi32> loc(#loc91)
    %tmp1_29 = tt.load %tmp1_28 : tensor<1x512x!tt.ptr<bf16>> loc(#loc92)
    %tmp1_30 = arith.extf %tmp1_29 : tensor<1x512xbf16> to tensor<1x512xf32> loc(#loc93)
    %tmp24 = tt.splat %in_ptr1 : !tt.ptr<bf16> -> tensor<1x512x!tt.ptr<bf16>> loc(#loc94)
    %tmp24_31 = tt.addptr %tmp24, %r0_index_10 : tensor<1x512x!tt.ptr<bf16>>, tensor<1x512xi32> loc(#loc94)
    %tmp24_32 = tt.load %tmp24_31 evictionPolicy = evict_last : tensor<1x512x!tt.ptr<bf16>> loc(#loc95)
    %tmp24_33 = arith.extf %tmp24_32 : tensor<1x512xbf16> to tensor<1x512xf32> loc(#loc96)
    %tmp27 = tt.splat %in_ptr2 : !tt.ptr<bf16> -> tensor<1x512x!tt.ptr<bf16>> loc(#loc97)
    %tmp27_34 = tt.addptr %tmp27, %r0_index_10 : tensor<1x512x!tt.ptr<bf16>>, tensor<1x512xi32> loc(#loc97)
    %tmp27_35 = tt.load %tmp27_34 evictionPolicy = evict_last : tensor<1x512x!tt.ptr<bf16>> loc(#loc98)
    %tmp27_36 = arith.extf %tmp27_35 : tensor<1x512xbf16> to tensor<1x512xf32> loc(#loc99)
    %tmp2 = arith.addf %tmp0_21, %tmp1_30 : tensor<1x512xf32> loc(#loc100)
    %tmp8 = tt.call @"triton.language.standard.sum__fp32S1_512S__(1,)cconstexpr_1__(2,)cconstexpr_False__(3,)cNone"(%tmp2) : (tensor<1x512xf32>) -> tensor<1xf32> loc(#loc101)
    %tmp8_37 = tt.expand_dims %tmp8 {axis = 1 : i32} : tensor<1xf32> -> tensor<1x1xf32> loc(#loc102)
    %tmp9 = arith.constant 512 : i32 loc(#loc103)
    %tmp9_38 = arith.constant dense<512> : tensor<1x1xi32> loc(#loc103)
    %tmp10 = arith.sitofp %tmp9_38 : tensor<1x1xi32> to tensor<1x1xf32> loc(#loc104)
    %tmp11 = arith.divf %tmp8_37, %tmp10 : tensor<1x1xf32> loc(#loc105)
    %tmp12 = tt.broadcast %tmp11 : tensor<1x1xf32> -> tensor<1x512xf32> loc(#loc106)
    %tmp12_39 = arith.subf %tmp2, %tmp12 : tensor<1x512xf32> loc(#loc106)
    %tmp13 = arith.mulf %tmp12_39, %tmp12_39 : tensor<1x512xf32> loc(#loc107)
    %tmp16 = tt.call @"triton.language.standard.sum__fp32S1_512S__(1,)cconstexpr_1__(2,)cconstexpr_False__(3,)cNone"(%tmp13) : (tensor<1x512xf32>) -> tensor<1xf32> loc(#loc108)
    %tmp16_40 = tt.expand_dims %tmp16 {axis = 1 : i32} : tensor<1xf32> -> tensor<1x1xf32> loc(#loc109)
    %tmp17 = tt.broadcast %tmp11 : tensor<1x1xf32> -> tensor<1x512xf32> loc(#loc110)
    %tmp17_41 = arith.subf %tmp2, %tmp17 : tensor<1x512xf32> loc(#loc110)
    %tmp18 = arith.constant 5.120000e+02 : f32 loc(#loc111)
    %tmp18_42 = arith.constant dense<5.120000e+02> : tensor<1x1xf32> loc(#loc111)
    %tmp19 = arith.divf %tmp16_40, %tmp18_42 : tensor<1x1xf32> loc(#loc112)
    %tmp20 = arith.constant 9.99999974E-6 : f32 loc(#loc113)
    %tmp20_43 = arith.constant dense<9.99999974E-6> : tensor<1x1xf32> loc(#loc113)
    %tmp21 = arith.addf %tmp19, %tmp20_43 : tensor<1x1xf32> loc(#loc114)
    %tmp22 = tt.extern_elementwise %tmp21 {libname = "", libpath = "", pure = true, symbol = "__nv_rsqrtf"} : (tensor<1x1xf32>) -> tensor<1x1xf32> loc(#loc115)
    %tmp23 = tt.broadcast %tmp22 : tensor<1x1xf32> -> tensor<1x512xf32> loc(#loc116)
    %tmp23_44 = arith.mulf %tmp17_41, %tmp23 : tensor<1x512xf32> loc(#loc116)
    %tmp26 = arith.mulf %tmp23_44, %tmp24_33 : tensor<1x512xf32> loc(#loc117)
    %tmp29 = arith.addf %tmp26, %tmp27_36 : tensor<1x512xf32> loc(#loc118)
    %c512_i32 = arith.constant 512 : i32 loc(#loc50)
    %c512_i32_45 = arith.constant 512 : i32 loc(#loc50)
    %cst = arith.constant dense<512> : tensor<1x1xi32> loc(#loc50)
    %0 = arith.muli %cst, %xindex_7 : tensor<1x1xi32> loc(#loc50)
    %1 = tt.broadcast %0 : tensor<1x1xi32> -> tensor<1x512xi32> loc(#loc51)
    %2 = arith.addi %r0_index_10, %1 : tensor<1x512xi32> loc(#loc51)
    %3 = tt.splat %in_out_ptr0 : !tt.ptr<bf16> -> tensor<1x512x!tt.ptr<bf16>> loc(#loc52)
    %4 = tt.addptr %3, %2 : tensor<1x512x!tt.ptr<bf16>>, tensor<1x512xi32> loc(#loc52)
    %5 = arith.truncf %tmp29 : tensor<1x512xf32> to tensor<1x512xbf16> loc(#loc53)
    tt.store %4, %5 : tensor<1x512x!tt.ptr<bf16>> loc(#loc53)
    tt.return loc(#loc54)
  } loc(#loc)
  tt.func private @"triton.language.standard.sum__fp32S1_512S__(1,)cconstexpr_1__(2,)cconstexpr_False__(3,)cNone"(%input: tensor<1x512xf32> loc("input"(#loc55))) -> tensor<1xf32> attributes {noinline = false} {
    %0 = "tt.reduce"(%input) <{axis = 1 : i32}> ({
    ^bb0(%arg1: f32 loc(unknown), %arg2: f32 loc(unknown)):
      %2 = tt.call @triton.language.standard._sum_combine__fp32_fp32__(%arg1, %arg2) : (f32, f32) -> f32 loc(#loc56)
      tt.reduce.return %2 : f32 loc(#loc56)
    }) : (tensor<1x512xf32>) -> tensor<1xf32> loc(#loc56)
    tt.return %0 : tensor<1xf32> loc(#loc58)
  ^bb1:  // no predecessors
    %1 = ub.poison : tensor<1xf32> loc(#loc59)
    tt.return %1 : tensor<1xf32> loc(#loc59)
  } loc(#loc55)
  tt.func private @triton.language.standard._sum_combine__fp32_fp32__(%a: f32 loc("a"(#loc60)), %b: f32 loc("b"(#loc60))) -> f32 attributes {noinline = false} {
    %0 = arith.addf %a, %b : f32 loc(#loc61)
    tt.return %0 : f32 loc(#loc62)
  ^bb1:  // no predecessors
    %1 = ub.poison : f32 loc(#loc63)
    tt.return %1 : f32 loc(#loc63)
  } loc(#loc60)
} loc(#loc)
#loc1 = loc("/root/Profiler/examples/sdpa_attention/test_run/inductor_debug_opt/a3/ca3f5zu47tnhngq34v7kdbkqugdymbde47befinwbhgutafu2mfd.py":19:13)
#loc2 = loc("/root/Profiler/examples/sdpa_attention/test_run/inductor_debug_opt/a3/ca3f5zu47tnhngq34v7kdbkqugdymbde47befinwbhgutafu2mfd.py":20:15)
#loc3 = loc("/root/Profiler/examples/sdpa_attention/test_run/inductor_debug_opt/a3/ca3f5zu47tnhngq34v7kdbkqugdymbde47befinwbhgutafu2mfd.py":24:28)
#loc4 = loc("/root/Profiler/examples/sdpa_attention/test_run/inductor_debug_opt/a3/ca3f5zu47tnhngq34v7kdbkqugdymbde47befinwbhgutafu2mfd.py":24:33)
#loc5 = loc("/root/Profiler/examples/sdpa_attention/test_run/inductor_debug_opt/a3/ca3f5zu47tnhngq34v7kdbkqugdymbde47befinwbhgutafu2mfd.py":25:36)
#loc6 = loc("/root/Profiler/examples/sdpa_attention/test_run/inductor_debug_opt/a3/ca3f5zu47tnhngq34v7kdbkqugdymbde47befinwbhgutafu2mfd.py":25:44)
#loc7 = loc("/root/Profiler/examples/sdpa_attention/test_run/inductor_debug_opt/a3/ca3f5zu47tnhngq34v7kdbkqugdymbde47befinwbhgutafu2mfd.py":25:23)
#loc8 = loc("/root/Profiler/examples/sdpa_attention/test_run/inductor_debug_opt/a3/ca3f5zu47tnhngq34v7kdbkqugdymbde47befinwbhgutafu2mfd.py":26:36)
#loc9 = loc("/root/Profiler/examples/sdpa_attention/test_run/inductor_debug_opt/a3/ca3f5zu47tnhngq34v7kdbkqugdymbde47befinwbhgutafu2mfd.py":26:45)
#loc10 = loc("/root/Profiler/examples/sdpa_attention/test_run/inductor_debug_opt/a3/ca3f5zu47tnhngq34v7kdbkqugdymbde47befinwbhgutafu2mfd.py":27:28)
#loc11 = loc("/root/Profiler/examples/sdpa_attention/test_run/inductor_debug_opt/a3/ca3f5zu47tnhngq34v7kdbkqugdymbde47befinwbhgutafu2mfd.py":27:38)
#loc12 = loc("/root/Profiler/examples/sdpa_attention/test_run/inductor_debug_opt/a3/ca3f5zu47tnhngq34v7kdbkqugdymbde47befinwbhgutafu2mfd.py":28:16)
#loc13 = loc("/root/Profiler/examples/sdpa_attention/test_run/inductor_debug_opt/a3/ca3f5zu47tnhngq34v7kdbkqugdymbde47befinwbhgutafu2mfd.py":29:40)
#loc14 = loc("/root/Profiler/examples/sdpa_attention/test_run/inductor_debug_opt/a3/ca3f5zu47tnhngq34v7kdbkqugdymbde47befinwbhgutafu2mfd.py":29:49)
#loc15 = loc("/root/Profiler/examples/sdpa_attention/test_run/inductor_debug_opt/a3/ca3f5zu47tnhngq34v7kdbkqugdymbde47befinwbhgutafu2mfd.py":34:45)
#loc16 = loc("/root/Profiler/examples/sdpa_attention/test_run/inductor_debug_opt/a3/ca3f5zu47tnhngq34v7kdbkqugdymbde47befinwbhgutafu2mfd.py":34:41)
#loc17 = loc("/root/Profiler/examples/sdpa_attention/test_run/inductor_debug_opt/a3/ca3f5zu47tnhngq34v7kdbkqugdymbde47befinwbhgutafu2mfd.py":34:34)
#loc18 = loc("/root/Profiler/examples/sdpa_attention/test_run/inductor_debug_opt/a3/ca3f5zu47tnhngq34v7kdbkqugdymbde47befinwbhgutafu2mfd.py":34:50)
#loc19 = loc("/root/Profiler/examples/sdpa_attention/test_run/inductor_debug_opt/a3/ca3f5zu47tnhngq34v7kdbkqugdymbde47befinwbhgutafu2mfd.py":34:59)
#loc20 = loc("/root/Profiler/examples/sdpa_attention/test_run/inductor_debug_opt/a3/ca3f5zu47tnhngq34v7kdbkqugdymbde47befinwbhgutafu2mfd.py":35:41)
#loc21 = loc("/root/Profiler/examples/sdpa_attention/test_run/inductor_debug_opt/a3/ca3f5zu47tnhngq34v7kdbkqugdymbde47befinwbhgutafu2mfd.py":35:37)
#loc22 = loc("/root/Profiler/examples/sdpa_attention/test_run/inductor_debug_opt/a3/ca3f5zu47tnhngq34v7kdbkqugdymbde47befinwbhgutafu2mfd.py":35:30)
#loc23 = loc("/root/Profiler/examples/sdpa_attention/test_run/inductor_debug_opt/a3/ca3f5zu47tnhngq34v7kdbkqugdymbde47befinwbhgutafu2mfd.py":35:46)
#loc24 = loc("/root/Profiler/examples/sdpa_attention/test_run/inductor_debug_opt/a3/ca3f5zu47tnhngq34v7kdbkqugdymbde47befinwbhgutafu2mfd.py":35:55)
#loc25 = loc("/root/Profiler/examples/sdpa_attention/test_run/inductor_debug_opt/a3/ca3f5zu47tnhngq34v7kdbkqugdymbde47befinwbhgutafu2mfd.py":36:31)
#loc26 = loc("/root/Profiler/examples/sdpa_attention/test_run/inductor_debug_opt/a3/ca3f5zu47tnhngq34v7kdbkqugdymbde47befinwbhgutafu2mfd.py":36:38)
#loc27 = loc("/root/Profiler/examples/sdpa_attention/test_run/inductor_debug_opt/a3/ca3f5zu47tnhngq34v7kdbkqugdymbde47befinwbhgutafu2mfd.py":36:77)
#loc28 = loc("/root/Profiler/examples/sdpa_attention/test_run/inductor_debug_opt/a3/ca3f5zu47tnhngq34v7kdbkqugdymbde47befinwbhgutafu2mfd.py":37:31)
#loc29 = loc("/root/Profiler/examples/sdpa_attention/test_run/inductor_debug_opt/a3/ca3f5zu47tnhngq34v7kdbkqugdymbde47befinwbhgutafu2mfd.py":37:38)
#loc30 = loc("/root/Profiler/examples/sdpa_attention/test_run/inductor_debug_opt/a3/ca3f5zu47tnhngq34v7kdbkqugdymbde47befinwbhgutafu2mfd.py":37:77)
#loc31 = loc("/root/Profiler/examples/sdpa_attention/test_run/inductor_debug_opt/a3/ca3f5zu47tnhngq34v7kdbkqugdymbde47befinwbhgutafu2mfd.py":38:18)
#loc32 = loc("/root/Profiler/examples/sdpa_attention/test_run/inductor_debug_opt/a3/ca3f5zu47tnhngq34v7kdbkqugdymbde47befinwbhgutafu2mfd.py":42:24)
#loc33 = loc("/root/Profiler/examples/sdpa_attention/test_run/inductor_debug_opt/a3/ca3f5zu47tnhngq34v7kdbkqugdymbde47befinwbhgutafu2mfd.py":42:27)
#loc34 = loc("/root/Profiler/examples/sdpa_attention/test_run/inductor_debug_opt/a3/ca3f5zu47tnhngq34v7kdbkqugdymbde47befinwbhgutafu2mfd.py":43:32)
#loc35 = loc("/root/Profiler/examples/sdpa_attention/test_run/inductor_debug_opt/a3/ca3f5zu47tnhngq34v7kdbkqugdymbde47befinwbhgutafu2mfd.py":44:20)
#loc36 = loc("/root/Profiler/examples/sdpa_attention/test_run/inductor_debug_opt/a3/ca3f5zu47tnhngq34v7kdbkqugdymbde47befinwbhgutafu2mfd.py":45:20)
#loc37 = loc("/root/Profiler/examples/sdpa_attention/test_run/inductor_debug_opt/a3/ca3f5zu47tnhngq34v7kdbkqugdymbde47befinwbhgutafu2mfd.py":46:19)
#loc38 = loc("/root/Profiler/examples/sdpa_attention/test_run/inductor_debug_opt/a3/ca3f5zu47tnhngq34v7kdbkqugdymbde47befinwbhgutafu2mfd.py":47:20)
#loc39 = loc("/root/Profiler/examples/sdpa_attention/test_run/inductor_debug_opt/a3/ca3f5zu47tnhngq34v7kdbkqugdymbde47befinwbhgutafu2mfd.py":49:26)
#loc40 = loc("/root/Profiler/examples/sdpa_attention/test_run/inductor_debug_opt/a3/ca3f5zu47tnhngq34v7kdbkqugdymbde47befinwbhgutafu2mfd.py":49:29)
#loc41 = loc("/root/Profiler/examples/sdpa_attention/test_run/inductor_debug_opt/a3/ca3f5zu47tnhngq34v7kdbkqugdymbde47befinwbhgutafu2mfd.py":50:19)
#loc42 = loc("/root/Profiler/examples/sdpa_attention/test_run/inductor_debug_opt/a3/ca3f5zu47tnhngq34v7kdbkqugdymbde47befinwbhgutafu2mfd.py":51:35)
#loc43 = loc("/root/Profiler/examples/sdpa_attention/test_run/inductor_debug_opt/a3/ca3f5zu47tnhngq34v7kdbkqugdymbde47befinwbhgutafu2mfd.py":52:21)
#loc44 = loc("/root/Profiler/examples/sdpa_attention/test_run/inductor_debug_opt/a3/ca3f5zu47tnhngq34v7kdbkqugdymbde47befinwbhgutafu2mfd.py":53:35)
#loc45 = loc("/root/Profiler/examples/sdpa_attention/test_run/inductor_debug_opt/a3/ca3f5zu47tnhngq34v7kdbkqugdymbde47befinwbhgutafu2mfd.py":54:20)
#loc46 = loc("/root/Profiler/examples/sdpa_attention/test_run/inductor_debug_opt/a3/ca3f5zu47tnhngq34v7kdbkqugdymbde47befinwbhgutafu2mfd.py":55:28)
#loc47 = loc("/root/Profiler/examples/sdpa_attention/test_run/inductor_debug_opt/a3/ca3f5zu47tnhngq34v7kdbkqugdymbde47befinwbhgutafu2mfd.py":56:20)
#loc48 = loc("/root/Profiler/examples/sdpa_attention/test_run/inductor_debug_opt/a3/ca3f5zu47tnhngq34v7kdbkqugdymbde47befinwbhgutafu2mfd.py":58:20)
#loc49 = loc("/root/Profiler/examples/sdpa_attention/test_run/inductor_debug_opt/a3/ca3f5zu47tnhngq34v7kdbkqugdymbde47befinwbhgutafu2mfd.py":60:20)
#loc50 = loc("/root/Profiler/examples/sdpa_attention/test_run/inductor_debug_opt/a3/ca3f5zu47tnhngq34v7kdbkqugdymbde47befinwbhgutafu2mfd.py":62:39)
#loc51 = loc("/root/Profiler/examples/sdpa_attention/test_run/inductor_debug_opt/a3/ca3f5zu47tnhngq34v7kdbkqugdymbde47befinwbhgutafu2mfd.py":62:35)
#loc52 = loc("/root/Profiler/examples/sdpa_attention/test_run/inductor_debug_opt/a3/ca3f5zu47tnhngq34v7kdbkqugdymbde47befinwbhgutafu2mfd.py":62:28)
#loc53 = loc("/root/Profiler/examples/sdpa_attention/test_run/inductor_debug_opt/a3/ca3f5zu47tnhngq34v7kdbkqugdymbde47befinwbhgutafu2mfd.py":62:51)
#loc54 = loc("/root/Profiler/examples/sdpa_attention/test_run/inductor_debug_opt/a3/ca3f5zu47tnhngq34v7kdbkqugdymbde47befinwbhgutafu2mfd.py":62:4)
#loc56 = loc("/usr/local/lib/python3.10/dist-packages/triton/language/standard.py":293:36)
#loc58 = loc("/usr/local/lib/python3.10/dist-packages/triton/language/standard.py":293:11)
#loc59 = loc("/usr/local/lib/python3.10/dist-packages/triton/language/standard.py":293:4)
#loc61 = loc("/usr/local/lib/python3.10/dist-packages/triton/language/standard.py":263:15)
#loc62 = loc("/usr/local/lib/python3.10/dist-packages/triton/language/standard.py":263:11)
#loc63 = loc("/usr/local/lib/python3.10/dist-packages/triton/language/standard.py":263:4)
#loc70 = loc("xnumel"(#loc1))
#loc71 = loc("r0_numel"(#loc2))
#loc72 = loc("xoffset"(#loc3))
#loc73 = loc("xoffset"(#loc4))
#loc74 = loc("xindex"(#loc5))
#loc75 = loc("xindex"(#loc6))
#loc76 = loc("xindex"(#loc7))
#loc77 = loc("xmask"(#loc8))
#loc78 = loc("xmask"(#loc9))
#loc79 = loc("r0_index"(#loc10))
#loc80 = loc("r0_index"(#loc11))
#loc81 = loc("r0_offset"(#loc12))
#loc82 = loc("r0_mask"(#loc13))
#loc83 = loc("r0_mask"(#loc14))
#loc84 = loc("tmp0"(#loc15))
#loc85 = loc("tmp0"(#loc16))
#loc86 = loc("tmp0"(#loc17))
#loc87 = loc("tmp0"(#loc18))
#loc88 = loc("tmp0"(#loc19))
#loc89 = loc("tmp1"(#loc20))
#loc90 = loc("tmp1"(#loc21))
#loc91 = loc("tmp1"(#loc22))
#loc92 = loc("tmp1"(#loc23))
#loc93 = loc("tmp1"(#loc24))
#loc94 = loc("tmp24"(#loc25))
#loc95 = loc("tmp24"(#loc26))
#loc96 = loc("tmp24"(#loc27))
#loc97 = loc("tmp27"(#loc28))
#loc98 = loc("tmp27"(#loc29))
#loc99 = loc("tmp27"(#loc30))
#loc100 = loc("tmp2"(#loc31))
#loc101 = loc("tmp8"(#loc32))
#loc102 = loc("tmp8"(#loc33))
#loc103 = loc("tmp9"(#loc34))
#loc104 = loc("tmp10"(#loc35))
#loc105 = loc("tmp11"(#loc36))
#loc106 = loc("tmp12"(#loc37))
#loc107 = loc("tmp13"(#loc38))
#loc108 = loc("tmp16"(#loc39))
#loc109 = loc("tmp16"(#loc40))
#loc110 = loc("tmp17"(#loc41))
#loc111 = loc("tmp18"(#loc42))
#loc112 = loc("tmp19"(#loc43))
#loc113 = loc("tmp20"(#loc44))
#loc114 = loc("tmp21"(#loc45))
#loc115 = loc("tmp22"(#loc46))
#loc116 = loc("tmp23"(#loc47))
#loc117 = loc("tmp26"(#loc48))
#loc118 = loc("tmp29"(#loc49))
