#loc = loc("/root/Profiler/gpt2_optimized_inductor_debug/7s/c7sgzcdwrfeknieyvp5s6uwhmlj5lgddbqiwgdnpnmxlosps6jz4.py":18:0)
#loc67 = loc("/usr/local/lib/python3.10/dist-packages/triton/language/standard.py":287:0)
#loc69 = loc(unknown)
#loc72 = loc("/usr/local/lib/python3.10/dist-packages/triton/language/standard.py":262:0)
#loc76 = loc("in_ptr0"(#loc))
#loc77 = loc("in_ptr1"(#loc))
#loc78 = loc("in_ptr2"(#loc))
#loc79 = loc("in_ptr3"(#loc))
#loc80 = loc("out_ptr2"(#loc))
#loc81 = loc("ks0"(#loc))
#loc82 = loc("xnumel"(#loc))
#loc83 = loc("r0_numel"(#loc))
#loc144 = loc("input"(#loc67))
#loc145 = loc("a"(#loc72))
#loc146 = loc("b"(#loc72))
module {
  tt.func public @triton_per_fused_add_native_layer_norm_view_4(%in_ptr0: !tt.ptr<bf16> {tt.divisibility = 16 : i32} loc("in_ptr0"(#loc)), %in_ptr1: !tt.ptr<bf16> {tt.divisibility = 16 : i32} loc("in_ptr1"(#loc)), %in_ptr2: !tt.ptr<bf16> {tt.divisibility = 16 : i32} loc("in_ptr2"(#loc)), %in_ptr3: !tt.ptr<bf16> {tt.divisibility = 16 : i32} loc("in_ptr3"(#loc)), %out_ptr2: !tt.ptr<bf16> {tt.divisibility = 16 : i32} loc("out_ptr2"(#loc)), %ks0: i64 loc("ks0"(#loc)), %xnumel: i32 {tt.divisibility = 16 : i32} loc("xnumel"(#loc)), %r0_numel: i32 {tt.divisibility = 16 : i32} loc("r0_numel"(#loc))) attributes {noinline = false} {
    %xnumel_0 = arith.constant 512 : i32 loc(#loc84)
    %r0_numel_1 = arith.constant 768 : i32 loc(#loc85)
    %xoffset = tt.get_program_id x : i32 loc(#loc86)
    %xoffset_2 = arith.constant 1 : i32 loc(#loc87)
    %xoffset_3 = arith.constant 1 : i32 loc(#loc87)
    %xoffset_4 = arith.muli %xoffset, %xoffset_3 : i32 loc(#loc87)
    %xindex = tt.make_range {end = 1 : i32, start = 0 : i32} : tensor<1xi32> loc(#loc88)
    %xindex_5 = tt.expand_dims %xindex {axis = 1 : i32} : tensor<1xi32> -> tensor<1x1xi32> loc(#loc89)
    %xindex_6 = tt.splat %xoffset_4 : i32 -> tensor<1x1xi32> loc(#loc90)
    %xindex_7 = arith.addi %xindex_6, %xindex_5 : tensor<1x1xi32> loc(#loc90)
    %xmask = arith.constant dense<512> : tensor<1x1xi32> loc(#loc91)
    %xmask_8 = arith.cmpi slt, %xindex_7, %xmask : tensor<1x1xi32> loc(#loc91)
    %r0_index = tt.make_range {end = 1024 : i32, start = 0 : i32} : tensor<1024xi32> loc(#loc92)
    %r0_index_9 = tt.expand_dims %r0_index {axis = 0 : i32} : tensor<1024xi32> -> tensor<1x1024xi32> loc(#loc93)
    %r0_offset = arith.constant 0 : i32 loc(#loc94)
    %r0_mask = arith.constant dense<768> : tensor<1x1024xi32> loc(#loc95)
    %r0_mask_10 = arith.cmpi slt, %r0_index_9, %r0_mask : tensor<1x1024xi32> loc(#loc95)
    %x0 = arith.constant 128 : i32 loc(#loc96)
    %x0_11 = arith.constant 128 : i32 loc(#loc96)
    %x0_12 = arith.constant dense<128> : tensor<1x1xi32> loc(#loc96)
    %x0_13 = arith.remsi %xindex_7, %x0_12 : tensor<1x1xi32> loc(#loc96)
    %x1 = arith.constant 128 : i32 loc(#loc97)
    %x1_14 = arith.constant 128 : i32 loc(#loc97)
    %x1_15 = arith.constant dense<128> : tensor<1x1xi32> loc(#loc97)
    %x1_16 = arith.divsi %xindex_7, %x1_15 : tensor<1x1xi32> loc(#loc97)
    %tmp0 = arith.constant 768 : i32 loc(#loc98)
    %tmp0_17 = arith.constant 768 : i32 loc(#loc98)
    %tmp0_18 = arith.constant dense<768> : tensor<1x1xi32> loc(#loc98)
    %tmp0_19 = arith.muli %tmp0_18, %xindex_7 : tensor<1x1xi32> loc(#loc98)
    %tmp0_20 = tt.broadcast %tmp0_19 : tensor<1x1xi32> -> tensor<1x1024xi32> loc(#loc99)
    %tmp0_21 = arith.addi %r0_index_9, %tmp0_20 : tensor<1x1024xi32> loc(#loc99)
    %tmp0_22 = tt.splat %in_ptr0 : !tt.ptr<bf16> -> tensor<1x1024x!tt.ptr<bf16>> loc(#loc100)
    %tmp0_23 = tt.addptr %tmp0_22, %tmp0_21 : tensor<1x1024x!tt.ptr<bf16>>, tensor<1x1024xi32> loc(#loc100)
    %tmp0_24 = tt.broadcast %xmask_8 : tensor<1x1xi1> -> tensor<1x1024xi1> loc(#loc101)
    %tmp0_25 = arith.andi %r0_mask_10, %tmp0_24 : tensor<1x1024xi1> loc(#loc101)
    %tmp0_26 = arith.constant 0.000000e+00 : f32 loc(#loc102)
    %tmp0_27 = arith.constant dense<0.000000e+00> : tensor<1x1024xf32> loc(#loc102)
    %tmp0_28 = arith.truncf %tmp0_27 : tensor<1x1024xf32> to tensor<1x1024xbf16> loc(#loc102)
    %tmp0_29 = tt.load %tmp0_23, %tmp0_25, %tmp0_28 : tensor<1x1024x!tt.ptr<bf16>> loc(#loc102)
    %tmp0_30 = arith.extf %tmp0_29 : tensor<1x1024xbf16> to tensor<1x1024xf32> loc(#loc103)
    %tmp1 = arith.constant 768 : i32 loc(#loc104)
    %tmp1_31 = arith.constant 768 : i32 loc(#loc104)
    %tmp1_32 = arith.constant dense<768> : tensor<1x1xi32> loc(#loc104)
    %tmp1_33 = arith.muli %tmp1_32, %x0_13 : tensor<1x1xi32> loc(#loc104)
    %tmp1_34 = tt.broadcast %tmp1_33 : tensor<1x1xi32> -> tensor<1x1024xi32> loc(#loc105)
    %tmp1_35 = arith.addi %r0_index_9, %tmp1_34 : tensor<1x1024xi32> loc(#loc105)
    %tmp1_36 = arith.constant 768 : i32 loc(#loc106)
    %tmp1_37 = arith.constant 768 : i64 loc(#loc106)
    %tmp1_38 = arith.muli %tmp1_37, %ks0 : i64 loc(#loc106)
    %tmp1_39 = arith.extsi %x1_16 : tensor<1x1xi32> to tensor<1x1xi64> loc(#loc107)
    %tmp1_40 = tt.splat %tmp1_38 : i64 -> tensor<1x1xi64> loc(#loc107)
    %tmp1_41 = arith.muli %tmp1_40, %tmp1_39 : tensor<1x1xi64> loc(#loc107)
    %tmp1_42 = arith.extsi %tmp1_35 : tensor<1x1024xi32> to tensor<1x1024xi64> loc(#loc108)
    %tmp1_43 = tt.broadcast %tmp1_41 : tensor<1x1xi64> -> tensor<1x1024xi64> loc(#loc108)
    %tmp1_44 = arith.addi %tmp1_42, %tmp1_43 : tensor<1x1024xi64> loc(#loc108)
    %tmp1_45 = tt.splat %in_ptr1 : !tt.ptr<bf16> -> tensor<1x1024x!tt.ptr<bf16>> loc(#loc109)
    %tmp1_46 = tt.addptr %tmp1_45, %tmp1_44 : tensor<1x1024x!tt.ptr<bf16>>, tensor<1x1024xi64> loc(#loc109)
    %tmp1_47 = tt.broadcast %xmask_8 : tensor<1x1xi1> -> tensor<1x1024xi1> loc(#loc110)
    %tmp1_48 = arith.andi %r0_mask_10, %tmp1_47 : tensor<1x1024xi1> loc(#loc110)
    %tmp1_49 = arith.constant 0.000000e+00 : f32 loc(#loc111)
    %tmp1_50 = arith.constant dense<0.000000e+00> : tensor<1x1024xf32> loc(#loc111)
    %tmp1_51 = arith.truncf %tmp1_50 : tensor<1x1024xf32> to tensor<1x1024xbf16> loc(#loc111)
    %tmp1_52 = tt.load %tmp1_46, %tmp1_48, %tmp1_51 : tensor<1x1024x!tt.ptr<bf16>> loc(#loc111)
    %tmp1_53 = arith.extf %tmp1_52 : tensor<1x1024xbf16> to tensor<1x1024xf32> loc(#loc112)
    %tmp27 = tt.splat %in_ptr2 : !tt.ptr<bf16> -> tensor<1x1024x!tt.ptr<bf16>> loc(#loc113)
    %tmp27_54 = tt.addptr %tmp27, %r0_index_9 : tensor<1x1024x!tt.ptr<bf16>>, tensor<1x1024xi32> loc(#loc113)
    %tmp27_55 = arith.constant 0.000000e+00 : f32 loc(#loc114)
    %tmp27_56 = arith.constant dense<0.000000e+00> : tensor<1x1024xf32> loc(#loc114)
    %tmp27_57 = arith.truncf %tmp27_56 : tensor<1x1024xf32> to tensor<1x1024xbf16> loc(#loc114)
    %tmp27_58 = tt.load %tmp27_54, %r0_mask_10, %tmp27_57 evictionPolicy = evict_last : tensor<1x1024x!tt.ptr<bf16>> loc(#loc114)
    %tmp27_59 = arith.extf %tmp27_58 : tensor<1x1024xbf16> to tensor<1x1024xf32> loc(#loc115)
    %tmp30 = tt.splat %in_ptr3 : !tt.ptr<bf16> -> tensor<1x1024x!tt.ptr<bf16>> loc(#loc116)
    %tmp30_60 = tt.addptr %tmp30, %r0_index_9 : tensor<1x1024x!tt.ptr<bf16>>, tensor<1x1024xi32> loc(#loc116)
    %tmp30_61 = arith.constant 0.000000e+00 : f32 loc(#loc117)
    %tmp30_62 = arith.constant dense<0.000000e+00> : tensor<1x1024xf32> loc(#loc117)
    %tmp30_63 = arith.truncf %tmp30_62 : tensor<1x1024xf32> to tensor<1x1024xbf16> loc(#loc117)
    %tmp30_64 = tt.load %tmp30_60, %r0_mask_10, %tmp30_63 evictionPolicy = evict_last : tensor<1x1024x!tt.ptr<bf16>> loc(#loc117)
    %tmp30_65 = arith.extf %tmp30_64 : tensor<1x1024xbf16> to tensor<1x1024xf32> loc(#loc118)
    %tmp2 = arith.addf %tmp0_30, %tmp1_53 : tensor<1x1024xf32> loc(#loc119)
    %tmp6 = tt.broadcast %xmask_8 : tensor<1x1xi1> -> tensor<1x1024xi1> loc(#loc120)
    %tmp6_66 = arith.andi %r0_mask_10, %tmp6 : tensor<1x1024xi1> loc(#loc120)
    %tmp6_67 = arith.constant 0 : i32 loc(#loc121)
    %tmp6_68 = arith.constant 0.000000e+00 : f32 loc(#loc121)
    %tmp6_69 = arith.constant dense<0.000000e+00> : tensor<1x1024xf32> loc(#loc121)
    %tmp6_70 = arith.select %tmp6_66, %tmp2, %tmp6_69 : tensor<1x1024xi1>, tensor<1x1024xf32> loc(#loc121)
    %tmp9 = tt.broadcast %xmask_8 : tensor<1x1xi1> -> tensor<1x1024xi1> loc(#loc122)
    %tmp9_71 = arith.andi %r0_mask_10, %tmp9 : tensor<1x1024xi1> loc(#loc122)
    %tmp9_72 = arith.constant 0 : i32 loc(#loc123)
    %tmp9_73 = arith.constant 0.000000e+00 : f32 loc(#loc123)
    %tmp9_74 = arith.constant dense<0.000000e+00> : tensor<1x1024xf32> loc(#loc123)
    %tmp9_75 = arith.select %tmp9_71, %tmp2, %tmp9_74 : tensor<1x1024xi1>, tensor<1x1024xf32> loc(#loc123)
    %tmp10 = tt.call @"triton.language.standard.sum__fp32S1_1024S__(1,)cconstexpr_1__(2,)cconstexpr_False__(3,)cNone"(%tmp9_75) : (tensor<1x1024xf32>) -> tensor<1xf32> loc(#loc124)
    %tmp10_76 = tt.expand_dims %tmp10 {axis = 1 : i32} : tensor<1xf32> -> tensor<1x1xf32> loc(#loc125)
    %tmp11 = arith.constant 768 : i32 loc(#loc126)
    %tmp11_77 = arith.constant dense<768> : tensor<1x1xi32> loc(#loc126)
    %tmp12 = arith.sitofp %tmp11_77 : tensor<1x1xi32> to tensor<1x1xf32> loc(#loc127)
    %tmp13 = arith.divf %tmp10_76, %tmp12 : tensor<1x1xf32> loc(#loc128)
    %tmp14 = tt.broadcast %tmp13 : tensor<1x1xf32> -> tensor<1x1024xf32> loc(#loc129)
    %tmp14_78 = arith.subf %tmp2, %tmp14 : tensor<1x1024xf32> loc(#loc129)
    %tmp15 = arith.mulf %tmp14_78, %tmp14_78 : tensor<1x1024xf32> loc(#loc130)
    %tmp18 = tt.broadcast %xmask_8 : tensor<1x1xi1> -> tensor<1x1024xi1> loc(#loc131)
    %tmp18_79 = arith.andi %r0_mask_10, %tmp18 : tensor<1x1024xi1> loc(#loc131)
    %tmp18_80 = arith.constant 0 : i32 loc(#loc132)
    %tmp18_81 = arith.constant 0.000000e+00 : f32 loc(#loc132)
    %tmp18_82 = arith.constant dense<0.000000e+00> : tensor<1x1024xf32> loc(#loc132)
    %tmp18_83 = arith.select %tmp18_79, %tmp15, %tmp18_82 : tensor<1x1024xi1>, tensor<1x1024xf32> loc(#loc132)
    %tmp19 = tt.call @"triton.language.standard.sum__fp32S1_1024S__(1,)cconstexpr_1__(2,)cconstexpr_False__(3,)cNone"(%tmp18_83) : (tensor<1x1024xf32>) -> tensor<1xf32> loc(#loc133)
    %tmp19_84 = tt.expand_dims %tmp19 {axis = 1 : i32} : tensor<1xf32> -> tensor<1x1xf32> loc(#loc134)
    %tmp20 = tt.broadcast %tmp13 : tensor<1x1xf32> -> tensor<1x1024xf32> loc(#loc135)
    %tmp20_85 = arith.subf %tmp2, %tmp20 : tensor<1x1024xf32> loc(#loc135)
    %tmp21 = arith.constant 7.680000e+02 : f32 loc(#loc136)
    %tmp21_86 = arith.constant dense<7.680000e+02> : tensor<1x1xf32> loc(#loc136)
    %tmp22 = arith.divf %tmp19_84, %tmp21_86 : tensor<1x1xf32> loc(#loc137)
    %tmp23 = arith.constant 9.99999974E-6 : f32 loc(#loc138)
    %tmp23_87 = arith.constant dense<9.99999974E-6> : tensor<1x1xf32> loc(#loc138)
    %tmp24 = arith.addf %tmp22, %tmp23_87 : tensor<1x1xf32> loc(#loc139)
    %tmp25 = tt.extern_elementwise %tmp24 {libname = "", libpath = "", pure = true, symbol = "__nv_rsqrtf"} : (tensor<1x1xf32>) -> tensor<1x1xf32> loc(#loc140)
    %tmp26 = tt.broadcast %tmp25 : tensor<1x1xf32> -> tensor<1x1024xf32> loc(#loc141)
    %tmp26_88 = arith.mulf %tmp20_85, %tmp26 : tensor<1x1024xf32> loc(#loc141)
    %tmp29 = arith.mulf %tmp26_88, %tmp27_59 : tensor<1x1024xf32> loc(#loc142)
    %tmp32 = arith.addf %tmp29, %tmp30_65 : tensor<1x1024xf32> loc(#loc143)
    %c768_i32 = arith.constant 768 : i32 loc(#loc61)
    %c768_i32_89 = arith.constant 768 : i32 loc(#loc61)
    %cst = arith.constant dense<768> : tensor<1x1xi32> loc(#loc61)
    %0 = arith.muli %cst, %xindex_7 : tensor<1x1xi32> loc(#loc61)
    %1 = tt.broadcast %0 : tensor<1x1xi32> -> tensor<1x1024xi32> loc(#loc62)
    %2 = arith.addi %r0_index_9, %1 : tensor<1x1024xi32> loc(#loc62)
    %3 = tt.splat %out_ptr2 : !tt.ptr<bf16> -> tensor<1x1024x!tt.ptr<bf16>> loc(#loc63)
    %4 = tt.addptr %3, %2 : tensor<1x1024x!tt.ptr<bf16>>, tensor<1x1024xi32> loc(#loc63)
    %5 = tt.broadcast %xmask_8 : tensor<1x1xi1> -> tensor<1x1024xi1> loc(#loc64)
    %6 = arith.andi %r0_mask_10, %5 : tensor<1x1024xi1> loc(#loc64)
    %7 = arith.truncf %tmp32 : tensor<1x1024xf32> to tensor<1x1024xbf16> loc(#loc65)
    tt.store %4, %7, %6 : tensor<1x1024x!tt.ptr<bf16>> loc(#loc65)
    tt.return loc(#loc66)
  } loc(#loc)
  tt.func private @"triton.language.standard.sum__fp32S1_1024S__(1,)cconstexpr_1__(2,)cconstexpr_False__(3,)cNone"(%input: tensor<1x1024xf32> loc("input"(#loc67))) -> tensor<1xf32> attributes {noinline = false} {
    %0 = "tt.reduce"(%input) <{axis = 1 : i32}> ({
    ^bb0(%arg1: f32 loc(unknown), %arg2: f32 loc(unknown)):
      %2 = tt.call @triton.language.standard._sum_combine__fp32_fp32__(%arg1, %arg2) : (f32, f32) -> f32 loc(#loc68)
      tt.reduce.return %2 : f32 loc(#loc68)
    }) : (tensor<1x1024xf32>) -> tensor<1xf32> loc(#loc68)
    tt.return %0 : tensor<1xf32> loc(#loc70)
  ^bb1:  // no predecessors
    %1 = ub.poison : tensor<1xf32> loc(#loc71)
    tt.return %1 : tensor<1xf32> loc(#loc71)
  } loc(#loc67)
  tt.func private @triton.language.standard._sum_combine__fp32_fp32__(%a: f32 loc("a"(#loc72)), %b: f32 loc("b"(#loc72))) -> f32 attributes {noinline = false} {
    %0 = arith.addf %a, %b : f32 loc(#loc73)
    tt.return %0 : f32 loc(#loc74)
  ^bb1:  // no predecessors
    %1 = ub.poison : f32 loc(#loc75)
    tt.return %1 : f32 loc(#loc75)
  } loc(#loc72)
} loc(#loc)
#loc1 = loc("/root/Profiler/gpt2_optimized_inductor_debug/7s/c7sgzcdwrfeknieyvp5s6uwhmlj5lgddbqiwgdnpnmxlosps6jz4.py":19:13)
#loc2 = loc("/root/Profiler/gpt2_optimized_inductor_debug/7s/c7sgzcdwrfeknieyvp5s6uwhmlj5lgddbqiwgdnpnmxlosps6jz4.py":20:15)
#loc3 = loc("/root/Profiler/gpt2_optimized_inductor_debug/7s/c7sgzcdwrfeknieyvp5s6uwhmlj5lgddbqiwgdnpnmxlosps6jz4.py":24:28)
#loc4 = loc("/root/Profiler/gpt2_optimized_inductor_debug/7s/c7sgzcdwrfeknieyvp5s6uwhmlj5lgddbqiwgdnpnmxlosps6jz4.py":24:33)
#loc5 = loc("/root/Profiler/gpt2_optimized_inductor_debug/7s/c7sgzcdwrfeknieyvp5s6uwhmlj5lgddbqiwgdnpnmxlosps6jz4.py":25:36)
#loc6 = loc("/root/Profiler/gpt2_optimized_inductor_debug/7s/c7sgzcdwrfeknieyvp5s6uwhmlj5lgddbqiwgdnpnmxlosps6jz4.py":25:44)
#loc7 = loc("/root/Profiler/gpt2_optimized_inductor_debug/7s/c7sgzcdwrfeknieyvp5s6uwhmlj5lgddbqiwgdnpnmxlosps6jz4.py":25:23)
#loc8 = loc("/root/Profiler/gpt2_optimized_inductor_debug/7s/c7sgzcdwrfeknieyvp5s6uwhmlj5lgddbqiwgdnpnmxlosps6jz4.py":26:21)
#loc9 = loc("/root/Profiler/gpt2_optimized_inductor_debug/7s/c7sgzcdwrfeknieyvp5s6uwhmlj5lgddbqiwgdnpnmxlosps6jz4.py":27:28)
#loc10 = loc("/root/Profiler/gpt2_optimized_inductor_debug/7s/c7sgzcdwrfeknieyvp5s6uwhmlj5lgddbqiwgdnpnmxlosps6jz4.py":27:38)
#loc11 = loc("/root/Profiler/gpt2_optimized_inductor_debug/7s/c7sgzcdwrfeknieyvp5s6uwhmlj5lgddbqiwgdnpnmxlosps6jz4.py":28:16)
#loc12 = loc("/root/Profiler/gpt2_optimized_inductor_debug/7s/c7sgzcdwrfeknieyvp5s6uwhmlj5lgddbqiwgdnpnmxlosps6jz4.py":29:25)
#loc13 = loc("/root/Profiler/gpt2_optimized_inductor_debug/7s/c7sgzcdwrfeknieyvp5s6uwhmlj5lgddbqiwgdnpnmxlosps6jz4.py":34:19)
#loc14 = loc("/root/Profiler/gpt2_optimized_inductor_debug/7s/c7sgzcdwrfeknieyvp5s6uwhmlj5lgddbqiwgdnpnmxlosps6jz4.py":35:19)
#loc15 = loc("/root/Profiler/gpt2_optimized_inductor_debug/7s/c7sgzcdwrfeknieyvp5s6uwhmlj5lgddbqiwgdnpnmxlosps6jz4.py":36:41)
#loc16 = loc("/root/Profiler/gpt2_optimized_inductor_debug/7s/c7sgzcdwrfeknieyvp5s6uwhmlj5lgddbqiwgdnpnmxlosps6jz4.py":36:37)
#loc17 = loc("/root/Profiler/gpt2_optimized_inductor_debug/7s/c7sgzcdwrfeknieyvp5s6uwhmlj5lgddbqiwgdnpnmxlosps6jz4.py":36:30)
#loc18 = loc("/root/Profiler/gpt2_optimized_inductor_debug/7s/c7sgzcdwrfeknieyvp5s6uwhmlj5lgddbqiwgdnpnmxlosps6jz4.py":36:56)
#loc19 = loc("/root/Profiler/gpt2_optimized_inductor_debug/7s/c7sgzcdwrfeknieyvp5s6uwhmlj5lgddbqiwgdnpnmxlosps6jz4.py":36:46)
#loc20 = loc("/root/Profiler/gpt2_optimized_inductor_debug/7s/c7sgzcdwrfeknieyvp5s6uwhmlj5lgddbqiwgdnpnmxlosps6jz4.py":36:77)
#loc21 = loc("/root/Profiler/gpt2_optimized_inductor_debug/7s/c7sgzcdwrfeknieyvp5s6uwhmlj5lgddbqiwgdnpnmxlosps6jz4.py":37:41)
#loc22 = loc("/root/Profiler/gpt2_optimized_inductor_debug/7s/c7sgzcdwrfeknieyvp5s6uwhmlj5lgddbqiwgdnpnmxlosps6jz4.py":37:37)
#loc23 = loc("/root/Profiler/gpt2_optimized_inductor_debug/7s/c7sgzcdwrfeknieyvp5s6uwhmlj5lgddbqiwgdnpnmxlosps6jz4.py":37:50)
#loc24 = loc("/root/Profiler/gpt2_optimized_inductor_debug/7s/c7sgzcdwrfeknieyvp5s6uwhmlj5lgddbqiwgdnpnmxlosps6jz4.py":37:54)
#loc25 = loc("/root/Profiler/gpt2_optimized_inductor_debug/7s/c7sgzcdwrfeknieyvp5s6uwhmlj5lgddbqiwgdnpnmxlosps6jz4.py":37:46)
#loc26 = loc("/root/Profiler/gpt2_optimized_inductor_debug/7s/c7sgzcdwrfeknieyvp5s6uwhmlj5lgddbqiwgdnpnmxlosps6jz4.py":37:30)
#loc27 = loc("/root/Profiler/gpt2_optimized_inductor_debug/7s/c7sgzcdwrfeknieyvp5s6uwhmlj5lgddbqiwgdnpnmxlosps6jz4.py":37:69)
#loc28 = loc("/root/Profiler/gpt2_optimized_inductor_debug/7s/c7sgzcdwrfeknieyvp5s6uwhmlj5lgddbqiwgdnpnmxlosps6jz4.py":37:59)
#loc29 = loc("/root/Profiler/gpt2_optimized_inductor_debug/7s/c7sgzcdwrfeknieyvp5s6uwhmlj5lgddbqiwgdnpnmxlosps6jz4.py":37:90)
#loc30 = loc("/root/Profiler/gpt2_optimized_inductor_debug/7s/c7sgzcdwrfeknieyvp5s6uwhmlj5lgddbqiwgdnpnmxlosps6jz4.py":38:31)
#loc31 = loc("/root/Profiler/gpt2_optimized_inductor_debug/7s/c7sgzcdwrfeknieyvp5s6uwhmlj5lgddbqiwgdnpnmxlosps6jz4.py":38:38)
#loc32 = loc("/root/Profiler/gpt2_optimized_inductor_debug/7s/c7sgzcdwrfeknieyvp5s6uwhmlj5lgddbqiwgdnpnmxlosps6jz4.py":38:91)
#loc33 = loc("/root/Profiler/gpt2_optimized_inductor_debug/7s/c7sgzcdwrfeknieyvp5s6uwhmlj5lgddbqiwgdnpnmxlosps6jz4.py":39:31)
#loc34 = loc("/root/Profiler/gpt2_optimized_inductor_debug/7s/c7sgzcdwrfeknieyvp5s6uwhmlj5lgddbqiwgdnpnmxlosps6jz4.py":39:38)
#loc35 = loc("/root/Profiler/gpt2_optimized_inductor_debug/7s/c7sgzcdwrfeknieyvp5s6uwhmlj5lgddbqiwgdnpnmxlosps6jz4.py":39:91)
#loc36 = loc("/root/Profiler/gpt2_optimized_inductor_debug/7s/c7sgzcdwrfeknieyvp5s6uwhmlj5lgddbqiwgdnpnmxlosps6jz4.py":40:18)
#loc37 = loc("/root/Profiler/gpt2_optimized_inductor_debug/7s/c7sgzcdwrfeknieyvp5s6uwhmlj5lgddbqiwgdnpnmxlosps6jz4.py":43:30)
#loc38 = loc("/root/Profiler/gpt2_optimized_inductor_debug/7s/c7sgzcdwrfeknieyvp5s6uwhmlj5lgddbqiwgdnpnmxlosps6jz4.py":43:43)
#loc39 = loc("/root/Profiler/gpt2_optimized_inductor_debug/7s/c7sgzcdwrfeknieyvp5s6uwhmlj5lgddbqiwgdnpnmxlosps6jz4.py":45:30)
#loc40 = loc("/root/Profiler/gpt2_optimized_inductor_debug/7s/c7sgzcdwrfeknieyvp5s6uwhmlj5lgddbqiwgdnpnmxlosps6jz4.py":45:43)
#loc41 = loc("/root/Profiler/gpt2_optimized_inductor_debug/7s/c7sgzcdwrfeknieyvp5s6uwhmlj5lgddbqiwgdnpnmxlosps6jz4.py":46:25)
#loc42 = loc("/root/Profiler/gpt2_optimized_inductor_debug/7s/c7sgzcdwrfeknieyvp5s6uwhmlj5lgddbqiwgdnpnmxlosps6jz4.py":46:28)
#loc43 = loc("/root/Profiler/gpt2_optimized_inductor_debug/7s/c7sgzcdwrfeknieyvp5s6uwhmlj5lgddbqiwgdnpnmxlosps6jz4.py":47:33)
#loc44 = loc("/root/Profiler/gpt2_optimized_inductor_debug/7s/c7sgzcdwrfeknieyvp5s6uwhmlj5lgddbqiwgdnpnmxlosps6jz4.py":48:21)
#loc45 = loc("/root/Profiler/gpt2_optimized_inductor_debug/7s/c7sgzcdwrfeknieyvp5s6uwhmlj5lgddbqiwgdnpnmxlosps6jz4.py":49:21)
#loc46 = loc("/root/Profiler/gpt2_optimized_inductor_debug/7s/c7sgzcdwrfeknieyvp5s6uwhmlj5lgddbqiwgdnpnmxlosps6jz4.py":50:19)
#loc47 = loc("/root/Profiler/gpt2_optimized_inductor_debug/7s/c7sgzcdwrfeknieyvp5s6uwhmlj5lgddbqiwgdnpnmxlosps6jz4.py":51:20)
#loc48 = loc("/root/Profiler/gpt2_optimized_inductor_debug/7s/c7sgzcdwrfeknieyvp5s6uwhmlj5lgddbqiwgdnpnmxlosps6jz4.py":53:31)
#loc49 = loc("/root/Profiler/gpt2_optimized_inductor_debug/7s/c7sgzcdwrfeknieyvp5s6uwhmlj5lgddbqiwgdnpnmxlosps6jz4.py":53:45)
#loc50 = loc("/root/Profiler/gpt2_optimized_inductor_debug/7s/c7sgzcdwrfeknieyvp5s6uwhmlj5lgddbqiwgdnpnmxlosps6jz4.py":54:26)
#loc51 = loc("/root/Profiler/gpt2_optimized_inductor_debug/7s/c7sgzcdwrfeknieyvp5s6uwhmlj5lgddbqiwgdnpnmxlosps6jz4.py":54:29)
#loc52 = loc("/root/Profiler/gpt2_optimized_inductor_debug/7s/c7sgzcdwrfeknieyvp5s6uwhmlj5lgddbqiwgdnpnmxlosps6jz4.py":55:19)
#loc53 = loc("/root/Profiler/gpt2_optimized_inductor_debug/7s/c7sgzcdwrfeknieyvp5s6uwhmlj5lgddbqiwgdnpnmxlosps6jz4.py":56:35)
#loc54 = loc("/root/Profiler/gpt2_optimized_inductor_debug/7s/c7sgzcdwrfeknieyvp5s6uwhmlj5lgddbqiwgdnpnmxlosps6jz4.py":57:21)
#loc55 = loc("/root/Profiler/gpt2_optimized_inductor_debug/7s/c7sgzcdwrfeknieyvp5s6uwhmlj5lgddbqiwgdnpnmxlosps6jz4.py":58:35)
#loc56 = loc("/root/Profiler/gpt2_optimized_inductor_debug/7s/c7sgzcdwrfeknieyvp5s6uwhmlj5lgddbqiwgdnpnmxlosps6jz4.py":59:20)
#loc57 = loc("/root/Profiler/gpt2_optimized_inductor_debug/7s/c7sgzcdwrfeknieyvp5s6uwhmlj5lgddbqiwgdnpnmxlosps6jz4.py":60:28)
#loc58 = loc("/root/Profiler/gpt2_optimized_inductor_debug/7s/c7sgzcdwrfeknieyvp5s6uwhmlj5lgddbqiwgdnpnmxlosps6jz4.py":61:20)
#loc59 = loc("/root/Profiler/gpt2_optimized_inductor_debug/7s/c7sgzcdwrfeknieyvp5s6uwhmlj5lgddbqiwgdnpnmxlosps6jz4.py":63:20)
#loc60 = loc("/root/Profiler/gpt2_optimized_inductor_debug/7s/c7sgzcdwrfeknieyvp5s6uwhmlj5lgddbqiwgdnpnmxlosps6jz4.py":65:20)
#loc61 = loc("/root/Profiler/gpt2_optimized_inductor_debug/7s/c7sgzcdwrfeknieyvp5s6uwhmlj5lgddbqiwgdnpnmxlosps6jz4.py":67:36)
#loc62 = loc("/root/Profiler/gpt2_optimized_inductor_debug/7s/c7sgzcdwrfeknieyvp5s6uwhmlj5lgddbqiwgdnpnmxlosps6jz4.py":67:32)
#loc63 = loc("/root/Profiler/gpt2_optimized_inductor_debug/7s/c7sgzcdwrfeknieyvp5s6uwhmlj5lgddbqiwgdnpnmxlosps6jz4.py":67:25)
#loc64 = loc("/root/Profiler/gpt2_optimized_inductor_debug/7s/c7sgzcdwrfeknieyvp5s6uwhmlj5lgddbqiwgdnpnmxlosps6jz4.py":67:58)
#loc65 = loc("/root/Profiler/gpt2_optimized_inductor_debug/7s/c7sgzcdwrfeknieyvp5s6uwhmlj5lgddbqiwgdnpnmxlosps6jz4.py":67:48)
#loc66 = loc("/root/Profiler/gpt2_optimized_inductor_debug/7s/c7sgzcdwrfeknieyvp5s6uwhmlj5lgddbqiwgdnpnmxlosps6jz4.py":67:4)
#loc68 = loc("/usr/local/lib/python3.10/dist-packages/triton/language/standard.py":293:36)
#loc70 = loc("/usr/local/lib/python3.10/dist-packages/triton/language/standard.py":293:11)
#loc71 = loc("/usr/local/lib/python3.10/dist-packages/triton/language/standard.py":293:4)
#loc73 = loc("/usr/local/lib/python3.10/dist-packages/triton/language/standard.py":263:15)
#loc74 = loc("/usr/local/lib/python3.10/dist-packages/triton/language/standard.py":263:11)
#loc75 = loc("/usr/local/lib/python3.10/dist-packages/triton/language/standard.py":263:4)
#loc84 = loc("xnumel"(#loc1))
#loc85 = loc("r0_numel"(#loc2))
#loc86 = loc("xoffset"(#loc3))
#loc87 = loc("xoffset"(#loc4))
#loc88 = loc("xindex"(#loc5))
#loc89 = loc("xindex"(#loc6))
#loc90 = loc("xindex"(#loc7))
#loc91 = loc("xmask"(#loc8))
#loc92 = loc("r0_index"(#loc9))
#loc93 = loc("r0_index"(#loc10))
#loc94 = loc("r0_offset"(#loc11))
#loc95 = loc("r0_mask"(#loc12))
#loc96 = loc("x0"(#loc13))
#loc97 = loc("x1"(#loc14))
#loc98 = loc("tmp0"(#loc15))
#loc99 = loc("tmp0"(#loc16))
#loc100 = loc("tmp0"(#loc17))
#loc101 = loc("tmp0"(#loc18))
#loc102 = loc("tmp0"(#loc19))
#loc103 = loc("tmp0"(#loc20))
#loc104 = loc("tmp1"(#loc21))
#loc105 = loc("tmp1"(#loc22))
#loc106 = loc("tmp1"(#loc23))
#loc107 = loc("tmp1"(#loc24))
#loc108 = loc("tmp1"(#loc25))
#loc109 = loc("tmp1"(#loc26))
#loc110 = loc("tmp1"(#loc27))
#loc111 = loc("tmp1"(#loc28))
#loc112 = loc("tmp1"(#loc29))
#loc113 = loc("tmp27"(#loc30))
#loc114 = loc("tmp27"(#loc31))
#loc115 = loc("tmp27"(#loc32))
#loc116 = loc("tmp30"(#loc33))
#loc117 = loc("tmp30"(#loc34))
#loc118 = loc("tmp30"(#loc35))
#loc119 = loc("tmp2"(#loc36))
#loc120 = loc("tmp6"(#loc37))
#loc121 = loc("tmp6"(#loc38))
#loc122 = loc("tmp9"(#loc39))
#loc123 = loc("tmp9"(#loc40))
#loc124 = loc("tmp10"(#loc41))
#loc125 = loc("tmp10"(#loc42))
#loc126 = loc("tmp11"(#loc43))
#loc127 = loc("tmp12"(#loc44))
#loc128 = loc("tmp13"(#loc45))
#loc129 = loc("tmp14"(#loc46))
#loc130 = loc("tmp15"(#loc47))
#loc131 = loc("tmp18"(#loc48))
#loc132 = loc("tmp18"(#loc49))
#loc133 = loc("tmp19"(#loc50))
#loc134 = loc("tmp19"(#loc51))
#loc135 = loc("tmp20"(#loc52))
#loc136 = loc("tmp21"(#loc53))
#loc137 = loc("tmp22"(#loc54))
#loc138 = loc("tmp23"(#loc55))
#loc139 = loc("tmp24"(#loc56))
#loc140 = loc("tmp25"(#loc57))
#loc141 = loc("tmp26"(#loc58))
#loc142 = loc("tmp29"(#loc59))
#loc143 = loc("tmp32"(#loc60))
