#loc = loc("/root/Profiler/gpt2_optimized_inductor_debug/7s/c7sgzcdwrfeknieyvp5s6uwhmlj5lgddbqiwgdnpnmxlosps6jz4.py":18:0)
#loc1 = loc(unknown)
#loc33 = loc("/root/Profiler/gpt2_optimized_inductor_debug/7s/c7sgzcdwrfeknieyvp5s6uwhmlj5lgddbqiwgdnpnmxlosps6jz4.py":46:25)
#loc40 = loc("/root/Profiler/gpt2_optimized_inductor_debug/7s/c7sgzcdwrfeknieyvp5s6uwhmlj5lgddbqiwgdnpnmxlosps6jz4.py":54:26)
#loc51 = loc("in_ptr0"(#loc))
#loc52 = loc("in_ptr1"(#loc))
#loc53 = loc("in_ptr2"(#loc))
#loc54 = loc("in_ptr3"(#loc))
#loc55 = loc("out_ptr2"(#loc))
#loc56 = loc("ks0"(#loc))
#loc57 = loc("xnumel"(#loc))
#loc58 = loc("r0_numel"(#loc))
#loc89 = loc("tmp10"(#loc33))
#loc95 = loc("tmp19"(#loc40))
#loc108 = loc(callsite(#loc1 at #loc89))
#loc110 = loc(callsite(#loc1 at #loc95))
module {
  tt.func public @triton_per_fused_add_native_layer_norm_view_4(%in_ptr0: !tt.ptr<bf16> {tt.divisibility = 16 : i32} loc("in_ptr0"(#loc)), %in_ptr1: !tt.ptr<bf16> {tt.divisibility = 16 : i32} loc("in_ptr1"(#loc)), %in_ptr2: !tt.ptr<bf16> {tt.divisibility = 16 : i32} loc("in_ptr2"(#loc)), %in_ptr3: !tt.ptr<bf16> {tt.divisibility = 16 : i32} loc("in_ptr3"(#loc)), %out_ptr2: !tt.ptr<bf16> {tt.divisibility = 16 : i32} loc("out_ptr2"(#loc)), %ks0: i64 loc("ks0"(#loc)), %xnumel: i32 {tt.divisibility = 16 : i32} loc("xnumel"(#loc)), %r0_numel: i32 {tt.divisibility = 16 : i32} loc("r0_numel"(#loc))) attributes {noinline = false} {
    %c768_i32 = arith.constant 768 : i32 loc(#loc1)
    %c128_i32 = arith.constant 128 : i32 loc(#loc1)
    %xmask = arith.constant 512 : i32 loc(#loc59)
    %cst = arith.constant dense<0.000000e+00> : tensor<1x1024xbf16> loc(#loc1)
    %tmp23 = arith.constant dense<9.99999974E-6> : tensor<1x1xf32> loc(#loc60)
    %cst_0 = arith.constant dense<7.680000e+02> : tensor<1x1xf32> loc(#loc1)
    %tmp1 = arith.constant 768 : i64 loc(#loc61)
    %cst_1 = arith.constant dense<0.000000e+00> : tensor<1x1024xf32> loc(#loc1)
    %r0_mask = arith.constant dense<768> : tensor<1x1024xi32> loc(#loc62)
    %xoffset = tt.get_program_id x : i32 loc(#loc63)
    %xmask_2 = arith.cmpi slt, %xoffset, %xmask : i32 loc(#loc59)
    %r0_index = tt.make_range {end = 1024 : i32, start = 0 : i32} : tensor<1024xi32> loc(#loc64)
    %r0_index_3 = tt.expand_dims %r0_index {axis = 0 : i32} : tensor<1024xi32> -> tensor<1x1024xi32> loc(#loc65)
    %r0_mask_4 = arith.cmpi slt, %r0_index_3, %r0_mask : tensor<1x1024xi32> loc(#loc62)
    %x0 = arith.remsi %xoffset, %c128_i32 : i32 loc(#loc66)
    %x1 = arith.divsi %xoffset, %c128_i32 : i32 loc(#loc67)
    %tmp0 = arith.muli %xoffset, %c768_i32 : i32 loc(#loc68)
    %tmp0_5 = tt.splat %tmp0 : i32 -> tensor<1x1024xi32> loc(#loc103)
    %tmp0_6 = arith.addi %r0_index_3, %tmp0_5 : tensor<1x1024xi32> loc(#loc69)
    %tmp0_7 = tt.splat %in_ptr0 : !tt.ptr<bf16> -> tensor<1x1024x!tt.ptr<bf16>> loc(#loc70)
    %tmp0_8 = tt.addptr %tmp0_7, %tmp0_6 : tensor<1x1024x!tt.ptr<bf16>>, tensor<1x1024xi32> loc(#loc70)
    %tmp0_9 = tt.splat %xmask_2 : i1 -> tensor<1x1024xi1> loc(#loc104)
    %tmp0_10 = arith.andi %r0_mask_4, %tmp0_9 : tensor<1x1024xi1> loc(#loc71)
    %tmp0_11 = tt.load %tmp0_8, %tmp0_10, %cst : tensor<1x1024x!tt.ptr<bf16>> loc(#loc72)
    %tmp0_12 = arith.extf %tmp0_11 : tensor<1x1024xbf16> to tensor<1x1024xf32> loc(#loc73)
    %tmp1_13 = arith.muli %x0, %c768_i32 : i32 loc(#loc74)
    %tmp1_14 = tt.splat %tmp1_13 : i32 -> tensor<1x1024xi32> loc(#loc105)
    %tmp1_15 = arith.addi %r0_index_3, %tmp1_14 : tensor<1x1024xi32> loc(#loc75)
    %tmp1_16 = arith.muli %ks0, %tmp1 : i64 loc(#loc61)
    %tmp1_17 = arith.extsi %x1 : i32 to i64 loc(#loc76)
    %tmp1_18 = arith.muli %tmp1_16, %tmp1_17 : i64 loc(#loc76)
    %tmp1_19 = arith.extsi %tmp1_15 : tensor<1x1024xi32> to tensor<1x1024xi64> loc(#loc77)
    %tmp1_20 = tt.splat %tmp1_18 : i64 -> tensor<1x1024xi64> loc(#loc106)
    %tmp1_21 = arith.addi %tmp1_19, %tmp1_20 : tensor<1x1024xi64> loc(#loc77)
    %tmp1_22 = tt.splat %in_ptr1 : !tt.ptr<bf16> -> tensor<1x1024x!tt.ptr<bf16>> loc(#loc78)
    %tmp1_23 = tt.addptr %tmp1_22, %tmp1_21 : tensor<1x1024x!tt.ptr<bf16>>, tensor<1x1024xi64> loc(#loc78)
    %tmp1_24 = tt.load %tmp1_23, %tmp0_10, %cst : tensor<1x1024x!tt.ptr<bf16>> loc(#loc79)
    %tmp1_25 = arith.extf %tmp1_24 : tensor<1x1024xbf16> to tensor<1x1024xf32> loc(#loc80)
    %tmp27 = tt.splat %in_ptr2 : !tt.ptr<bf16> -> tensor<1x1024x!tt.ptr<bf16>> loc(#loc81)
    %tmp27_26 = tt.addptr %tmp27, %r0_index_3 : tensor<1x1024x!tt.ptr<bf16>>, tensor<1x1024xi32> loc(#loc81)
    %tmp27_27 = tt.load %tmp27_26, %r0_mask_4, %cst evictionPolicy = evict_last : tensor<1x1024x!tt.ptr<bf16>> loc(#loc82)
    %tmp27_28 = arith.extf %tmp27_27 : tensor<1x1024xbf16> to tensor<1x1024xf32> loc(#loc83)
    %tmp30 = tt.splat %in_ptr3 : !tt.ptr<bf16> -> tensor<1x1024x!tt.ptr<bf16>> loc(#loc84)
    %tmp30_29 = tt.addptr %tmp30, %r0_index_3 : tensor<1x1024x!tt.ptr<bf16>>, tensor<1x1024xi32> loc(#loc84)
    %tmp30_30 = tt.load %tmp30_29, %r0_mask_4, %cst evictionPolicy = evict_last : tensor<1x1024x!tt.ptr<bf16>> loc(#loc85)
    %tmp30_31 = arith.extf %tmp30_30 : tensor<1x1024xbf16> to tensor<1x1024xf32> loc(#loc86)
    %tmp2 = arith.addf %tmp0_12, %tmp1_25 : tensor<1x1024xf32> loc(#loc87)
    %tmp9 = arith.select %tmp0_10, %tmp2, %cst_1 : tensor<1x1024xi1>, tensor<1x1024xf32> loc(#loc88)
    %tmp10 = "tt.reduce"(%tmp9) <{axis = 1 : i32}> ({
    ^bb0(%tmp10_36: f32 loc(callsite(#loc1 at #loc89)), %tmp10_37: f32 loc(callsite(#loc1 at #loc89))):
      %tmp10_38 = arith.addf %tmp10_36, %tmp10_37 : f32 loc(#loc111)
      tt.reduce.return %tmp10_38 : f32 loc(#loc107)
    }) : (tensor<1x1024xf32>) -> tensor<1xf32> loc(#loc107)
    %tmp10_32 = tt.expand_dims %tmp10 {axis = 1 : i32} : tensor<1xf32> -> tensor<1x1xf32> loc(#loc90)
    %tmp13 = arith.divf %tmp10_32, %cst_0 : tensor<1x1xf32> loc(#loc91)
    %tmp14 = tt.broadcast %tmp13 : tensor<1x1xf32> -> tensor<1x1024xf32> loc(#loc92)
    %tmp14_33 = arith.subf %tmp2, %tmp14 : tensor<1x1024xf32> loc(#loc92)
    %tmp15 = arith.mulf %tmp14_33, %tmp14_33 : tensor<1x1024xf32> loc(#loc93)
    %tmp18 = arith.select %tmp0_10, %tmp15, %cst_1 : tensor<1x1024xi1>, tensor<1x1024xf32> loc(#loc94)
    %tmp19 = "tt.reduce"(%tmp18) <{axis = 1 : i32}> ({
    ^bb0(%tmp19_36: f32 loc(callsite(#loc1 at #loc95)), %tmp19_37: f32 loc(callsite(#loc1 at #loc95))):
      %tmp19_38 = arith.addf %tmp19_36, %tmp19_37 : f32 loc(#loc112)
      tt.reduce.return %tmp19_38 : f32 loc(#loc109)
    }) : (tensor<1x1024xf32>) -> tensor<1xf32> loc(#loc109)
    %tmp19_34 = tt.expand_dims %tmp19 {axis = 1 : i32} : tensor<1xf32> -> tensor<1x1xf32> loc(#loc96)
    %tmp22 = arith.divf %tmp19_34, %cst_0 : tensor<1x1xf32> loc(#loc97)
    %tmp24 = arith.addf %tmp22, %tmp23 : tensor<1x1xf32> loc(#loc98)
    %tmp25 = tt.extern_elementwise %tmp24 {libname = "", libpath = "", pure = true, symbol = "__nv_rsqrtf"} : (tensor<1x1xf32>) -> tensor<1x1xf32> loc(#loc99)
    %tmp26 = tt.broadcast %tmp25 : tensor<1x1xf32> -> tensor<1x1024xf32> loc(#loc100)
    %tmp26_35 = arith.mulf %tmp14_33, %tmp26 : tensor<1x1024xf32> loc(#loc100)
    %tmp29 = arith.mulf %tmp26_35, %tmp27_28 : tensor<1x1024xf32> loc(#loc101)
    %tmp32 = arith.addf %tmp29, %tmp30_31 : tensor<1x1024xf32> loc(#loc102)
    %0 = tt.splat %out_ptr2 : !tt.ptr<bf16> -> tensor<1x1024x!tt.ptr<bf16>> loc(#loc48)
    %1 = tt.addptr %0, %tmp0_6 : tensor<1x1024x!tt.ptr<bf16>>, tensor<1x1024xi32> loc(#loc48)
    %2 = arith.truncf %tmp32 : tensor<1x1024xf32> to tensor<1x1024xbf16> loc(#loc49)
    tt.store %1, %2, %tmp0_10 : tensor<1x1024x!tt.ptr<bf16>> loc(#loc49)
    tt.return loc(#loc50)
  } loc(#loc)
} loc(#loc)
#loc2 = loc("/root/Profiler/gpt2_optimized_inductor_debug/7s/c7sgzcdwrfeknieyvp5s6uwhmlj5lgddbqiwgdnpnmxlosps6jz4.py":26:21)
#loc3 = loc("/root/Profiler/gpt2_optimized_inductor_debug/7s/c7sgzcdwrfeknieyvp5s6uwhmlj5lgddbqiwgdnpnmxlosps6jz4.py":58:35)
#loc4 = loc("/root/Profiler/gpt2_optimized_inductor_debug/7s/c7sgzcdwrfeknieyvp5s6uwhmlj5lgddbqiwgdnpnmxlosps6jz4.py":37:50)
#loc5 = loc("/root/Profiler/gpt2_optimized_inductor_debug/7s/c7sgzcdwrfeknieyvp5s6uwhmlj5lgddbqiwgdnpnmxlosps6jz4.py":29:25)
#loc6 = loc("/root/Profiler/gpt2_optimized_inductor_debug/7s/c7sgzcdwrfeknieyvp5s6uwhmlj5lgddbqiwgdnpnmxlosps6jz4.py":24:28)
#loc7 = loc("/root/Profiler/gpt2_optimized_inductor_debug/7s/c7sgzcdwrfeknieyvp5s6uwhmlj5lgddbqiwgdnpnmxlosps6jz4.py":27:28)
#loc8 = loc("/root/Profiler/gpt2_optimized_inductor_debug/7s/c7sgzcdwrfeknieyvp5s6uwhmlj5lgddbqiwgdnpnmxlosps6jz4.py":27:38)
#loc9 = loc("/root/Profiler/gpt2_optimized_inductor_debug/7s/c7sgzcdwrfeknieyvp5s6uwhmlj5lgddbqiwgdnpnmxlosps6jz4.py":34:19)
#loc10 = loc("/root/Profiler/gpt2_optimized_inductor_debug/7s/c7sgzcdwrfeknieyvp5s6uwhmlj5lgddbqiwgdnpnmxlosps6jz4.py":35:19)
#loc11 = loc("/root/Profiler/gpt2_optimized_inductor_debug/7s/c7sgzcdwrfeknieyvp5s6uwhmlj5lgddbqiwgdnpnmxlosps6jz4.py":36:41)
#loc12 = loc("/root/Profiler/gpt2_optimized_inductor_debug/7s/c7sgzcdwrfeknieyvp5s6uwhmlj5lgddbqiwgdnpnmxlosps6jz4.py":36:37)
#loc13 = loc("/root/Profiler/gpt2_optimized_inductor_debug/7s/c7sgzcdwrfeknieyvp5s6uwhmlj5lgddbqiwgdnpnmxlosps6jz4.py":36:30)
#loc14 = loc("/root/Profiler/gpt2_optimized_inductor_debug/7s/c7sgzcdwrfeknieyvp5s6uwhmlj5lgddbqiwgdnpnmxlosps6jz4.py":36:56)
#loc15 = loc("/root/Profiler/gpt2_optimized_inductor_debug/7s/c7sgzcdwrfeknieyvp5s6uwhmlj5lgddbqiwgdnpnmxlosps6jz4.py":36:46)
#loc16 = loc("/root/Profiler/gpt2_optimized_inductor_debug/7s/c7sgzcdwrfeknieyvp5s6uwhmlj5lgddbqiwgdnpnmxlosps6jz4.py":36:77)
#loc17 = loc("/root/Profiler/gpt2_optimized_inductor_debug/7s/c7sgzcdwrfeknieyvp5s6uwhmlj5lgddbqiwgdnpnmxlosps6jz4.py":37:41)
#loc18 = loc("/root/Profiler/gpt2_optimized_inductor_debug/7s/c7sgzcdwrfeknieyvp5s6uwhmlj5lgddbqiwgdnpnmxlosps6jz4.py":37:37)
#loc19 = loc("/root/Profiler/gpt2_optimized_inductor_debug/7s/c7sgzcdwrfeknieyvp5s6uwhmlj5lgddbqiwgdnpnmxlosps6jz4.py":37:54)
#loc20 = loc("/root/Profiler/gpt2_optimized_inductor_debug/7s/c7sgzcdwrfeknieyvp5s6uwhmlj5lgddbqiwgdnpnmxlosps6jz4.py":37:46)
#loc21 = loc("/root/Profiler/gpt2_optimized_inductor_debug/7s/c7sgzcdwrfeknieyvp5s6uwhmlj5lgddbqiwgdnpnmxlosps6jz4.py":37:30)
#loc22 = loc("/root/Profiler/gpt2_optimized_inductor_debug/7s/c7sgzcdwrfeknieyvp5s6uwhmlj5lgddbqiwgdnpnmxlosps6jz4.py":37:59)
#loc23 = loc("/root/Profiler/gpt2_optimized_inductor_debug/7s/c7sgzcdwrfeknieyvp5s6uwhmlj5lgddbqiwgdnpnmxlosps6jz4.py":37:90)
#loc24 = loc("/root/Profiler/gpt2_optimized_inductor_debug/7s/c7sgzcdwrfeknieyvp5s6uwhmlj5lgddbqiwgdnpnmxlosps6jz4.py":38:31)
#loc25 = loc("/root/Profiler/gpt2_optimized_inductor_debug/7s/c7sgzcdwrfeknieyvp5s6uwhmlj5lgddbqiwgdnpnmxlosps6jz4.py":38:38)
#loc26 = loc("/root/Profiler/gpt2_optimized_inductor_debug/7s/c7sgzcdwrfeknieyvp5s6uwhmlj5lgddbqiwgdnpnmxlosps6jz4.py":38:91)
#loc27 = loc("/root/Profiler/gpt2_optimized_inductor_debug/7s/c7sgzcdwrfeknieyvp5s6uwhmlj5lgddbqiwgdnpnmxlosps6jz4.py":39:31)
#loc28 = loc("/root/Profiler/gpt2_optimized_inductor_debug/7s/c7sgzcdwrfeknieyvp5s6uwhmlj5lgddbqiwgdnpnmxlosps6jz4.py":39:38)
#loc29 = loc("/root/Profiler/gpt2_optimized_inductor_debug/7s/c7sgzcdwrfeknieyvp5s6uwhmlj5lgddbqiwgdnpnmxlosps6jz4.py":39:91)
#loc30 = loc("/root/Profiler/gpt2_optimized_inductor_debug/7s/c7sgzcdwrfeknieyvp5s6uwhmlj5lgddbqiwgdnpnmxlosps6jz4.py":40:18)
#loc31 = loc("/root/Profiler/gpt2_optimized_inductor_debug/7s/c7sgzcdwrfeknieyvp5s6uwhmlj5lgddbqiwgdnpnmxlosps6jz4.py":45:43)
#loc32 = loc("/usr/local/lib/python3.10/dist-packages/triton/language/standard.py":293:36)
#loc34 = loc("/usr/local/lib/python3.10/dist-packages/triton/language/standard.py":263:15)
#loc35 = loc("/root/Profiler/gpt2_optimized_inductor_debug/7s/c7sgzcdwrfeknieyvp5s6uwhmlj5lgddbqiwgdnpnmxlosps6jz4.py":46:28)
#loc36 = loc("/root/Profiler/gpt2_optimized_inductor_debug/7s/c7sgzcdwrfeknieyvp5s6uwhmlj5lgddbqiwgdnpnmxlosps6jz4.py":49:21)
#loc37 = loc("/root/Profiler/gpt2_optimized_inductor_debug/7s/c7sgzcdwrfeknieyvp5s6uwhmlj5lgddbqiwgdnpnmxlosps6jz4.py":50:19)
#loc38 = loc("/root/Profiler/gpt2_optimized_inductor_debug/7s/c7sgzcdwrfeknieyvp5s6uwhmlj5lgddbqiwgdnpnmxlosps6jz4.py":51:20)
#loc39 = loc("/root/Profiler/gpt2_optimized_inductor_debug/7s/c7sgzcdwrfeknieyvp5s6uwhmlj5lgddbqiwgdnpnmxlosps6jz4.py":53:45)
#loc41 = loc("/root/Profiler/gpt2_optimized_inductor_debug/7s/c7sgzcdwrfeknieyvp5s6uwhmlj5lgddbqiwgdnpnmxlosps6jz4.py":54:29)
#loc42 = loc("/root/Profiler/gpt2_optimized_inductor_debug/7s/c7sgzcdwrfeknieyvp5s6uwhmlj5lgddbqiwgdnpnmxlosps6jz4.py":57:21)
#loc43 = loc("/root/Profiler/gpt2_optimized_inductor_debug/7s/c7sgzcdwrfeknieyvp5s6uwhmlj5lgddbqiwgdnpnmxlosps6jz4.py":59:20)
#loc44 = loc("/root/Profiler/gpt2_optimized_inductor_debug/7s/c7sgzcdwrfeknieyvp5s6uwhmlj5lgddbqiwgdnpnmxlosps6jz4.py":60:28)
#loc45 = loc("/root/Profiler/gpt2_optimized_inductor_debug/7s/c7sgzcdwrfeknieyvp5s6uwhmlj5lgddbqiwgdnpnmxlosps6jz4.py":61:20)
#loc46 = loc("/root/Profiler/gpt2_optimized_inductor_debug/7s/c7sgzcdwrfeknieyvp5s6uwhmlj5lgddbqiwgdnpnmxlosps6jz4.py":63:20)
#loc47 = loc("/root/Profiler/gpt2_optimized_inductor_debug/7s/c7sgzcdwrfeknieyvp5s6uwhmlj5lgddbqiwgdnpnmxlosps6jz4.py":65:20)
#loc48 = loc("/root/Profiler/gpt2_optimized_inductor_debug/7s/c7sgzcdwrfeknieyvp5s6uwhmlj5lgddbqiwgdnpnmxlosps6jz4.py":67:25)
#loc49 = loc("/root/Profiler/gpt2_optimized_inductor_debug/7s/c7sgzcdwrfeknieyvp5s6uwhmlj5lgddbqiwgdnpnmxlosps6jz4.py":67:48)
#loc50 = loc("/root/Profiler/gpt2_optimized_inductor_debug/7s/c7sgzcdwrfeknieyvp5s6uwhmlj5lgddbqiwgdnpnmxlosps6jz4.py":67:4)
#loc59 = loc("xmask"(#loc2))
#loc60 = loc("tmp23"(#loc3))
#loc61 = loc("tmp1"(#loc4))
#loc62 = loc("r0_mask"(#loc5))
#loc63 = loc("xoffset"(#loc6))
#loc64 = loc("r0_index"(#loc7))
#loc65 = loc("r0_index"(#loc8))
#loc66 = loc("x0"(#loc9))
#loc67 = loc("x1"(#loc10))
#loc68 = loc("tmp0"(#loc11))
#loc69 = loc("tmp0"(#loc12))
#loc70 = loc("tmp0"(#loc13))
#loc71 = loc("tmp0"(#loc14))
#loc72 = loc("tmp0"(#loc15))
#loc73 = loc("tmp0"(#loc16))
#loc74 = loc("tmp1"(#loc17))
#loc75 = loc("tmp1"(#loc18))
#loc76 = loc("tmp1"(#loc19))
#loc77 = loc("tmp1"(#loc20))
#loc78 = loc("tmp1"(#loc21))
#loc79 = loc("tmp1"(#loc22))
#loc80 = loc("tmp1"(#loc23))
#loc81 = loc("tmp27"(#loc24))
#loc82 = loc("tmp27"(#loc25))
#loc83 = loc("tmp27"(#loc26))
#loc84 = loc("tmp30"(#loc27))
#loc85 = loc("tmp30"(#loc28))
#loc86 = loc("tmp30"(#loc29))
#loc87 = loc("tmp2"(#loc30))
#loc88 = loc("tmp9"(#loc31))
#loc90 = loc("tmp10"(#loc35))
#loc91 = loc("tmp13"(#loc36))
#loc92 = loc("tmp14"(#loc37))
#loc93 = loc("tmp15"(#loc38))
#loc94 = loc("tmp18"(#loc39))
#loc96 = loc("tmp19"(#loc41))
#loc97 = loc("tmp22"(#loc42))
#loc98 = loc("tmp24"(#loc43))
#loc99 = loc("tmp25"(#loc44))
#loc100 = loc("tmp26"(#loc45))
#loc101 = loc("tmp29"(#loc46))
#loc102 = loc("tmp32"(#loc47))
#loc103 = loc(fused[#loc69, #loc68])
#loc104 = loc(fused[#loc71, #loc59])
#loc105 = loc(fused[#loc75, #loc74])
#loc106 = loc(fused[#loc77, #loc76])
#loc107 = loc(callsite(#loc32 at #loc89))
#loc109 = loc(callsite(#loc32 at #loc95))
#loc111 = loc(callsite(#loc34 at #loc107))
#loc112 = loc(callsite(#loc34 at #loc109))
