#loc = loc("/root/Profiler/examples/sdpa_attention/test_run/inductor_debug_opt/fu/cfufwl6ubxe4gkspbjot43hikzva3jej73cgzziouqz27zopuxqk.py":18:0)
#loc53 = loc("arg_A"(#loc))
#loc54 = loc("arg_B"(#loc))
#loc55 = loc("out_ptr0"(#loc))
module {
  tt.func public @triton_mm(%arg_A: !tt.ptr<bf16> {tt.divisibility = 16 : i32} loc("arg_A"(#loc)), %arg_B: !tt.ptr<bf16> {tt.divisibility = 16 : i32} loc("arg_B"(#loc)), %out_ptr0: !tt.ptr<bf16> {tt.divisibility = 16 : i32} loc("out_ptr0"(#loc))) attributes {noinline = false} {
    %c4_i32 = arith.constant 4 : i32 loc(#loc56)
    %c1_i32 = arith.constant 1 : i32 loc(#loc3)
    %cst = arith.constant dense<4096> : tensor<64x1xi32> loc(#loc4)
    %cst_0 = arith.constant dense<0.000000e+00> : tensor<64x64xf32> loc(#loc4)
    %cst_1 = arith.constant dense<512> : tensor<1x64xi32> loc(#loc4)
    %cst_2 = arith.constant dense<512> : tensor<64x1xi32> loc(#loc4)
    %c128_i32 = arith.constant 128 : i32 loc(#loc4)
    %cst_3 = arith.constant dense<512> : tensor<64xi32> loc(#loc4)
    %cst_4 = arith.constant dense<4096> : tensor<64xi32> loc(#loc4)
    %c8_i32 = arith.constant 8 : i32 loc(#loc4)
    %c64_i32 = arith.constant 64 : i32 loc(#loc4)
    %c0_i32 = arith.constant 0 : i32 loc(#loc4)
    %pid = tt.get_program_id x : i32 loc(#loc57)
    %group_id = arith.divsi %pid, %c64_i32 : i32 loc(#loc58)
    %group_size = arith.muli %group_id, %c8_i32 : i32 loc(#loc59)
    %group_size_5 = arith.subi %c64_i32, %group_size : i32 loc(#loc60)
    %group_size_6 = arith.minsi %group_size_5, %c8_i32 : i32 loc(#loc61)
    %pid_m = arith.remsi %pid, %group_size_6 : i32 loc(#loc62)
    %pid_m_7 = arith.addi %group_size, %pid_m : i32 loc(#loc63)
    %pid_n = arith.remsi %pid, %c64_i32 : i32 loc(#loc64)
    %pid_n_8 = arith.divsi %pid_n, %group_size_6 : i32 loc(#loc65)
    %0 = arith.cmpi sge, %pid_m_7, %c0_i32 : i32 loc(#loc14)
    llvm.intr.assume %0 : i1 loc(#loc15)
    %1 = arith.cmpi sge, %pid_n_8, %c0_i32 : i32 loc(#loc16)
    llvm.intr.assume %1 : i1 loc(#loc17)
    %rm = arith.muli %pid_m_7, %c64_i32 : i32 loc(#loc66)
    %rm_9 = tt.make_range {end = 64 : i32, start = 0 : i32} : tensor<64xi32> loc(#loc67)
    %rm_10 = tt.splat %rm : i32 -> tensor<64xi32> loc(#loc68)
    %rm_11 = arith.addi %rm_10, %rm_9 : tensor<64xi32> loc(#loc68)
    %rn = arith.muli %pid_n_8, %c64_i32 : i32 loc(#loc69)
    %rn_12 = tt.splat %rn : i32 -> tensor<64xi32> loc(#loc70)
    %rn_13 = arith.addi %rn_12, %rm_9 : tensor<64xi32> loc(#loc70)
    %offs_a_m = arith.remsi %rm_11, %cst_4 {tt.contiguity = dense<64> : tensor<1xi32>, tt.divisibility = dense<64> : tensor<1xi32>} : tensor<64xi32> loc(#loc98)
    %offs_b_n = arith.remsi %rn_13, %cst_3 {tt.contiguity = dense<64> : tensor<1xi32>, tt.divisibility = dense<64> : tensor<1xi32>} : tensor<64xi32> loc(#loc99)
    %offs_k = tt.make_range {end = 128 : i32, start = 0 : i32} : tensor<128xi32> loc(#loc73)
    %acc = scf.for %k_idx = %c0_i32 to %c4_i32 step %c1_i32 iter_args(%acc_21 = %cst_0) -> (tensor<64x64xf32>)  : i32 {
      %a_k_idx_vals = tt.expand_dims %offs_k {axis = 0 : i32} : tensor<128xi32> -> tensor<1x128xi32> loc(#loc75)
      %a_k_idx_vals_22 = arith.muli %k_idx, %c128_i32 : i32 loc(#loc76)
      %a_k_idx_vals_23 = tt.splat %a_k_idx_vals_22 : i32 -> tensor<1x128xi32> loc(#loc77)
      %a_k_idx_vals_24 = arith.addi %a_k_idx_vals, %a_k_idx_vals_23 : tensor<1x128xi32> loc(#loc77)
      %b_k_idx_vals = tt.expand_dims %offs_k {axis = 1 : i32} : tensor<128xi32> -> tensor<128x1xi32> loc(#loc78)
      %b_k_idx_vals_25 = tt.splat %a_k_idx_vals_22 : i32 -> tensor<128x1xi32> loc(#loc79)
      %b_k_idx_vals_26 = arith.addi %b_k_idx_vals, %b_k_idx_vals_25 : tensor<128x1xi32> loc(#loc79)
      %idx_m_27 = tt.expand_dims %offs_a_m {axis = 1 : i32} : tensor<64xi32> -> tensor<64x1xi32> loc(#loc80)
      %xindex_28 = arith.muli %idx_m_27, %cst_2 : tensor<64x1xi32> loc(#loc81)
      %xindex_29 = tt.broadcast %a_k_idx_vals_24 : tensor<1x128xi32> -> tensor<64x128xi32> loc(#loc82)
      %xindex_30 = tt.broadcast %xindex_28 : tensor<64x1xi32> -> tensor<64x128xi32> loc(#loc82)
      %xindex_31 = arith.addi %xindex_29, %xindex_30 : tensor<64x128xi32> loc(#loc82)
      %a = tt.splat %arg_A : !tt.ptr<bf16> -> tensor<64x128x!tt.ptr<bf16>> loc(#loc83)
      %a_32 = tt.addptr %a, %xindex_31 : tensor<64x128x!tt.ptr<bf16>>, tensor<64x128xi32> loc(#loc83)
      %a_33 = tt.load %a_32 : tensor<64x128x!tt.ptr<bf16>> loc(#loc84)
      %idx_n_34 = tt.expand_dims %offs_b_n {axis = 0 : i32} : tensor<64xi32> -> tensor<1x64xi32> loc(#loc85)
      %b = arith.muli %idx_n_34, %cst_1 : tensor<1x64xi32> loc(#loc86)
      %b_35 = tt.broadcast %b_k_idx_vals_26 : tensor<128x1xi32> -> tensor<128x64xi32> loc(#loc87)
      %b_36 = tt.broadcast %b : tensor<1x64xi32> -> tensor<128x64xi32> loc(#loc87)
      %b_37 = arith.addi %b_35, %b_36 : tensor<128x64xi32> loc(#loc87)
      %b_38 = tt.splat %arg_B : !tt.ptr<bf16> -> tensor<128x64x!tt.ptr<bf16>> loc(#loc88)
      %b_39 = tt.addptr %b_38, %b_37 : tensor<128x64x!tt.ptr<bf16>>, tensor<128x64xi32> loc(#loc88)
      %b_40 = tt.load %b_39 : tensor<128x64x!tt.ptr<bf16>> loc(#loc89)
      %acc_41 = tt.dot %a_33, %b_40, %acc_21 : tensor<64x128xbf16> * tensor<128x64xbf16> -> tensor<64x64xf32> loc(#loc90)
      scf.yield %acc_41 : tensor<64x64xf32> loc(#loc42)
    } loc(#loc74)
    %idx_m = tt.expand_dims %rm_11 {axis = 1 : i32} : tensor<64xi32> -> tensor<64x1xi32> loc(#loc91)
    %idx_n = tt.expand_dims %rn_13 {axis = 0 : i32} : tensor<64xi32> -> tensor<1x64xi32> loc(#loc92)
    %mask = arith.cmpi slt, %idx_m, %cst : tensor<64x1xi32> loc(#loc93)
    %mask_14 = arith.cmpi slt, %idx_n, %cst_1 : tensor<1x64xi32> loc(#loc94)
    %mask_15 = tt.broadcast %mask : tensor<64x1xi1> -> tensor<64x64xi1> loc(#loc95)
    %mask_16 = tt.broadcast %mask_14 : tensor<1x64xi1> -> tensor<64x64xi1> loc(#loc95)
    %mask_17 = arith.andi %mask_15, %mask_16 : tensor<64x64xi1> loc(#loc95)
    %xindex = arith.muli %idx_m, %cst_2 : tensor<64x1xi32> loc(#loc96)
    %xindex_18 = tt.broadcast %idx_n : tensor<1x64xi32> -> tensor<64x64xi32> loc(#loc97)
    %xindex_19 = tt.broadcast %xindex : tensor<64x1xi32> -> tensor<64x64xi32> loc(#loc97)
    %xindex_20 = arith.addi %xindex_18, %xindex_19 : tensor<64x64xi32> loc(#loc97)
    %2 = tt.splat %out_ptr0 : !tt.ptr<bf16> -> tensor<64x64x!tt.ptr<bf16>> loc(#loc50)
    %3 = tt.addptr %2, %xindex_20 : tensor<64x64x!tt.ptr<bf16>>, tensor<64x64xi32> loc(#loc50)
    %4 = arith.truncf %acc : tensor<64x64xf32> to tensor<64x64xbf16> loc(#loc51)
    tt.store %3, %4, %mask_17 : tensor<64x64x!tt.ptr<bf16>> loc(#loc51)
    tt.return loc(#loc52)
  } loc(#loc)
} loc(#loc)
#loc1 = loc("/usr/local/lib/python3.10/dist-packages/triton/language/standard.py":43:30)
#loc2 = loc("/root/Profiler/examples/sdpa_attention/test_run/inductor_debug_opt/fu/cfufwl6ubxe4gkspbjot43hikzva3jej73cgzziouqz27zopuxqk.py":69:37)
#loc3 = loc("/root/Profiler/examples/sdpa_attention/test_run/inductor_debug_opt/fu/cfufwl6ubxe4gkspbjot43hikzva3jej73cgzziouqz27zopuxqk.py":69:26)
#loc4 = loc(unknown)
#loc5 = loc("/root/Profiler/examples/sdpa_attention/test_run/inductor_debug_opt/fu/cfufwl6ubxe4gkspbjot43hikzva3jej73cgzziouqz27zopuxqk.py":43:24)
#loc6 = loc("/root/Profiler/examples/sdpa_attention/test_run/inductor_debug_opt/fu/cfufwl6ubxe4gkspbjot43hikzva3jej73cgzziouqz27zopuxqk.py":49:22)
#loc7 = loc("/root/Profiler/examples/sdpa_attention/test_run/inductor_debug_opt/fu/cfufwl6ubxe4gkspbjot43hikzva3jej73cgzziouqz27zopuxqk.py":50:41)
#loc8 = loc("/root/Profiler/examples/sdpa_attention/test_run/inductor_debug_opt/fu/cfufwl6ubxe4gkspbjot43hikzva3jej73cgzziouqz27zopuxqk.py":50:30)
#loc9 = loc("/root/Profiler/examples/sdpa_attention/test_run/inductor_debug_opt/fu/cfufwl6ubxe4gkspbjot43hikzva3jej73cgzziouqz27zopuxqk.py":50:50)
#loc10 = loc("/root/Profiler/examples/sdpa_attention/test_run/inductor_debug_opt/fu/cfufwl6ubxe4gkspbjot43hikzva3jej73cgzziouqz27zopuxqk.py":51:40)
#loc11 = loc("/root/Profiler/examples/sdpa_attention/test_run/inductor_debug_opt/fu/cfufwl6ubxe4gkspbjot43hikzva3jej73cgzziouqz27zopuxqk.py":51:34)
#loc12 = loc("/root/Profiler/examples/sdpa_attention/test_run/inductor_debug_opt/fu/cfufwl6ubxe4gkspbjot43hikzva3jej73cgzziouqz27zopuxqk.py":52:19)
#loc13 = loc("/root/Profiler/examples/sdpa_attention/test_run/inductor_debug_opt/fu/cfufwl6ubxe4gkspbjot43hikzva3jej73cgzziouqz27zopuxqk.py":52:30)
#loc14 = loc("/root/Profiler/examples/sdpa_attention/test_run/inductor_debug_opt/fu/cfufwl6ubxe4gkspbjot43hikzva3jej73cgzziouqz27zopuxqk.py":53:23)
#loc15 = loc("/root/Profiler/examples/sdpa_attention/test_run/inductor_debug_opt/fu/cfufwl6ubxe4gkspbjot43hikzva3jej73cgzziouqz27zopuxqk.py":53:14)
#loc16 = loc("/root/Profiler/examples/sdpa_attention/test_run/inductor_debug_opt/fu/cfufwl6ubxe4gkspbjot43hikzva3jej73cgzziouqz27zopuxqk.py":54:23)
#loc17 = loc("/root/Profiler/examples/sdpa_attention/test_run/inductor_debug_opt/fu/cfufwl6ubxe4gkspbjot43hikzva3jej73cgzziouqz27zopuxqk.py":54:14)
#loc18 = loc("/root/Profiler/examples/sdpa_attention/test_run/inductor_debug_opt/fu/cfufwl6ubxe4gkspbjot43hikzva3jej73cgzziouqz27zopuxqk.py":56:17)
#loc19 = loc("/root/Profiler/examples/sdpa_attention/test_run/inductor_debug_opt/fu/cfufwl6ubxe4gkspbjot43hikzva3jej73cgzziouqz27zopuxqk.py":56:40)
#loc20 = loc("/root/Profiler/examples/sdpa_attention/test_run/inductor_debug_opt/fu/cfufwl6ubxe4gkspbjot43hikzva3jej73cgzziouqz27zopuxqk.py":56:27)
#loc21 = loc("/root/Profiler/examples/sdpa_attention/test_run/inductor_debug_opt/fu/cfufwl6ubxe4gkspbjot43hikzva3jej73cgzziouqz27zopuxqk.py":57:17)
#loc22 = loc("/root/Profiler/examples/sdpa_attention/test_run/inductor_debug_opt/fu/cfufwl6ubxe4gkspbjot43hikzva3jej73cgzziouqz27zopuxqk.py":57:27)
#loc23 = loc("/root/Profiler/examples/sdpa_attention/test_run/inductor_debug_opt/fu/cfufwl6ubxe4gkspbjot43hikzva3jej73cgzziouqz27zopuxqk.py":59:57)
#loc24 = loc("/root/Profiler/examples/sdpa_attention/test_run/inductor_debug_opt/fu/cfufwl6ubxe4gkspbjot43hikzva3jej73cgzziouqz27zopuxqk.py":63:57)
#loc25 = loc("/root/Profiler/examples/sdpa_attention/test_run/inductor_debug_opt/fu/cfufwl6ubxe4gkspbjot43hikzva3jej73cgzziouqz27zopuxqk.py":66:26)
#loc26 = loc("/root/Profiler/examples/sdpa_attention/test_run/inductor_debug_opt/fu/cfufwl6ubxe4gkspbjot43hikzva3jej73cgzziouqz27zopuxqk.py":71:30)
#loc27 = loc("/root/Profiler/examples/sdpa_attention/test_run/inductor_debug_opt/fu/cfufwl6ubxe4gkspbjot43hikzva3jej73cgzziouqz27zopuxqk.py":71:50)
#loc28 = loc("/root/Profiler/examples/sdpa_attention/test_run/inductor_debug_opt/fu/cfufwl6ubxe4gkspbjot43hikzva3jej73cgzziouqz27zopuxqk.py":71:42)
#loc29 = loc("/root/Profiler/examples/sdpa_attention/test_run/inductor_debug_opt/fu/cfufwl6ubxe4gkspbjot43hikzva3jej73cgzziouqz27zopuxqk.py":72:30)
#loc30 = loc("/root/Profiler/examples/sdpa_attention/test_run/inductor_debug_opt/fu/cfufwl6ubxe4gkspbjot43hikzva3jej73cgzziouqz27zopuxqk.py":72:42)
#loc31 = loc("/root/Profiler/examples/sdpa_attention/test_run/inductor_debug_opt/fu/cfufwl6ubxe4gkspbjot43hikzva3jej73cgzziouqz27zopuxqk.py":74:25)
#loc32 = loc("/root/Profiler/examples/sdpa_attention/test_run/inductor_debug_opt/fu/cfufwl6ubxe4gkspbjot43hikzva3jej73cgzziouqz27zopuxqk.py":76:29)
#loc33 = loc("/root/Profiler/examples/sdpa_attention/test_run/inductor_debug_opt/fu/cfufwl6ubxe4gkspbjot43hikzva3jej73cgzziouqz27zopuxqk.py":76:25)
#loc34 = loc("/root/Profiler/examples/sdpa_attention/test_run/inductor_debug_opt/fu/cfufwl6ubxe4gkspbjot43hikzva3jej73cgzziouqz27zopuxqk.py":77:25)
#loc35 = loc("/root/Profiler/examples/sdpa_attention/test_run/inductor_debug_opt/fu/cfufwl6ubxe4gkspbjot43hikzva3jej73cgzziouqz27zopuxqk.py":77:20)
#loc36 = loc("/root/Profiler/examples/sdpa_attention/test_run/inductor_debug_opt/fu/cfufwl6ubxe4gkspbjot43hikzva3jej73cgzziouqz27zopuxqk.py":80:25)
#loc37 = loc("/root/Profiler/examples/sdpa_attention/test_run/inductor_debug_opt/fu/cfufwl6ubxe4gkspbjot43hikzva3jej73cgzziouqz27zopuxqk.py":82:54)
#loc38 = loc("/root/Profiler/examples/sdpa_attention/test_run/inductor_debug_opt/fu/cfufwl6ubxe4gkspbjot43hikzva3jej73cgzziouqz27zopuxqk.py":82:50)
#loc39 = loc("/root/Profiler/examples/sdpa_attention/test_run/inductor_debug_opt/fu/cfufwl6ubxe4gkspbjot43hikzva3jej73cgzziouqz27zopuxqk.py":82:25)
#loc40 = loc("/root/Profiler/examples/sdpa_attention/test_run/inductor_debug_opt/fu/cfufwl6ubxe4gkspbjot43hikzva3jej73cgzziouqz27zopuxqk.py":82:20)
#loc41 = loc("/root/Profiler/examples/sdpa_attention/test_run/inductor_debug_opt/fu/cfufwl6ubxe4gkspbjot43hikzva3jej73cgzziouqz27zopuxqk.py":85:25)
#loc42 = loc("/root/Profiler/examples/sdpa_attention/test_run/inductor_debug_opt/fu/cfufwl6ubxe4gkspbjot43hikzva3jej73cgzziouqz27zopuxqk.py":85:8)
#loc43 = loc("/root/Profiler/examples/sdpa_attention/test_run/inductor_debug_opt/fu/cfufwl6ubxe4gkspbjot43hikzva3jej73cgzziouqz27zopuxqk.py":91:15)
#loc44 = loc("/root/Profiler/examples/sdpa_attention/test_run/inductor_debug_opt/fu/cfufwl6ubxe4gkspbjot43hikzva3jej73cgzziouqz27zopuxqk.py":92:15)
#loc45 = loc("/root/Profiler/examples/sdpa_attention/test_run/inductor_debug_opt/fu/cfufwl6ubxe4gkspbjot43hikzva3jej73cgzziouqz27zopuxqk.py":93:20)
#loc46 = loc("/root/Profiler/examples/sdpa_attention/test_run/inductor_debug_opt/fu/cfufwl6ubxe4gkspbjot43hikzva3jej73cgzziouqz27zopuxqk.py":93:34)
#loc47 = loc("/root/Profiler/examples/sdpa_attention/test_run/inductor_debug_opt/fu/cfufwl6ubxe4gkspbjot43hikzva3jej73cgzziouqz27zopuxqk.py":93:26)
#loc48 = loc("/root/Profiler/examples/sdpa_attention/test_run/inductor_debug_opt/fu/cfufwl6ubxe4gkspbjot43hikzva3jej73cgzziouqz27zopuxqk.py":96:25)
#loc49 = loc("/root/Profiler/examples/sdpa_attention/test_run/inductor_debug_opt/fu/cfufwl6ubxe4gkspbjot43hikzva3jej73cgzziouqz27zopuxqk.py":96:21)
#loc50 = loc("/root/Profiler/examples/sdpa_attention/test_run/inductor_debug_opt/fu/cfufwl6ubxe4gkspbjot43hikzva3jej73cgzziouqz27zopuxqk.py":97:25)
#loc51 = loc("/root/Profiler/examples/sdpa_attention/test_run/inductor_debug_opt/fu/cfufwl6ubxe4gkspbjot43hikzva3jej73cgzziouqz27zopuxqk.py":97:76)
#loc52 = loc("/root/Profiler/examples/sdpa_attention/test_run/inductor_debug_opt/fu/cfufwl6ubxe4gkspbjot43hikzva3jej73cgzziouqz27zopuxqk.py":97:4)
#loc56 = loc(callsite(#loc1 at #loc2))
#loc57 = loc("pid"(#loc5))
#loc58 = loc("group_id"(#loc6))
#loc59 = loc("group_size"(#loc7))
#loc60 = loc("group_size"(#loc8))
#loc61 = loc("group_size"(#loc9))
#loc62 = loc("pid_m"(#loc10))
#loc63 = loc("pid_m"(#loc11))
#loc64 = loc("pid_n"(#loc12))
#loc65 = loc("pid_n"(#loc13))
#loc66 = loc("rm"(#loc18))
#loc67 = loc("rm"(#loc19))
#loc68 = loc("rm"(#loc20))
#loc69 = loc("rn"(#loc21))
#loc70 = loc("rn"(#loc22))
#loc71 = loc("offs_a_m"(#loc23))
#loc72 = loc("offs_b_n"(#loc24))
#loc73 = loc("offs_k"(#loc25))
#loc74 = loc("acc"(#loc3))
#loc75 = loc("a_k_idx_vals"(#loc26))
#loc76 = loc("a_k_idx_vals"(#loc27))
#loc77 = loc("a_k_idx_vals"(#loc28))
#loc78 = loc("b_k_idx_vals"(#loc29))
#loc79 = loc("b_k_idx_vals"(#loc30))
#loc80 = loc("idx_m"(#loc31))
#loc81 = loc("xindex"(#loc32))
#loc82 = loc("xindex"(#loc33))
#loc83 = loc("a"(#loc34))
#loc84 = loc("a"(#loc35))
#loc85 = loc("idx_n"(#loc36))
#loc86 = loc("b"(#loc37))
#loc87 = loc("b"(#loc38))
#loc88 = loc("b"(#loc39))
#loc89 = loc("b"(#loc40))
#loc90 = loc("acc"(#loc41))
#loc91 = loc("idx_m"(#loc43))
#loc92 = loc("idx_n"(#loc44))
#loc93 = loc("mask"(#loc45))
#loc94 = loc("mask"(#loc46))
#loc95 = loc("mask"(#loc47))
#loc96 = loc("xindex"(#loc48))
#loc97 = loc("xindex"(#loc49))
#loc98 = loc("offs_a_m"(#loc71))
#loc99 = loc("offs_b_n"(#loc72))
